trained_models/breast_cancer_rand_corr.pt (torch, 11873 bytes, 12 tensors)

encoder.0.weight f4 [16, 30]
00000000: c6b7 e13d 3fc5 b33c 1658 90bf 0d40 123e
00000010: 261b c6bb 7d84 353d d859 323d 24aa 763d
00000020: 9bc1 60bc 9df5 b9bd 7731 c3bd 8e6f 96bd
00000030: 93bd 8abd 9a00 b43f 7c03 8cbd ca0f d3bc
00000040: faaf 40bd af8b d4bc 1eb3 3cbd e099 96bd
00000050: 245b b03d fc9d ffb9 478a 79bd 8e54 bb3d
00000060: 1044 0dbc bb62 d23c c403 f43c f440 803d
00000070: 1683 e83c 6afe 60bc d047 f03d 2205 8a3e
00000080: 0c7b c13d 576e 0b3e 0c98 6dbd 7833 5fbc
00000090: 7d25 103c 859e d43c bdef 883b 3257 3dbd
000000a0: cead 3d3e 69c4 4a3e 5666 2e3e a6ef c0be
000000b0: b995 213c 9bff ee3b 8242 7c3c bdd5 9bbb
000000c0: 3918 dd3c d969 9dbc f76b 243e 62f8 8e3e
000000d0: eb37 e0be a5cf 223e e1f2 8cbc f8e4 e33c
000000e0: b92e 4fbb ab32 f43c c96a e43c 0ace 46bd
000000f0: 8cb7 223c a23c 6bbc 986b 52bf 272c 50bb
00000100: 3f3f fe3c 7f59 2d3d 4469 3dba efaa 9e3c
00000110: dcb4 183d 2976 5dba c925 18be 6187 56bd
00000120: 1a86 dcbd c19c 39bf 2001 99bd ba6a afbc
00000130: 14df 0bbd 7b60 a1bc ad87 27bd 40c3 cebc
00000140: ff6f f53a 8fff 6fbc d453 46bf 820a 2abc
00000150: e955 2a3d d462 663d 4224 013d 06e9 353d
00000160: d711 743d 928b a53c 2627 bebe 6a43 bdbc
00000170: bc68 70bf 9bdc c2be b2cd d2bc 8b19 8dbd
00000180: a6cd babd d693 82bd 203d ff3b 1e4d 9a3d
00000190: 1242 833d a537 923d 84ba 9d3b 5755 9cbe
000001a0: 3df5 833d d341 19bd dcde 003c 6b69 4dbd
000001b0: 6841 d83c bfdc 3e3d 1181 8dbe 747f 10bd
000001c0: 9e1e 8b3d 057b 92be 8889 a0bc 18b7 a9bd
000001d0: 592d 9bbd d2f2 ccbd 37eb 3bbc e1bc ebbc
000001e0: d2a6 9a3e de6a 3f3c 4b71 e0be 1235 9e3e
000001f0: 30c8 54bc b5c2 973d f8be a83d f457 143e
00000200: 112b 32bc 7689 c0bd e5c9 d83d e5a5 3abd
00000210: 13d9 fd3d cc8b 463d dbf0 a4bd f776 4f3c
00000220: af5e acbc 9dce a33c 4662 49bd c739 42bd
00000230: 7b76 933e 92c6 c93c c911 d0bf 1ede 953e
00000240: ea60 64bc fbe8 923d ef37 743d f929 f63d
00000250: 071d ff3c 9560 17bc aff4 5d3e 61cd 75bc
00000260: bf96 483f 80fc 903e 53be 9bbc ed75 a03d
00000270: 332a 633d 7637 a93d 0760 17bd 6211 42bd
00000280: e61d 843c d8eb 09be ab1b 713d e87f 9ebe
00000290: cbe9 23be 8bf4 fd3c 378c 313c d6c2 9a3c
000002a0: b383 80bd 5c30 15bb d42f 5d3e 40a8 c73b
000002b0: 5a31 253d 4c56 693e 12e3 68bb 0c3e 833d
000002c0: 81f4 833d 3893 833d 2d87 293d 3aaa af3c
000002d0: 50f1 b3bc cba8 073d 93cb a23f 06c3 19bc
000002e0: 96fd c9bc 214e d5bd 32d0 e2bd 9d51 bdbd
000002f0: a422 57bc e877 dd3d b426 b13d ca47 043e
00000300: 8936 3e3d f14e f43d d73b 143e 42a2 b3ba
00000310: 6e3e dfbc ec37 3bbd 46ed 753d 7027 783d
00000320: 5fd8 e33b b7f6 cc3c fd6b 213f 3756 c03c
00000330: bc3e 883c 5131 6abd 84b0 d5bd 260b 0ebe
00000340: 0e31 7bbd f1db 1e3d 428b b13e ae81 703d
00000350: 202e 95bf 0b9f c43e 8c1f 3f3d c856 b53d
00000360: 936c 253e a987 5a3e 5ea5 8f3c 4f74 27be
00000370: 1792 b23e 707d 0e3c e1e0 a93e 55ea 9fbf
00000380: a3e3 b3bc 979f af3a d6ba c3bc d17c 753d
00000390: bcac 7cbb 2000 0fbd ebd1 ac3e 6079 773d
000003a0: 928a 093f 3618 be3e 4a25 0d39 b7e2 9b3c
000003b0: 8553 e73c cb63 093e c3de af3b ec89 21bd
000003c0: 3302 9b3c e708 a1bd b952 97be 9e96 c73c
000003d0: 422f f0bd 3e81 eebd b267 c8bd 6d29 86bd
000003e0: 392a aabd bb8f 56be acb0 72bb c91b d8bc
000003f0: b056 b63c 8b37 783e 4e79 88bb fe8c 2cbc
0.1102138 0.02194464 -1.1276882 0.14282246 -0.006045717 0.044315804 0.043542713 0.060220852
-0.013718034 -0.0908005 -0.09530919 -0.07345496 -0.0677444 1.4062684 -0.06836602 -0.025764365
-0.047042824 -0.025945513 -0.046069257 -0.07353568 0.08611134 -0.00048755098 -0.060922887 0.09146987
-0.008622184 0.025681844 0.029786952 0.06262389 0.02838282 -0.013732532 0.11732447 0.2695704
0.094472975 0.1361631 -0.05800633 -0.013623111 0.008798 0.025954494 0.0041789697 -0.046225734
0.18523332 0.19801487 0.17031226 -0.37682837 0.009862357 0.007293654 0.015396716 -0.004755704
0.02698909 -0.019215511 0.1605681 0.27923876 -0.43792662 0.15899523 -0.017205657 0.027819142
-0.0031613542 0.029809317 0.02788295 -0.048536338 0.009931456 -0.014357718 -0.82195425 -0.0031764598
0.031036017 0.04232168 -0.00072254636 0.019368617 0.037281856 -0.0008448088 -0.14858164 -0.0523752
-0.10767765 -0.7250481 -0.07470918 -0.021413196 -0.03414829 -0.019699326 -0.040900875 -0.025239587
0.0018725394 -0.014648332 -0.7747166 -0.010378482 0.041585837 0.056246594 0.03152872 0.04441168
0.059587326 0.020208154 -0.37139243 -0.023103435 -0.9390981 -0.38058934 -0.025732849 -0.068896376
-0.091212556 -0.06375854 0.007789269 0.0753424 0.06409086 0.071395196 0.004813494 -0.3053386
0.0644326 -0.03741629 0.007865634 -0.050149363 0.026398376 0.04659724 -0.27637532 -0.0352778
0.06792949 -0.2860948 -0.01959683 -0.082868755 -0.07577009 -0.10007252 -0.011469654 -0.028776588
0.302054 0.011683194 -0.43836436 0.30899864 -0.012987182 0.07410184 0.082395494 0.14486676
-0.010874526 -0.094012186 0.10585383 -0.045568366 0.12394919 0.048473164 -0.08053752 0.012662641
-0.021041242 0.019995982 -0.049165986 -0.047418382 0.2880133 0.024630819 -1.6255428 0.29271024
-0.013939122 0.07173344 0.059623655 0.120197244 0.031141771 -0.009239336 0.2167537 -0.015002579
0.7835502 0.28317642 -0.019011652 0.078349926 0.055460166 0.082625315 -0.036956813 -0.04737986
0.016127538 -0.13468874 0.058864277 -0.3095696 -0.16007154 0.031000396 0.0108366525 0.018891733
-0.0627512 -0.002276442 0.21600276 0.006093055 0.04033027 0.22786826 -0.0035535735 0.06408319
0.0644312 0.06424564 0.04138868 0.021443475 -0.021965653 0.033119958 1.2718376 -0.009384876
-0.024657052 -0.104152925 -0.11074866 -0.09244082 -0.013130818 0.10813886 0.0864996 0.1291801
0.046438728 0.119291194 0.14475952 -0.0013704973 -0.027251448 -0.045707628 0.060040735 0.060584486
0.0069532837 0.025019987 0.630554 0.02347861 0.016631477 -0.057175938 -0.10434058 -0.1387144
-0.06132608 0.03878397 0.34676558 0.058717422 -1.1654701 0.3840259 0.046660945 0.08854443
0.16154699 0.21340813 0.017534908 -0.16352962 0.34877083 0.008696899 0.3317938 -1.2493387
-0.021959132 0.0013399002 -0.023892801 0.059933487 -0.0038555106 -0.03491223 0.33753905 0.060418487
0.53727067 0.37127846 0.00013460699 0.019029004 0.028238067 0.13416974 0.0053671314 -0.039438173
0.018921947 -0.07863026 -0.295553 0.024363812 -0.11727764 -0.11645745 -0.09785403 -0.0655087
-0.083088346 -0.20953266 -0.0037031574 -0.026380436 0.022258133 0.24239938 -0.0041648513 -0.010531662

encoder.0.bias f4 [16]
00000000: 5c4e c43e f3c0 dc3d 7d98 833e af38 67be
00000010: edd6 1ebe f37b 213f 1f90 9c3d 555d f43d
00000020: 071f c63d e7bd 02bd 4511 d7bd 00df 40be
00000030: 4737 2e3f 27de 9a3f 2a8d f63e 79e6 903e
0.38341033 0.1077899 0.25702277 -0.22580217 -0.15511675 0.63079756 0.076446764 0.11931864
0.09673887 -0.031919386 -0.10501341 -0.18835068 0.68053097 1.2099046 0.48154575 0.28300837

encoder.3.weight f4 [16, 16]
00000000: d3ef c03e eb02 83be 24ee 913e 39a2 4a3e
00000010: 5e87 923e 2623 5b3d 32d4 2fbc 3cc2 513d
00000020: 3f27 3cbe be40 a73e e6c6 ca3e 21b9 4cbd
00000030: 23ab d7bd dfab c03c 7f27 183e 1451 373e
00000040: 2bb1 3b3e 77b9 023e c429 f83e f30b e5bd
00000050: 45dc 2fbf 3f68 2bbe 7cc8 89be 8f5c 033f
00000060: 3354 9fbc 05b8 32be 1f23 533d 2557 7c3e
00000070: 292b 623d e107 10bd a04d 2a3e 3b81 bebd
00000080: 2753 76bf e051 533d bb85 10be a220 a93d
00000090: 3b61 d03d 6fb3 0b3e 3c61 3e3c c7ad 813f
000000a0: bdef 403d 40e7 6cbc 47ff e23d 356c aebd
000000b0: 891a 24bf 6d06 e6be de3f 963e a95e b23d
000000c0: b82a b83e f032 183d 90c8 eabe 9bb0 e13e
000000d0: 7e76 943e 501f 39be 633b c43e 421d 91be
000000e0: 870e 4ebe 4997 5e3e ecca 26be f500 a8be
000000f0: 1884 cdbe b9a8 47be 2865 1b3e 048b 8e3d
00000100: ee19 e4bd e669 0bbc 5ad3 a03e adff 74be
00000110: 9758 93be 448a b33e 3480 ddbd b363 58be
00000120: be96 b63e 3ba6 6cbd 2ed9 1dbd 3c1c 093e
00000130: e49d ad3e 9c57 89bd 854b e0bb 9d90 b83e
00000140: d1e6 fdbd 07c5 973e 2e5e 1e3e a2de a53e
00000150: dd7f aabd 07b8 05be ddd2 a63d 28d5 763e
00000160: 815c 3abd 0ba1 8bbe 77c4 a5bd 70fe 44bd
00000170: a1b8 5b3d aadb c23e 82cd 783d bd73 f73e
00000180: 602b 5b3e b4a9 6f3e cf18 123d 6215 92bc
00000190: 7371 26bf 2979 013f 8594 793e 5fb8 ce3d
000001a0: 5c79 0f3c b1eb 21be a940 5b3e a8fb 4abd
000001b0: b652 b63e 3690 efbe 9816 a13e f440 cfba
000001c0: 75aa 9f3e 213c 83bd 207f b6bd 1e6c 983e
000001d0: 9cc7 103f ae8c 91bd 1089 7f3e 2e2a 053f
000001e0: e230 563e 34ce 293e f33e 0ebd 5764 6f3d
000001f0: 3411 b2bd e2ce 083d f663 90be 383d be3d
00000200: 6fb6 223e 9393 b33d ac23 07bd 95f8 363c
00000210: 5544 263f 23c1 193e 446b 0d3d 4c56 bdbd
00000220: 5d7a 953d 2186 abbd 55be 9b3e bfb4 3a3d
00000230: 7af3 dc3d db6b 153f 108a 293e 5446 bcbe
00000240: 4e85 1dbf 74ee 103d c2e8 553e 209c f23e
00000250: ce42 c4be e131 3dbb 3059 5d3e 5415 263e
00000260: 6986 57bc a855 5ebc eb0a 503e 4844 fc3e
00000270: ef3e fc3e 8cdf 443e 6849 45bd 15d7 85be
00000280: eac7 9fbc 2aad 86be 2de4 b43e 1dcc 193d
00000290: 01d8 9b3e f7c4 343e c3d9 99bc dda0 cf3e
000002a0: 25d1 83bc eb8a 9a3e f065 64bd 7b15 6b3c
000002b0: 2e33 f23e 23d6 ca3e 7c66 29be 88f4 383e
000002c0: 85b5 cc3d 268e d8bd 1030 94be a0a2 28be
000002d0: 580b babe 5422 d8bd aa13 273f 5760 6e3d
000002e0: 17e8 b63a e3e8 1f3e a032 a8bc fe78 72bd
000002f0: 1ed0 9abe 627c b23e 4248 22bf 3bcd fb3c
00000300: be94 363f 8ab3 6cbc 1a1a d4bd e0f0 dc3c
00000310: cf13 4e3e 078a 3a3e b4e3 b93e 5d3e 393d
00000320: 2051 ecbd ecfb 133e 8e6b 65bc 2215 633e
00000330: 5343 b4be b50a 88bc 5c42 b53e c464 053e
00000340: b2b1 f0be 4b9b e8bd d3d7 b4be 7c98 753e
00000350: 15b6 013f 98e6 9c3e 610d d63e 05d3 e5be
00000360: 3dc7 cfbd 9928 f03d 43bc 213e 63b2 08be
00000370: d36e 093d 2fe8 07be c200 3c3f 1cfe 3c3e
00000380: 4215 45bf 4015 d6bd d493 613c ee8c 3e3e
00000390: 6e2c 043f 9bbd e1bd fdbe 55be 94ed 0f3f
000003a0: f0db 203d 3ce6 5d3e 454a bbbd 6f7d a3bd
000003b0: c12e 26be 5ce7 483e 3d19 f13a 8d32 5a3d
000003c0: c314 433e 9d54 e53d 6295 af3e bbd5 8b3e
000003d0: e8d4 aabe 880d 273d 558e a33d ab86 283e
000003e0: b34b c93e c021 e03b cad6 7bbe 6250 2c3e
000003f0: 848c 4a3e 622d 30be 98f2 dc3d 31fb 7bbe
0.3768297 -0.25588164 0.28502 0.19788446 0.28618902 0.053500317 -0.010731744 0.051210627
-0.18374346 0.32666582 0.39604872 -0.04998124 -0.105306886 0.023519455 0.14858817 0.17902023
0.18329303 0.12766062 0.48469365 -0.1118392 -0.6869548 -0.16738985 -0.2691077 0.5131311
-0.019449329 -0.1745301 0.051547166 0.24642618 0.055216942 -0.035163764 0.16631174 -0.093019925
-0.9622063 0.051591754 -0.14113514 0.08258177 0.10174795 0.13642667 0.011619862 1.0131158
0.047103632 -0.014459431 0.110838465 -0.085167326 -0.6410299 -0.44926777 0.29345602 0.08709461
0.35970092 0.037157953 -0.45856142 0.44080052 0.28996652 -0.18078351 0.38326558 -0.28342634
-0.20122729 0.21737398 -0.16288346 -0.3281323 -0.40139842 -0.19497956 0.15175307 0.06960109
-0.11137758 -0.008509135 0.31411248 -0.23925658 -0.28778526 0.35066426 -0.108154684 -0.21131782
0.35661882 -0.057775717 -0.038537197 0.13389677 0.33909523 -0.06706163 -0.00684494 0.3604783
-0.1239754 0.29642507 0.15465614 0.32396418 -0.08325169 -0.13058482 0.08145688 0.2410475
-0.045498375 -0.27271304 -0.08094113 -0.048094213 0.053642873 0.38058215 0.060742863 0.4833049
0.21403265 0.2340458 0.03566819 -0.017832462 -0.6501686 0.505755 0.24373062 0.1009376
0.008756962 -0.15812565 0.21411385 -0.049556404 0.35609978 -0.46789712 0.3146255 -0.0015812204
0.31184736 -0.06407953 -0.08910966 0.29769987 0.5655458 -0.07106911 0.24954629 0.52017486
0.20917085 0.16582566 -0.034728 0.0584453 -0.086946875 0.033400424 -0.28201264 0.0928902
0.15889905 0.08768382 -0.032993004 0.011167665 0.64948016 0.15015082 0.034526125 -0.092449754
0.072987296 -0.083751924 0.3041865 0.04558253 0.10788627 0.583677 0.16556573 -0.36772406
-0.6153153 0.035383657 0.20889571 0.4738474 -0.38332218 -0.0028868841 0.21616054 0.16219074
-0.0131546045 -0.013570227 0.20316665 0.49270844 0.49266765 0.19225901 -0.04816571 -0.26140657
-0.019504506 -0.2630399 0.35330334 0.037548173 0.30438235 0.17653261 -0.018780595 0.40552416
-0.016090939 0.3018411 -0.055761278 0.014348383 0.47304672 0.39616498 -0.16543001 0.18062031
0.099955596 -0.10573988 -0.2894292 -0.16468287 -0.3633678 -0.105534226 0.6526438 0.058197346
0.0013954666 0.15616183 -0.020531952 -0.05919742 -0.30236906 0.34860522 -0.63391507 0.03073751
0.7132071 -0.014447102 -0.10356541 0.026970327 0.20124744 0.18216716 0.36306536 0.04522549
-0.11538911 0.1445157 -0.014002694 0.2217603 -0.35207614 -0.016606668 0.3540219 0.1302672
-0.4701057 -0.11357745 -0.3532091 0.2398395 0.5066846 0.3064468 0.41807082 -0.44887558
-0.101454236 0.117264934 0.15794472 -0.13349299 0.033552956 -0.13272165 0.73438656 0.1845631
-0.7698556 -0.10453272 0.013768155 0.18608448 0.51630294 -0.110224925 -0.20873637 0.5622189
0.03927225 0.21669859 -0.09145025 -0.07982909 -0.16228773 0.19619507 0.0018394362 0.053270865
0.19050889 0.11197779 0.34293658 0.273115 -0.3336556 0.04078439 0.07986132 0.16457622
0.39315566 0.006839961 -0.24593654 0.16827539 0.19780165 -0.17204812 0.107884586 -0.2460754

encoder.3.bias f4 [16]
00000000: f647 353e ae7c 0d3e fbdf 223e a681 efbd
00000010: 23ae 853e 70a6 9e3c 80e6 cdbd 9567 5f3b
00000020: e955 2c3d 2900 913e 85e9 0cbe 09fa 99be
00000030: 07c3 eabd a0e3 473c 6d00 04be cbaa 01bd
0.17703232 0.13817093 0.15905754 -0.1169465 0.26109418 0.019366473 -0.1005373 0.003408884
0.042074118 0.28320435 -0.13760956 -0.30073574 -0.1146298 0.012200266 -0.12890787 -0.03165702

encoder.6.weight f4 [16, 16]
00000000: bbd6 39be 2cef 73be 3a3e 643d 0f88 8fbe
00000010: 8b51 043e 63a0 d83c d79c 37be 53ac f83e
00000020: 43cc 12be d5e5 56bc c127 43be a01b 62bd
00000030: 1410 6f3d 6043 783e f82d 25be 5457 f73e
00000040: c3d8 d0be 7934 033e 8f96 a13d 5766 9dbc
00000050: 01aa 71bb a67c e33e f2a8 18be ba75 d5bd
00000060: 456e f43e 3dba 41bd 27c9 efbd 7a9e 883e
00000070: 467f 273e 20bb b83d c710 2d3e 254d 923e
00000080: 0c32 8d3e da2a c9bd 55ec 7cbd 0386 1bbf
00000090: d2ff d1be 8801 323e 123d 1cbf 2ae3 b63e
000000a0: 1876 723e 859f aebd 2da3 a2bd 0830 22bf
000000b0: 8c79 0e3e 50f2 043f a6e5 d43e 698b be3d
000000c0: 4ca2 543e 1402 8f3e 4b90 533e 330d 973c
000000d0: 7635 efbd 171b debd f60a ed3e da90 cd3d
000000e0: 077a bd3d 6a78 1bbf dcdb c1be 7221 65be
000000f0: fa80 363f b6ed 6d3e acbf 8fbf 7f16 59be
00000100: 8664 91be 53a2 4a3e 9521 343f 458b 26bf
00000110: 3e96 6fbe 48dd c9bd 45ac e1bd 907d f43d
00000120: 3145 a03e 55ac c2be 0e83 013f 20d8 163e
00000130: 0a8a a93e c25a 193f f0cd ccbe 6faa 50be
00000140: 1c68 2b3d 01ff 3f3d d01d 253f 7081 bebe
00000150: 9dcb 573d aba5 c0bd 9b3b 04bf c8c5 b63e
00000160: b7b0 d93e ecff a1be da28 28be 622e 1c3f
00000170: aa29 0c3e a72f 36bd 38eb 323f 23b2 f9be
00000180: 9591 f4bd 7888 423d 5034 41bf f07e 073e
00000190: 807a 4abe 9144 633e 92c3 ecbd 201a b73e
000001a0: a8c0 3c3d 0948 d83e 750a 8c3d 932a d23e
000001b0: 5943 85be de62 4f3e dc57 22be cf92 a6bd
000001c0: acb4 f33d 1882 dc3e fada 383f 78a0 ccbe
000001d0: 4e9a 74be b979 4f3d 757c eebe 2ece ee3d
000001e0: c5ca a5bd 7651 c4be 3801 e5bd df3f 113f
000001f0: 52b6 b33e b8de 093f d00c 08be c950 943d
00000200: 9ad4 10be 476b d93b ac54 de3d 6ca5 e93c
00000210: e6ec 863d 4c15 a7be 4788 84be f66a ca3d
00000220: f0bc 32bd 7260 593e 1b99 da3e 95e6 b63d
00000230: 1a6f be3d 6a60 673e bdb9 4e3e 2f5e c93e
00000240: d065 a83e 8ab4 333e ffd4 9dbe 33dd 16be
00000250: a3a4 c13d 6e27 4f3e ac23 b4be 6408 6abe
00000260: 1b80 4ebe 4eab 493e f079 f53d 7440 afbe
00000270: 6dec e5be cde9 e83d dcd1 113d 93f6 d83e
00000280: 5297 ab3e 96b6 a73e 751e 1c3e 90c3 a7bd
00000290: 81e8 c6bd e9fd c2bd 563f dd3d d9dd a4be
000002a0: 12b2 eb3e 3a03 713e de5a 253c 185b 4bbd
000002b0: 1d7d 3b3e 01d7 86bd 221b 983d 137e 7fbe
000002c0: 30d8 c6be b840 a6be d016 35bf 3a83 c13e
000002d0: 8218 8d3e 30f4 a43c 6cce ce3e 5d67 933d
000002e0: 8c64 0c3e feff 523e ba00 cf3e 02aa a4be
000002f0: 0578 8fbd d287 5bbe b5c6 133f 867a 62be
00000300: 7d8c 873e 20e5 ddbd 5700 7d3e 0371 49be
00000310: cfab 223e c241 003f 0543 0dbd 742d cf3d
00000320: b432 42be a029 72be e70d 843e 1565 2cbe
00000330: 4dd2 53be 6dca 473e 07ff 52be 338a a8bd
00000340: a57e 1abe 7494 863e 6f96 90be eb45 04bf
00000350: 8cf5 ec3c 6254 a1be 85fe a2bd befe 603e
00000360: 10b1 cd3d 787f 9a3e fa08 7fbe 0ac2 85be
00000370: 1c48 0d3f 2f42 853b 920b e63d 34e0 1fbd
00000380: 5035 8a3d 9088 18bf 8c93 8cbc 9287 5cbe
00000390: 7b7e 83bd a3bf f33d 212c 8cbe 1393 f53d
000003a0: 9e84 ac3e de73 ab3d 480a c9bc b1c2 773e
000003b0: 09be 4a3e 35f0 6dbf cae3 493f e43f 47be
000003c0: 6c1b 453d 121d f7bc b9f5 67be 34bb bbbd
000003d0: 06f0 463e 331c eabd 2461 2e3e c833 1fbe
000003e0: 47b5 80be 7f40 6fbe 5d35 803e b68a 523f
000003f0: efd0 d13e b41f a03d 1ad5 b83e fe33 503c
-0.1814832 -0.23821706 0.055723406 -0.28033492 0.12921731 0.026443666 -0.17930923 0.48568973
-0.14335732 -0.01311632 -0.19058134 -0.055202127 0.058364943 0.24244452 -0.16130817 0.48308814
-0.40790376 0.12812985 0.07890045 -0.019213839 -0.0036875012 0.44431037 -0.14908198 -0.10422845
0.4774038 -0.04729675 -0.11708289 0.26683408 0.16357145 0.09020066 0.16900931 0.28574482
0.27577245 -0.098226264 -0.06174882 -0.6075136 -0.41015488 0.17383397 -0.61030686 0.35720187
0.23677862 -0.0852652 -0.079412796 -0.6335454 0.13913554 0.5193224 0.41581458 0.09303934
0.20765036 0.27931273 0.20660512 0.018438911 -0.11680119 -0.10845011 0.46297425 0.10037394
0.092517905 -0.6073061 -0.37863052 -0.2237604 0.7129055 0.23235211 -1.1230369 -0.21199988
-0.28397006 0.19788484 0.7036374 -0.6505626 -0.23397157 -0.09856659 -0.11019186 0.11938012
0.3130279 -0.38022104 0.505906 0.14730883 0.33113128 0.5990411 -0.40000868 -0.20377515
0.041847333 0.04687405 0.64498615 -0.37208128 0.052684415 -0.09406599 -0.5165345 0.3569777
0.42517635 -0.31640565 -0.16421834 0.61008275 0.13687769 -0.04447904 0.69890165 -0.4876872
-0.1194183 0.047493428 -0.7547045 0.13232017 -0.19773293 0.22194125 -0.115607396 0.3576212
0.04608217 0.42242458 0.06837932 0.41048107 -0.26027945 0.20252559 -0.15853828 -0.0813347
0.11899695 0.43068004 0.7220913 -0.39966178 -0.23886988 0.050653193 -0.46579328 0.116604194
-0.08095316 -0.383434 -0.11181873 0.56738085 0.35100037 0.53855467 -0.13286138 0.07241971
-0.14143601 0.006635103 0.10855994 0.028521262 0.065881535 -0.32633436 -0.2588522 0.098836824
-0.043637216 0.21228197 0.42694935 0.08930699 0.09298535 0.22595373 0.20188041 0.3932967
0.32890177 0.17549339 -0.30826566 -0.14732818 0.0945523 0.20229885 -0.35183465 -0.22854763
-0.20166056 0.19694254 0.11986148 -0.3422886 -0.4490694 0.11372719 0.035600528 0.4237562
0.33513886 0.3275649 0.15245993 -0.081915975 -0.09712315 -0.09521086 0.10803096 -0.32200506
0.46034294 0.23536387 0.010092465 -0.04964742 0.18309446 -0.065839775 0.0742705 -0.24950437
-0.38836813 -0.3247125 -0.70737934 0.3779543 0.2755776 0.020135969 0.40391862 0.07197449
0.1371023 0.20605466 0.40430242 -0.32160956 -0.07005314 -0.2143853 0.5772508 -0.22117051
0.26474372 -0.10834718 0.24707161 -0.19672017 0.15885852 0.5010034 -0.034487743 0.10116091
-0.18964654 -0.23648691 0.25791857 -0.16835435 -0.20685692 0.19510813 -0.20605098 -0.082294844
-0.15087374 0.26285136 -0.28239772 -0.51669186 0.02892568 -0.3150969 -0.07958702 0.21972176
0.100435376 0.30175376 -0.24905768 -0.26124603 0.55188155 0.0040667276 0.112326756 -0.039032176
0.0674845 -0.5958338 -0.0171602 -0.21536091 -0.064206086 0.11901786 -0.27377418 0.11990943
0.3369493 0.08371709 -0.024541035 0.24195363 0.19799055 -0.9294465 0.78863204 -0.19457966
0.048121855 -0.030165229 -0.2265233 -0.091665655 0.19427499 -0.1143116 0.17029244 -0.15547097
-0.25138304 -0.23364447 0.25040713 0.82242906 0.40979716 0.07818547 0.36100084 0.012707708

encoder.6.bias f4 [16]
00000000: 4ec1 6f3d 2e65 c93d 5e21 2cbe f8db d73c
00000010: 8afb d5be 8011 233e 35ab 25be d53f 97be
00000020: a60d 69bd 566f 17bd a993 4d3e 8b49 00bd
00000030: 730e 9a3d 98eb 38bd 01b7 a03d 0b27 c8ba
0.05853396 0.098337516 -0.16809604 0.026350006 -0.41793472 0.15924644 -0.16178592 -0.29540887
-0.05689778 -0.036971413 0.20075859 -0.031320136 0.07522287 -0.045146555 0.07847405 -0.0015270425

encoder.9.weight f4 [16, 16]
00000000: 1a94 84be 62ab 67be a530 d43e ac78 81be
00000010: ba7e 223e 019a 983d d364 c4ba 1574 cdbe
00000020: 4f79 e13e 8193 bfbc 89ab 1dbd aa83 5bbe
00000030: 4f3c 513c a653 05be c166 fcbe 1ef5 a43e
00000040: 1dc4 bebd 2170 90bd 71a8 ecbd 1c17 f53e
00000050: 1fa2 423c ba28 213f 150c a7be 8b09 03be
00000060: 740c 03be 7c84 bc3d 0ad1 68be 2c00 bebd
00000070: 1116 c03c 77da 213e e41a 993e 4564 b43e
00000080: 7ca2 1dbe 8b1d bebd 3ce6 cdbe 02ac 053d
00000090: 51ff dfbe 49f2 57be d1e3 953e 4015 013f
000000a0: f249 923e d748 f0be cbcc d4be d88d bd3e
000000b0: b5c7 0bbe ac29 7f3d 3095 e83e a6b1 a83d
000000c0: 0a3c 813e c5ea a9be f9fa 2e3e 2c87 2c3f
000000d0: c4b0 d5be bf67 833e b9de 9b3e 23c9 1b3f
000000e0: 95bc 7e3e b0eb ccbe ec8a b43c 96fc 1bbe
000000f0: e6a2 c0bd 0399 623d de2c 23bc a88f e23d
00000100: 0db6 013d 2007 a93e 74aa f13a fcf8 953d
00000110: 3d6f cb3e fbac 5ebe 436f c4be c0fa b9be
00000120: 771f b43e c450 32bd 9619 ecbc 953d 993d
00000130: b156 f4be dfc2 753d ec13 acbd 584e 9dbe
00000140: 0874 74be 966c 033a 0d21 b43e e402 e73e
00000150: c73f cebd cb69 813e bad7 a43e 57ea 61be
00000160: 57b4 b13c df39 9bbe e00c 943e e43e 173e
00000170: c105 82be 9aaf 08bd bf7f 23be bf6f 8cbe
00000180: 1f71 773e ac70 14bf b4be d3be fb12 c8be
00000190: 9ba9 493d 4b09 f1be 22eb f9be 6077 bb3e
000001a0: 2648 e5bd fdb2 bebe 38a5 97be e408 11bd
000001b0: 2a9c e1be d275 f4be 7d09 063f 5d7a ad3b
000001c0: c17b 893e bb04 c13e 0db1 093e 65fc 7f3e
000001d0: ebdb acbd 9797 b23e 7f17 cc3d e425 cdbd
000001e0: 303f 8f3e 1f33 83be d713 cabe 5f07 8dbe
000001f0: 1223 f4bb 1c2b 783e 8503 40bd c133 773e
00000200: 313d a03c 34bf f9be 7f27 293e 18a9 27bf
00000210: 49f0 39be b1c1 00bf 98a0 74be 7556 783d
00000220: 5b7c 91be 8dd7 0e3e 8bb2 a73d 5b21 8a3e
00000230: 681a d83d 8ab2 ce3e dbe5 1e3e 9c2c ebbe
00000240: 4620 463e 196d 5e3e 97f8 6bbd 5693 e6be
00000250: 0be1 eabd b91e 6dbe c492 1abe e4bd 083e
00000260: ba6f 73be 816d 1fbd e04c 3d3e cde9 1a3e
00000270: e6bc 22be 5147 963e 554a ed3e 45c5 b03e
00000280: 692c db3e 65aa c63d 3b31 9d3e 3940 39bf
00000290: ff66 953e 51ce 00bf a490 d03c 7c4c a93d
000002a0: fb02 91be f751 9dbd bc6b 403e 0344 a2be
000002b0: 7b68 8e3e acec 91be 8a0e b7be 3093 35be
000002c0: fd17 38be 215e 663a 7351 bbbd 36c4 e4be
000002d0: ae1a 453f 2998 32be ef9b 083e 9bcc e0be
000002e0: dc63 563e b464 013d eb0b 59bd 20cd e9be
000002f0: 8ee6 9a3e 9b81 6fbd ed8d 8fbe 751e 39be
00000300: 08bc b83d 90e7 3b3e c867 883e 6f18 11bf
00000310: 756e 423e e2cd 00bd cc6a e93e 9a65 47be
00000320: d982 6cbe 5c66 47be 00a0 76be 6698 04bf
00000330: 3ad5 b5be f22d c63e d272 29bf 7672 92be
00000340: 2877 b0be 6666 853e 08cb e1bd 9a65 243e
00000350: 0ac1 87be 8480 50be 68cd 483e a45c 0c3f
00000360: 0cde 2abe a96c cbbe c337 5fbc 9633 fdb9
00000370: ad39 c4be e92e adbd 2fa0 1d3f 9326 1b3c
00000380: 4559 983e 8a7e 00be 4e2c 5f3e c4be 39be
00000390: 2a81 fd3d d4a0 833d 3fa8 7b3e 86c1 1a3d
000003a0: 0ef5 94be 3a3f 203e 48d7 d8be 5390 ab3e
000003b0: 37d7 0c3e 2432 a2be f436 74be af59 99bd
000003c0: 97de 0cbe 52b5 3abe f30b 12be c03d 05bf
000003d0: 992a 2e3f f3c1 953d 6b3f f53e 4f57 a73d
000003e0: ae7e cf3d d74b ba3e 8559 c9bd a5f2 febe
000003f0: f101 edbe 1643 d43c 85c3 7abe 873e 223e
-0.25894243 -0.22623971 0.41443363 -0.25287378 0.15868655 0.07451249 -0.0014983661 -0.40127626
0.44037864 -0.023385765 -0.038493667 -0.21436945 0.012770726 -0.1302019 -0.49297145 0.3221826
-0.093147494 -0.07052637 -0.11555565 0.47869194 0.011879473 0.6295277 -0.32626405 -0.12796609
-0.12797719 0.09204957 -0.22735992 -0.092773765 0.023448022 0.15805994 0.29903328 0.3523275
-0.15394014 -0.092829786 -0.40214717 0.032634743 -0.43749478 -0.21088518 0.29275373 0.5042305
0.2857204 -0.46930572 -0.41562495 0.3702228 -0.13650401 0.0622956 0.4542632 0.08237009
0.2524112 -0.33186927 0.17087926 0.67393756 -0.41736424 0.2566509 0.3044336 0.60853785
0.24876626 -0.40023565 0.0220389 -0.15233073 -0.094060704 0.055321705 -0.009959428 0.110625565
0.031667758 0.33013248 0.001843764 0.073228806 0.39733306 -0.21745674 -0.38366136 -0.3632412
0.35180256 -0.043534055 -0.028820794 0.07482449 -0.4772239 0.060000297 -0.08402237 -0.30723834
-0.23872387 0.0005013434 0.35181466 0.45119393 -0.10070758 0.25276026 0.32195836 -0.2206205
0.021692438 -0.3031759 0.28916073 0.14770085 -0.25395015 -0.03337059 -0.159667 -0.27429006
0.24164246 -0.57984424 -0.41356432 -0.3907698 0.049234014 -0.47077402 -0.48812205 0.36614513
-0.11195402 -0.37245932 -0.2961824 -0.03540887 -0.44064456 -0.4774614 0.5235823 0.005294128
0.2685223 0.37698922 0.13446446 0.24998625 -0.084403835 0.3488128 0.09965419 -0.10016993
0.27977896 -0.2562494 -0.39468262 -0.27544686 -0.00745047 0.24235195 -0.046878356 0.24140836
0.019560428 -0.4877869 0.16518973 -0.6549239 -0.18158068 -0.5029555 -0.23889387 0.060629327
-0.28415188 0.13949414 0.08188351 0.26978573 0.105519116 0.4037059 0.1551737 -0.45932472
0.19348249 0.21721305 -0.05761012 -0.45034283 -0.11468705 -0.23156251 -0.15095049 0.13353688
-0.23773089 -0.03892279 0.18486357 0.1512825 -0.15892372 0.29351285 0.46345773 0.34525505
0.4280732 0.09700469 0.30701622 -0.7236362 0.29180142 -0.50314814 0.025459595 0.08266541
-0.28322586 -0.07681649 0.18791097 -0.31692514 0.27814087 -0.2850088 -0.3575328 -0.17731929
-0.17977901 0.000878783 -0.091463946 -0.44680947 0.76993835 -0.17440857 0.13340734 -0.43906102
0.20936531 0.03159018 -0.05298988 -0.4566431 0.30254024 -0.05847321 -0.28037968 -0.18078025
0.09020239 0.18350053 0.2664168 -0.5667791 0.18987449 -0.031446345 0.45589292 -0.19472352
-0.2309679 -0.19472641 -0.24084473 -0.5179504 -0.3551424 0.38706928 -0.66190827 -0.28602952
-0.3446591 0.26054686 -0.11025053 0.16054383 -0.26514465 -0.20361525 0.19609606 0.5482886
-0.16686267 -0.3973134 -0.0136241345 -0.00048294355 -0.38325253 -0.08456213 0.61572546 0.009469646
0.29755607 -0.12548271 0.21794245 -0.18139178 0.12378152 0.0642716 0.245759 0.037782215
-0.29093212 0.15649119 -0.42351747 0.33508548 0.13753973 -0.3167888 -0.23849088 -0.07487809
-0.13756786 -0.1823323 -0.14262371 -0.5204735 0.6803375 0.073123835 0.47899947 0.0817095
0.10131584 0.36385986 -0.098315276 -0.49794498 -0.46290544 0.025910895 -0.24488647 0.15844165

encoder.9.bias f4 [16]
00000000: c4d9 ed3c 3db0 553d d524 093e ad7f 893e
00000010: a57b 383d e713 cabe d588 0ebd 0726 2abe
00000020: 5340 fc3e ee89 953e cd6b 1d3e c81b ce3c
00000030: ffa1 f13d 7993 5b3e 6b39 20be b6db 243d
0.029034503 0.052170027 0.13392957 0.2685522 0.04503979 -0.3946831 -0.034798462 -0.16616069
0.49267825 0.29206795 0.15373154 0.025159732 0.117984764 0.21442975 -0.15646903 0.040248595

pretraining_head.0.weight f4 [16, 16]
00000000: 9750 6a3e 6cc3 cebe 5b07 4d3e 3353 9f3e
00000010: 8e9f ec3e 7e45 4b3e 818f 90be 250c a13d
00000020: 8640 5f3e 1ff5 b33e 19d0 3fbe 30cf f2be
00000030: 524d 223e e6b8 1fbe 846a dabe 991c 983e
00000040: e0e4 823e 558a 96be 721c b93e 623c d23e
00000050: 538f 97be 3c93 33be b494 88bd 7ad1 cc3c
00000060: aeeb 883e f1af 1c3e 32f1 6dbe 3cd6 23bc
00000070: d2c7 a0be 4cef bebe 2eb2 95bb 61a0 91be
00000080: 9d02 bf3e c888 82be bfe9 bcbe 48c3 623e
00000090: 49f3 43be 96bd 3a3e 1974 acbe 29c4 753e
000000a0: c699 aebe 572a e1ba fda6 98bd b44a 933e
000000b0: 5074 09bd 4fdb d0be 61bb 8a3e d98e 82bd
000000c0: 63c6 dbbe 1f70 12bc fe9f 393e a9a6 89be
000000d0: 6eec 4dbe 6791 413e d4da f5be d10c 82be
000000e0: 20f6 abbe 58c1 2f3e b87b 593e 17a7 bfbd
000000f0: 043f 263e 6b08 963e 1c18 143e 1c79 babe
00000100: 89b2 a93e 5473 023d 3d85 0dbe 8013 4b3e
00000110: 0563 f0bd 22c9 8c3e e1b5 c8bd c0f0 1bbe
00000120: f624 6c3d bdd1 d0bc 91ec 873d 53d8 1b3e
00000130: ee82 6bbe 4f64 26be 2c8f 54be 954b 5b3e
00000140: 0d6f 8b3e 53d6 6e3e 20e2 3e3e 7b39 4fbf
00000150: 76cb 953e 7bc8 073f 1fde 76bd da8a 3bbd
00000160: 8a92 d0be 4576 cbbe 1a64 efbd 498a c33e
00000170: fbd6 3abe a78e 2cbe 23c8 6c3e 924f 2c3e
00000180: 2e77 09bf 3753 7f3e 8728 2f3e e9cf ae3e
00000190: f3d7 3abf 3b52 4a3d 71e8 803e 10d9 52be
000001a0: c632 893e 9e23 38be 71dd 5b3e e943 cbbe
000001b0: 0080 f7bd 0cc3 0a3f 9157 32be 2131 15be
000001c0: 19c4 a6bd 2539 64be 81f9 443e 161a 61bd
000001d0: 0206 dabe dd88 f63e b1a5 b73d 17b9 bbbd
000001e0: 3109 a5be 404c e1bd ad0e 28bf 732b 5abf
000001f0: 804c 61be e57a ab3d 34ac 1e3e f295 51be
00000200: da64 12bd ef3f ea3e 01d6 5a3e da4e fa3e
00000210: ab7f a5be f986 ebbd 4e7b 8dbd c2e9 11be
00000220: 1ea0 443e bbd9 bf3d c7e2 40be aa76 5cbe
00000230: 2c23 3d3e 2a0c 183f 074f 21bd a101 c3be
00000240: fa0f cfbe ef3b ce3d a279 133f 9e2f 843e
00000250: 2734 eebe c6d8 183f db00 9b3d 3312 0c3e
00000260: 82a2 6dbe 0208 3c3e f071 1bbf 427d eabe
00000270: e50c 3abd 06a7 483d 9fbf 8dbd a0d4 c1be
00000280: 1533 a8be 913e 3dbe 3602 22be a973 47be
00000290: 84fb 963d c9a9 f4be 5d17 cdbc f4ad e7bd
000002a0: 1eb6 a6bd e84a 093f e173 abbe e403 4fbc
000002b0: a641 28bf 36cf 013e 25e2 cbbe 0f32 b6bd
000002c0: bf2c 37bd 3ca8 6cbc 36fa 033f ea38 4fbe
000002d0: 2e6b 11bb 098b 8c3e b412 893e c956 aebe
000002e0: c2c4 0c3e 4aea 1f3f 227e 01bd 0952 8abe
000002f0: 882c dbbe 4f6d 8f3e a8de 343d 20fb f6be
00000300: 7c6b 8bbd 2ec4 ab3c 01cf c2bd 279b 6fbe
00000310: f4f7 fdbb b3da b9be 90cb cabe a3f4 ec3d
00000320: 8188 5ebe 9b5b 0c3e 22ea 213e 4034 5abe
00000330: 6459 833e dafa 3c3d c34d 943e 91d8 a2be
00000340: 9b64 873e 4dad 92bd ad89 e5be bee0 33bd
00000350: 9f21 c3be 485b 943e e958 37be d116 f0be
00000360: 5fdd 5bbc 1bdc 343e 2550 0d3e 7cb2 26be
00000370: 85f8 ccbd cb87 f9bd 308d a3be 39dc eb3d
00000380: d329 9fbe 813d 44be 4dfb 193f c09f 423c
00000390: 3dc6 223e 83c4 9bbe 1f3a a3bd 8374 bfbe
000003a0: 6822 0e3e 1184 1d3e f850 cabc 2fd2 a1be
000003b0: 97a6 06bf 329a a63e 11a5 66be 1b61 d7be
000003c0: 2661 9b3e 6a6b 6f3e aee0 6a3e 9ff8 943d
000003d0: 881a 853e ebdd 453d 7cc9 a7be 977e 163e
000003e0: b825 23be 5949 71bd 7800 373e 5a1a 98bd
000003f0: f7ff 63bd e48e a6be 5260 86bd e0fc 463e
0.22882305 -0.4038347 0.20022337 0.31118163 0.4621548 0.19850728 -0.28234485 0.078636445
0.21801957 0.3514795 -0.18731727 -0.47423697 0.15849808 -0.15597877 -0.4265939 0.29709318
0.25565243 -0.29402414 0.36154515 0.41061693 -0.29601535 -0.17536634 -0.06668988 0.02500223
0.2674231 0.15301491 -0.2323654 -0.009999808 -0.3140245 -0.37291944 -0.00456836 -0.28442672
0.3730668 -0.2549498 -0.36897084 0.22144806 -0.19135775 0.18236384 -0.33682325 0.2400061
-0.34101695 -0.0017178756 -0.074537255 0.2876793 -0.03355819 -0.4079232 0.27096084 -0.06374902
-0.42924795 -0.008937865 0.18127438 -0.26884964 -0.20109722 0.18903123 -0.48018515 -0.25400403
-0.33586216 0.17163599 0.21238601 -0.09358042 0.16234976 0.29303297 0.14462322 -0.36420524
0.33144024 0.031848267 -0.13820358 0.19831657 -0.117376365 0.27497202 -0.09800316 -0.15228558
0.057652436 -0.025490636 0.06636918 0.1521924 -0.22999164 -0.16249202 -0.2075774 0.21415551
0.27233163 0.23323946 0.18640947 -0.80947083 0.2925679 0.53040284 -0.060270425 -0.045786716
-0.407368 -0.3973867 -0.11689015 0.3819144 -0.18246071 -0.16851293 0.23123221 0.16827229
-0.5369748 0.24934088 0.17105304 0.34142998 -0.7298576 0.049394827 0.2517734 -0.20590615
0.2679655 -0.17982337 0.21471192 -0.3970025 -0.12084961 0.5420387 -0.17416216 -0.14569522
-0.081428714 -0.22287424 0.19235803 -0.054956518 -0.4258271 0.48151293 0.0896715 -0.091661625
-0.32233575 -0.11000872 -0.65647393 -0.8522255 -0.22001839 0.0837305 0.15495378 -0.20467356
-0.03574071 0.45751902 0.21370699 0.48888284 -0.32323965 -0.11500353 -0.06908284 -0.14249328
0.19201705 0.09367701 -0.18836509 -0.21529642 0.18470448 0.5939356 -0.039382007 -0.3808718
-0.40441877 0.10070025 0.5760747 0.2581758 -0.46524164 0.5970577 0.075685225 0.13678817
-0.23206523 0.1836243 -0.6072073 -0.4579869 -0.045422453 0.04898741 -0.069213144 -0.37857533
-0.32851472 -0.18480898 -0.15821156 -0.19477715 0.073721915 -0.47785786 -0.025035555 -0.11312476
-0.08140205 0.5362992 -0.33486846 -0.012635205 -0.6572517 0.12676701 -0.39820972 -0.08896267
-0.044720408 -0.014444407 0.51553667 -0.20236555 -0.0022189128 0.27449825 0.26772082 -0.34050587
0.13746932 0.6246687 -0.03161443 -0.27015713 -0.42807412 0.28013083 0.044157654 -0.48238468
-0.068076104 0.02096757 -0.09512139 -0.2339903 -0.0077505056 -0.36299667 -0.3960843 0.11570098
-0.2173176 0.1370682 0.15811971 -0.21308994 0.25654137 0.04613767 0.28965577 -0.31805852
0.26443943 -0.07161961 -0.448316 -0.043915503 -0.38111588 0.28975892 -0.1790501 -0.46892408
-0.013419478 0.17662089 0.13800104 -0.16279024 -0.10008339 -0.121841036 -0.31943655 0.115166135
-0.31086597 -0.19164087 0.6014908 0.011878908 0.15895934 -0.30423364 -0.0797007 -0.3739358
0.13880312 0.1538241 -0.024696812 -0.3160567 -0.52597946 0.32539517 -0.22523905 -0.42066273
0.30347556 0.23380819 0.22937271 0.07273983 0.25996804 0.04830734 -0.32770908 0.14696728
-0.15932357 -0.05890784 0.17871273 -0.07426901 -0.05566403 -0.32530892 -0.065613404 0.19432402

pretraining_head.0.bias f4 [16]
00000000: 048c 883e 94ee 903e 86d2 e2bd 2df7 5dbd
00000010: 8e93 823d 346a 1cbe cb6f 3d3e 3084 68bf
00000020: db1e cf3e b0b3 84bd 342e 483e f4d8 c4bc
00000030: df85 003e fb2f 6f3d 7440 5a3d b623 d3bc
0.26669323 0.2830702 -0.110753104 -0.054190803 0.063758 -0.15274888 0.18499677 -0.908267
0.40453228 -0.06479585 0.19548875 -0.024029233 0.12551068 0.058395367 0.053284124 -0.025773864

pretraining_head.3.weight f4 [16, 16]
00000000: 7116 babd 06ed b83e e0b7 a2bd cea2 893e
00000010: d782 c7be 892a cd3e b58c 9e3e 79c4 50bf
00000020: 97cc b33e 3ce8 fbbe 02fd 96be e407 acbe
00000030: ac4d 133e 7676 c8bd 91b5 bd3e 0523 bfbe
00000040: d720 6ebd 596a d93e e4bf d6be da7b d33d
00000050: 4e19 663e 4cee a93e 1bc6 283d 32bf febe
00000060: 837e 203e 274a 6fbd 9afe 0b3c 4959 f4be
00000070: 77d5 87bd 6696 93be 89c3 ce3e 46a0 80be
00000080: aedf 95bd ea5b 2dbe 75dd 4abe cbde 68bd
00000090: b0ec 673e 7f9f 253e 8c9b ec3d 298a 723f
000000a0: 4aa6 0fbf 7a87 97be a904 9e3e 4a0a 90be
000000b0: f529 863e f281 973e cbef f7be 00e2 7dbe
000000c0: 4e4d e83c eb79 c73d 856b 213f 139a b6be
000000d0: 2fef 07be c498 a3be ad34 d63d 8ee7 e1be
000000e0: 5195 c43e 78f6 21be a7ad e6be a753 373f
000000f0: d934 443d 452d 10be 2e12 25bc dd48 553e
00000100: e512 7abe 03d1 263e 1db9 62be cd8b 24be
00000110: 1302 84be 5225 433e da8e 9abd 75b5 143f
00000120: c080 eabe 7d1e b83c d058 8d3e 922d acbe
00000130: 7636 c83e 6418 a9be 1b84 79be 696d 123e
00000140: fbc0 be3e 5f81 b6be 3b45 8fbc a103 783e
00000150: 22b3 b8be 1938 2b3e 0b6b eabc d0f5 933c
00000160: ca8e 8ebd 2e81 b8bc fbd9 c33c 1e1e 36be
00000170: 7611 b63e ef68 a1be bbec 6fbd d7ab 5fbe
00000180: b359 9cbd ec8e bd3e 70b9 e7be 964f a23c
00000190: ecda d6bd 75f0 0c3f 8359 ac3e 6241 a53e
000001a0: a83c a1be f742 32bf be0e 0c3e 7485 23bf
000001b0: 8476 a23d c2fc 503e d5fa 6bbe 07ed d5be
000001c0: a227 9c3e 0b15 85be d6a1 abbd 8b14 9f3e
000001d0: 3909 83be da34 383e 92e5 243e 2b24 4abe
000001e0: 94ca cc3d f3d3 92be b085 1ebe d477 07be
000001f0: 7bc7 093e e319 133e 852e ef3c 8f84 41be
00000200: f062 183a 6906 ab3e d6d4 8ebe 55bd 14be
00000210: 522b 643d 93d0 8a3e 2ccf 063d 4631 80bd
00000220: 9b57 91bd f0aa 14be 3f64 ba3c c700 a1be
00000230: 7923 553e b541 e4be baf4 863d 0e10 babd
00000240: c85c 8c3d 9d2b 8f3e 9404 dabe 9e4a 833e
00000250: b65d 10be c9da 8c3e f8ad bbbd d6ba d3be
00000260: cfc3 063e 5117 2b3e 1829 283e 1736 01bf
00000270: 5d7f 08bf 8136 313d b0bd b93e 0b8b 09be
00000280: da4c 263f 6c99 12be 9c57 e7be 9668 37be
00000290: 0b2c 1ebd 2241 883e 9506 2cbd cf74 7e3e
000002a0: cf3a 5bbe e31a 0dbe ff58 87bd 0226 6cbe
000002b0: dc05 153e a15b 99be 5334 2ebe 5ca5 1f3e
000002c0: 05cc 093e c5ac 86be ed6a 84be ab0d 353e
000002d0: 4267 6b3e 1e72 d73b 8763 06be ee55 783e
000002e0: d312 27be 2d22 713e 1898 263e 53c4 1ebe
000002f0: 322a 7f3c 857b 063d 2d7c c7bc beeb d03c
00000300: 6578 b8bd 802a f93d a000 8fbd 2560 8abe
00000310: f9cf 4bbe b154 0abd 3b9c c4be 30da 153f
00000320: e8a4 cfbe 576d 0b3f bb7c fb3e ccf3 44be
00000330: 1174 bfbd 727a e6be 4205 37be 28e3 483e
00000340: c1ee 083e c545 ac3e acfa ab3e 81df 72be
00000350: 8d55 e03d 7310 40bc ad2c bc3e 804b 5dbf
00000360: 39f8 1b3f b3eb 1dbf d0e9 1cbf 53e6 d63e
00000370: 2612 d3bd bd5a d33d 0b1a 633e 30be 1abe
00000380: 31f5 813e f514 55be 2657 863e ab44 7a3e
00000390: 0d74 873d c069 c2bd 3925 b13d 0784 64bf
000003a0: 1eac 0f3f 44b5 4cbd 97c5 e5be c879 983e
000003b0: 6051 a33e ccb0 b6be 7cdb cf3e c6ed 0cbe
000003c0: d1e1 cbbe d46b 9abe 61a2 f93e 465b 363e
000003d0: aeb8 25be 275c ccbe ee06 37be 660c de3d
000003e0: d81b 85bb 99f8 eb3e 78f6 ef3d cc7f be3e
000003f0: 9578 8d3e 658e d8bd e9ca e2bc d99f 273e
-0.090863116 0.36118335 -0.079452276 0.26882023 -0.3896701 0.40071514 0.30966726 -0.81549793
0.35117027 -0.49200618 -0.29489905 -0.3359977 0.14385098 -0.0978822 0.37052587 -0.37331405
-0.058136787 0.4246395 -0.41943276 0.10326357 0.2247059 0.3318962 0.041204553 -0.49755245
0.1567326 -0.058420327 0.008544588 -0.4772437 -0.06632512 -0.28825682 0.40383556 -0.2512228
-0.07318054 -0.16929594 -0.19811042 -0.056853097 0.22648883 0.16174124 0.11553106 0.94742066
-0.5611311 -0.29595548 0.3086293 -0.2813285 0.26203886 0.29591328 -0.48425135 -0.24793243
0.028357174 0.09740051 0.63054687 -0.35664424 -0.13274835 -0.31952488 0.10459266 -0.44121975
0.3839517 -0.15816677 -0.4505436 0.7161202 0.047901962 -0.14079769 -0.010075135 0.20828576
-0.2442127 0.16290669 -0.22140928 -0.16068955 -0.25782833 0.19057205 -0.07546778 0.5808938
-0.45801353 0.022475475 0.2760682 -0.33628517 0.3910405 -0.3302642 -0.243668 0.14299549
0.37256607 -0.35645577 -0.017489066 0.24220134 -0.36074167 0.16720618 -0.028615495 0.018061548
-0.069608286 -0.022522535 0.023907652 -0.17784926 0.35560197 -0.3152537 -0.058575373 -0.21842895
-0.07634296 0.37023103 -0.45258665 0.01981334 -0.10490975 0.5505441 0.33662042 0.32276446
-0.3149159 -0.6963343 0.13677499 -0.6387551 0.07932761 0.2040892 -0.23044904 -0.417824
0.30498987 -0.25992617 -0.08380477 0.3107036 -0.25592974 0.17988911 0.16103199 -0.1974036
0.09999576 -0.2867733 -0.15480685 -0.13229305 0.13455002 0.14365344 0.029196987 -0.18898223
0.00058130827 0.33403328 -0.27896756 -0.1452535 0.055705376 0.27112255 0.03291242 -0.06259398
-0.070967875 -0.14518332 0.02275288 -0.31445906 0.20814313 -0.4458138 0.06589647 -0.090850934
0.06853634 0.27962962 -0.42581618 0.25642866 -0.14098248 0.2751067 -0.09164041 -0.41353482
0.13160633 0.16708113 0.16421926 -0.5047316 -0.5331934 0.04326487 0.36277533 -0.13431947
0.64961016 -0.14316338 -0.45184028 -0.1791099 -0.03861622 0.26612192 -0.041998465 0.24849246
-0.21409152 -0.13779788 -0.066087715 -0.23061374 0.14553016 -0.2995272 -0.17012148 0.15590423
0.13456734 -0.26303688 -0.25862828 0.17680995 0.22988608 0.006574883 -0.13123904 0.2425153
-0.16315775 0.23548193 0.16268957 -0.15504579 0.015574025 0.03283264 -0.024351204 0.025503036
-0.090073384 0.12166309 -0.06982541 -0.27026477 -0.19903554 -0.033772174 -0.38400444 0.5853605
-0.405555 0.54463714 0.491186 -0.19233626 -0.0934831 -0.45015293 -0.178731 0.19617903
0.13372327 0.3364698 0.33589685 -0.23718072 0.109538175 -0.011722672 0.36752835 -0.8644333
0.6092563 -0.61687773 -0.6129427 0.41972598 -0.10306196 0.10320041 0.22177903 -0.15111613
0.2538238 -0.20808776 0.26238364 0.24440257 0.06613932 -0.094928265 0.08649678 -0.8926396
0.56122005 -0.049977556 -0.44877312 0.29780412 0.31898022 -0.3568176 0.4059714 -0.13762578
-0.39820722 -0.3016039 0.48756698 0.17808256 -0.16183731 -0.39914057 -0.17873737 0.108422086
-0.004062157 0.46088102 0.11716932 0.37206876 0.2763106 -0.105740346 -0.027684646 0.16369571

pretraining_head.3.bias f4 [16]
00000000: 1cea a23e 26e2 333e dac0 f63d fc9d 9fbd
00000010: 9d7e d93e 60f0 7d3e 457b 0a3f 5f04 a43d
00000020: 8d6a c13e 4bcc 033e dcdd fd3e 7485 fbbd
00000030: 81e5 853e d8c7 56bd 3a27 6abe 3514 ccbe
0.31819236 0.17566738 0.12048502 -0.07793805 0.4247941 0.24798727 0.54094344 0.08008646
0.37776604 0.128709 0.49583328 -0.122813135 0.2615166 -0.05243668 -0.22866526 -0.39859167
