trained_models/breast_cancer_orc_corr.pt (torch, 11859 bytes, 12 tensors)

encoder.0.weight f4 [16, 30]
0	0x3ceedfbd	0.029159421
1	0xbe1bcb03	-0.15214162
2	0x3cfdd50e	0.030985381
3	0x3e32c38b	0.17457406
4	0x3d3ff351	0.046862904
5	0x3f063ffc	0.5244138
6	0x3dee0565	0.11622123
7	0x3eafaaf2	0.34310108
8	0x3ed2be37	0.41160747
9	0x3e51d419	0.20491065
10	0xbe416cd4	-0.18889171
11	0x3d8d0ce8	0.06887227
12	0xbd0c402f	-0.034240898
13	0xbd810ff4	-0.06301871
14	0xbd21d56a	-0.039510168
15	0x3e225c5e	0.15855548
16	0x3eaafde5	0.3339683
17	0x3da0dcd3	0.07854619
18	0x3f0040e2	0.50099003
19	0xbe10567f	-0.14095496
20	0x3ec5b9da	0.38618356
21	0xbbab20fc	-0.005222438
22	0x3e8da19d	0.27662364
23	0x3f00b30e	0.50273216
24	0x3c9debf3	0.019277548
25	0x3ece83ed	0.40335026
26	0xbccf63b5	-0.025316099
27	0x3f56dbc6	0.839291
28	0x3e2940b1	0.16528584
29	0x3d69e990	0.05710751
30	0xbe98a949	-0.29816654
31	0x3f197a9a	0.599527
32	0xbe7137ba	-0.23556414
33	0xbea4a87f	-0.32159802
34	0x3d346f87	0.044051673
35	0xbcbc5ee5	-0.022994468
36	0xbe07eaa7	-0.13273107
37	0xbe759351	-0.23981978
38	0x3e1aed08	0.15129483
39	0x3d9870eb	0.074434124
40	0xbd2ef6f0	-0.042715967
41	0xbe2032e8	-0.15644419
42	0xbc3538dd	-0.011060921
43	0xbe527628	-0.20552886
44	0xbe92f7b9	-0.28704622
45	0x3f19e848	0.6012006
46	0xbda35953	-0.079760216
47	0xbdc31d01	-0.095270164
48	0x3d365190	0.044511378
49	0x3d2581b8	0.040406913
50	0xbed81889	-0.4220622
51	0x3dcb233d	0.099188305
52	0xbe9b99a7	-0.30390665
53	0xbeef7270	-0.46766996
54	0xbdfb85bf	-0.122813694
55	0x3d938d34	0.07204667
56	0x3baa5ddf	0.0051991786
57	0xbdee7a61	-0.11644436
58	0x3ce6ffed	0.028198207
59	0x3e121c3c	0.14268583
60	0x3d308c97	0.043102827
61	0x3eafdc0b	0.34347567
62	0x3c812f26	0.015769552
63	0x3db8739b	0.09006425
64	0xbdaaaf5a	-0.08334227
65	0x3d43efa3	0.047835957
66	0xbd698f3b	-0.05702136
67	0x3e1d47f3	0.15359478
68	0x3cc76782	0.024341349
69	0x3e1ac3ae	0.15113708
70	0xbe4d5e82	-0.20055583
71	0xbe25f9ef	-0.16208623
72	0xbeaf33b8	-0.34219146
73	0xbde94bf9	-0.11391444
74	0x3eae21eb	0.34010252
75	0xbe774580	-0.24147606
76	0xbe90aa31	-0.28254846
77	0xbe50c87b	-0.20388977
78	0xbe97ed73	-0.29673347
79	0xbe15e54d	-0.14638253
80	0x3eb84532	0.35990292
81	0x3f1f2e28	0.62179804
82	0x3e21a7a2	0.15786603
83	0x3e61baa2	0.22043851
84	0xbde90f2b	-0.11379846
85	0xbe5d9987	-0.21640597
86	0x3c3d4d6c	0.011554103
87	0x3dfcf919	0.12352199
88	0xbd0b704b	-0.034042638
89	0xbccbaa57	-0.024861498
90	0xbe1f7d40	-0.15575123
91	0x3d4dc928	0.050240666
92	0xbe438cc6	-0.1909667
93	0xbe439a18	-0.19101751
94	0x3e104385	0.14088257
95	0xbdbf65c7	-0.09345584
96	0x3eada7c2	0.33917052
97	0x3c56b0e0	0.013103694
98	0x3d334a80	0.04377222
99	0x3d56ebe6	0.052471064
100	0x3e709ffe	0.23498532
101	0xbcb26464	-0.021776386
102	0xbd86c6c8	-0.06580883
103	0x3f1cfbe5	0.6132186
104	0xbdc2f073	-0.09518518
105	0xbd865bce	-0.06560479
106	0x3da9f3d0	0.08298457
107	0xbda00a2e	-0.078144416
108	0xbf4791d5	-0.779569
109	0xbdf849e5	-0.12123469
110	0x3ec08c33	0.37606964
111	0x3e802e33	0.25035247
112	0x3f5fdced	0.8744648
113	0x3f47238a	0.77788603
114	0x3e894294	0.26808608
115	0x3e27cf58	0.16387689
116	0x3e1d33e6	0.15351829
117	0x3e3affc7	0.18261634
118	0x3e90d917	0.28290626
119	0x3e131403	0.14363103
120	0x3e0708bf	0.1318693
121	0xbd49b8bb	-0.04924844
122	0x3e0668fc	0.13125986
123	0x3e922dcc	0.28550565
124	0x3d1a2115	0.037629206
125	0xbe93214d	-0.28736344
126	0x3f04b16a	0.5183321
127	0x3dedec85	0.11617378
128	0xbc493c8b	-0.012282501
129	0x3cc8bdb0	0.024504513
130	0xbe57c74c	-0.2107212
131	0xbda1b6e5	-0.078962125
132	0xbe82a32c	-0.25515115
133	0xbeb65c6e	-0.35617393
134	0xbd84839b	-0.06470414
135	0xbea471fe	-0.3211822
136	0xbe49e5e6	-0.19716606
137	0x3d9d137d	0.07669733
138	0xbe30e459	-0.17274608
139	0x3f1952fe	0.5989226
140	0x3e088ae2	0.1333423
141	0x3b6c45b7	0.0036052295
142	0x3e751b5d	0.2393622
143	0x3e87531e	0.264306
144	0x3c860c29	0.01636322
145	0xbea7e8a3	-0.32794675
146	0x3d9a0fe9	0.07522566
147	0x3dccd1ee	0.100009784
148	0x3c9b4f07	0.018958582
149	0xbe93494e	-0.28766865
150	0x3ee6c278	0.45070243
151	0x3e8286f8	0.25493598
152	0x3e340820	0.17581224
153	0x3ec8809e	0.39160627
154	0x3d6a333d	0.05717777
155	0xbd9bd2c9	-0.076085635
156	0x3e74ac4d	0.23893853
157	0x3f10fa04	0.56631494
158	0xbd75ae01	-0.059980396
159	0xbe5c9f8c	-0.21545237
160	0x3ec70ece	0.38878483
161	0xbcf34e0a	-0.029700298
162	0x3e2f2342	0.17103294
163	0x3ed6d5d8	0.41960025
164	0x3ddb8d82	0.1072035
165	0x3e8b6799	0.27227476
166	0x3d30bcc0	0.043148756
167	0x3dbd8add	0.09255002
168	0xbcbd6d9d	-0.023123557
169	0xbdfe2a17	-0.12410372
170	0x3ec6c0d0	0.3881898
171	0x3ed87d59	0.42283133
172	0x3f0d48da	0.5518929
173	0x3e5d970a	0.21639648
174	0x3e19921d	0.14997144
175	0xbe8a41a6	-0.2700321
176	0x3ea07c33	0.31344756
177	0x3e9cb97a	0.30610257
178	0x3d21e042	0.03952051
179	0xbe91b9ee	-0.28462166
180	0xbe272af1	-0.16324975
181	0x3deddc08	0.11614233
182	0xbe39b033	-0.18133621
183	0xbe5252ea	-0.20539442
184	0xbbeb1101	-0.007173658
185	0xbda701d7	-0.08154648
186	0xbefc192e	-0.4923796
187	0xbed422ae	-0.41432709
188	0xbb4e53fa	-0.003148316
189	0xbd89149b	-0.06693383
190	0x3e6e1988	0.23251927
191	0x3e613700	0.21993637
192	0x3ead55a1	0.33854392
193	0xbc4717fb	-0.0121517135
194	0x3e6f2dcd	0.23357315
195	0xbd68ddad	-0.05685203
196	0xbe4752e7	-0.19465218
197	0xbda6e310	-0.081487775
198	0x3e26e44c	0.16298026
199	0x3e6e4b97	0.23271023
200	0xbe94b55a	-0.2904461
201	0xbddebdae	-0.10876022
202	0xbe54ba0b	-0.20774095
203	0xbeceabd6	-0.40365475
204	0xbddf5f36	-0.10906832
205	0xbe82567f	-0.25456616
206	0xbf13d476	-0.57746065
207	0xbecf9d06	-0.40549487
208	0xbe4f9990	-0.20273423
209	0xbe755f28	-0.2396208
210	0x3c9ca784	0.019122846
211	0xbf5c8f05	-0.8615573
212	0xbc31b7b5	-0.010847022
213	0xbd8f62c5	-0.07001261
214	0xbe33be95	-0.1755317
215	0xbdc9392a	-0.09825356
216	0x3dedd129	0.1161216
217	0xbde9e7c0	-0.11421156
218	0xbe00c2b4	-0.12574273
219	0x3d77bf42	0.060485132
220	0x3e2d3052	0.16912964
221	0x3e094812	0.13406399
222	0x3d849b65	0.06474952
223	0xbbaf902d	-0.0053577633
224	0x3d08b398	0.0333744
225	0x3ede1150	0.43372583
226	0x3e34909c	0.17633289
227	0x3bf723ce	0.00754211
228	0xbca517af	-0.020152895
229	0xbebb1c6a	-0.36545116
230	0xbe0ec68f	-0.13942932
231	0xbd1271b3	-0.035752963
232	0xbebab074	-0.36462748
233	0xbec4e714	-0.3845755
234	0xbe4d9b1a	-0.20078698
235	0xbe127962	-0.14304116
236	0x3d53bb29	0.05169216
237	0xbe9d4058	-0.30713153
238	0xbd5faa07	-0.05460551
239	0xbd846bf7	-0.06465905
240	0x3cae569e	0.021281537
241	0xbed96bae	-0.42464966
242	0x3cdb4ba1	0.026769461
243	0xbb037586	-0.0020059063
244	0x3dd3b011	0.103363164
245	0x3d4336f7	0.04765984
246	0xbef397e6	-0.47576827
247	0xbe41d95a	-0.1893057
248	0x3d2a8a42	0.04163576
249	0xbcb7d209	-0.02243902
250	0xbed8a1c0	-0.42310905
251	0xbe564fb7	-0.20928846
252	0xbec403ca	-0.3828414
253	0xbf7896fb	-0.9710538
254	0xbb88ad31	-0.0041710366
255	0x3f0279eb	0.5096728

encoder.0.bias f4 [16]
0	0xbe8ac399	-0.27102354
1	0xbe857a78	-0.2607
2	0x3dd20bcc	0.10256156
3	0x3d0b63e9	0.03403083
4	0xbd7ea3dd	-0.06216799
5	0x3d99eb05	0.075155295
6	0x3e81b36f	0.2533221
7	0x3e1a0764	0.15041882
8	0x3e735d6f	0.23766111
9	0xbec67fb9	-0.3876932
10	0xbdb01f08	-0.08599669
11	0x3e84b557	0.259196
12	0xbe5881ff	-0.2114334
13	0x3eb31c7c	0.3498267
14	0xbdc3480e	-0.09535228
15	0x3f0eb568	0.55745554

encoder.3.weight f4 [16, 16]
0	0xbe47c875	-0.19510062
1	0xbe90c667	-0.2827637
2	0xbebb212b	-0.36548743
3	0x3c0ff336	0.008786013
4	0xbe764653	-0.24050264
5	0x3c841aa5	0.016125986
6	0xbe95e34b	-0.29274973
7	0xbe055ff5	-0.13024886
8	0x3f2f8e26	0.68576276
9	0xbe4222ed	-0.18958636
10	0xbe0d323e	-0.13788697
11	0xbeb175c9	-0.34660175
12	0x3c91d9ca	0.017804045
13	0x3edaf6fd	0.42766562
14	0x3e09b1dd	0.13446756
15	0xbd081407	-0.033222225
16	0xbefca6dd	-0.49346057
17	0xbc587187	-0.013210661
18	0xbdc59444	-0.0964742
19	0xbe31e59a	-0.17372742
20	0x3e528ea0	0.2056222
21	0x3ded50f4	0.11587706
22	0x3d34265c	0.043981895
23	0x3e22215c	0.15833038
24	0x3e1fc139	0.15601052
25	0xbe368fd8	-0.1782831
26	0x3dfe6995	0.12422482
27	0xbebfd8e3	-0.3747016
28	0xbededd13	-0.4352804
29	0x3d054bd4	0.03254302
30	0xbe8b7018	-0.27233958
31	0x3ed2b842	0.41156203
32	0xbe4c61db	-0.19959204
33	0x3e27f7e4	0.16403157
34	0x3e80d6cb	0.25163874
35	0xbf0e5185	-0.5559314
36	0xba9a2ffc	-0.0011763568
37	0xbe013cd3	-0.12620859
38	0x3e74f274	0.23920614
39	0xbda97439	-0.08274121
40	0x3e72ca59	0.23710002
41	0xbe44bb26	-0.19212016
42	0xbed6122c	-0.4181074
43	0xbebcf83a	-0.36908132
44	0x3e768a85	0.24076279
45	0x3f0222ad	0.5083416
46	0x3da50f54	0.08059564
47	0x3e013feb	0.12622039
48	0x3e3d6490	0.18495393
49	0x3e8b488c	0.27203786
50	0xbdb8d651	-0.090252526
51	0xbe91a245	-0.28444114
52	0xbf058295	-0.5215238
53	0xbccb86e7	-0.0248446
54	0xbf183a0a	-0.5946356
55	0xbe297f3f	-0.16552447
56	0x3ee94c8b	0.4556621
57	0x3ef67f02	0.48143774
58	0xbdc82250	-0.097721696
59	0xbdd546d4	-0.104139
60	0x3e093bb5	0.13401683
61	0xbe7f3abc	-0.24924749
62	0x3eb84836	0.35992593
63	0x3d3a0c75	0.045422036
64	0xbe9c7c6e	-0.30563682
65	0x3d01b708	0.031668693
66	0x3c10e40a	0.008843431
67	0x3f0f3bbb	0.55950516
68	0xbe8e7245	-0.27821556
69	0xbe390d44	-0.18071467
70	0x3ed3ce72	0.41368443
71	0xbe7833de	-0.24238536
72	0xbdf54669	-0.1197632
73	0x3e0d4da0	0.13799143
74	0xbf08f6e4	-0.53501725
75	0x3c7c9f4b	0.015418838
76	0xbdd52655	-0.10407702
77	0xbe34ee87	-0.17669116
78	0x3e8f6f21	0.28014472
79	0xbe8e3ef6	-0.2778241
80	0xbe2073cf	-0.15669177
81	0x3c0d9fd5	0.008644064
82	0xbbc4f66d	-0.0060108216
83	0xbec14fe3	-0.3775626
84	0x3e868577	0.262737
85	0xbe5dfae1	-0.21677734
86	0x3dbf2d02	0.093347564
87	0xbf471682	-0.7776872
88	0xbe87dd47	-0.2653601
89	0xbe8f80e3	-0.2802802
90	0xbec1d4d9	-0.37857702
91	0x3ec49ec6	0.38402385
92	0xbd3ef5a6	-0.046620987
93	0xbed7d4d4	-0.42154562
94	0xbea0e809	-0.3142703
95	0xbf216459	-0.63043743
96	0x3e50516d	0.20343561
97	0x3e8f8af1	0.2803569
98	0x3d2c4f10	0.042067587
99	0x3e254898	0.16140974
100	0x3eeb4e6e	0.45958275
101	0xbec83015	-0.39099184
102	0xbe85b307	-0.2611315
103	0x3e86a397	0.26296684
104	0x3dc1d079	0.09463591
105	0x3e8257f9	0.25457743
106	0xbe5b072c	-0.21389455
107	0x3dff93ae	0.124793395
108	0x3ea75af6	0.32686585
109	0x3ebca174	0.3684193
110	0xbe9f36c6	-0.31096476
111	0x3e9d2c48	0.30697846
112	0x3b1c5a72	0.002385762
113	0xbe8174ad	-0.2528433
114	0xbec28d46	-0.37998408
115	0x3e09437e	0.13404652
116	0x3dea9064	0.114533216
117	0x3e57cbb9	0.21073808
118	0xbe50e7f1	-0.20400979
119	0x3d049e2a	0.0323774
120	0xbbb8fb7d	-0.005645214
121	0xbe22d352	-0.15900925
122	0xbe518a0d	-0.20462818
123	0xbe2f9e8d	-0.17150326
124	0xbd7e3934	-0.062066272
125	0x3f071fe0	0.5278301
126	0x3db259cb	0.08708533
127	0x3dab9cab	0.083794914
128	0x3ea99e8c	0.33128774
129	0x3e41787c	0.18893617
130	0x3d813341	0.06308604
131	0xbebc4b89	-0.3677638
132	0xbe1453b7	-0.1448506
133	0x3ccf434b	0.025300642
134	0xbc1744c5	-0.0092327045
135	0x3e978317	0.295922
136	0x3ed0147d	0.4064063
137	0x3e0c4f12	0.13702038
138	0xbe9eff4c	-0.3105415
139	0xbeb6aca0	-0.35678577
140	0x3eb97d53	0.36228427
141	0xbd48e12a	-0.04904286
142	0x3e90079a	0.281308
143	0xbe9e7c35	-0.30954137
144	0xbf27969a	-0.65464175
145	0x3e2b5a29	0.16733612
146	0xbd5bca33	-0.05365963
147	0xbee9cdf0	-0.4566493
148	0xbe9acdde	-0.3023519
149	0xbd212cdd	-0.039349426
150	0x3ea3331e	0.31874937
151	0x3e84f39d	0.25967112
152	0x3eaa5296	0.33266133
153	0x3de49e38	0.1116299
154	0xbe485fa0	-0.19567728
155	0x3d31674c	0.043311402
156	0x3ebd6c20	0.36996555
157	0xbefc6597	-0.49296257
158	0xbea89db8	-0.3293283
159	0xbcfc710a	-0.03081562
160	0x3ec1b5f5	0.37834135
161	0xbe5db662	-0.21651605
162	0xbecf4b07	-0.4048693
163	0xbe9f5043	-0.31115922
164	0x3e40f435	0.18843158
165	0x3e8b8541	0.27250102
166	0x3e1c8d43	0.15288262
167	0x3dccd46a	0.10001452
168	0xbf3034de	-0.6883067
169	0xbe37fb09	-0.17966856
170	0x3e98ec21	0.29867652
171	0x3dbbe21b	0.091739856
172	0xbea64ba0	-0.32479572
173	0xbd38a95c	-0.04508339
174	0x3ec22436	0.37918252
175	0xbe3152a7	-0.17316686
176	0xbe1dc764	-0.15408093
177	0x3ec08ae9	0.3760598
178	0x3eab57bf	0.33465382
179	0xbe9594b5	-0.29215017
180	0xbe0cda15	-0.13755067
181	0xbe2e688c	-0.17032069
182	0x3e9b1523	0.30289564
183	0x3e14af75	0.14520057
184	0xbec545f9	-0.38529947
185	0x3ed3276d	0.41241017
186	0xbf27530d	-0.653611
187	0xbbe3fc1c	-0.006957544
188	0xbe079675	-0.13240989
189	0xbe0d016e	-0.13770077
190	0xbecdb4d5	-0.40177026
191	0x3d75dd25	0.060025353
192	0xbe5f642e	-0.2181556
193	0xbe002045	-0.1251231
194	0xbe89dcf4	-0.26926386
195	0xbf159e89	-0.5844503
196	0xbe892f10	-0.26793718
197	0xbd9482e3	-0.07251527
198	0x3ee7a9b0	0.4524665
199	0x3e896573	0.26835212
200	0xbee2a90d	-0.442696
201	0x3e4dc319	0.20093955
202	0x3e887dd4	0.266585
203	0x3e4083be	0.18800256
204	0x3d0bddc7	0.03414705
205	0x3ed849bd	0.42243758
206	0x3e9756e3	0.29558477
207	0xbdb9354a	-0.09043367
208	0x3e3882a9	0.18018593
209	0xbe6a372b	-0.22872607
210	0x3ece9108	0.40345025
211	0x3e6e0e32	0.23247603
212	0x3e1941e4	0.14966542
213	0x3e7b29ae	0.24527618
214	0xbe4dfa49	-0.20115007
215	0xbec51815	-0.38494936
216	0x3e5730aa	0.21014658
217	0x3dc82606	0.097728774
218	0xbe0f2b16	-0.1398128
219	0xbe4ea54c	-0.20180243
220	0x3e037ef9	0.12841405
221	0x3e9e7c03	0.30953988
222	0x3e2ef9b5	0.17087443
223	0xbeab95e1	-0.33512786
224	0x3d3bbea8	0.04583612
225	0xbe9cd243	-0.30629167
226	0xbe26a876	-0.162752
227	0x3ef2a101	0.4738846
228	0x3e31f5a4	0.1737886
229	0x3efaa8a8	0.489568
230	0xbe5e3f86	-0.2170392
231	0xbe95ee1b	-0.29283223
232	0x3db6b007	0.08920293
233	0x3d87f8f0	0.06639278
234	0x3e93a5cd	0.28837433
235	0x3ebb914a	0.36634284
236	0x3c40ef59	0.011775815
237	0x3e534c45	0.20634563
238	0xbebfb1c2	-0.37440306
239	0x3e120c03	0.14262395
240	0x3f1c96d9	0.61167675
241	0xbe75b93c	-0.23996443
242	0x3e6e5ed8	0.23278368
243	0x3d778f5e	0.06043946
244	0xbe3e370d	-0.18575688
245	0xbe530178	-0.20606029
246	0x3d9bdd4e	0.0761057
247	0xbf336ac2	-0.70084774
248	0xbe96f5ae	-0.29484314
249	0xbe9d7b4c	-0.3075813
250	0xbdb7f55c	-0.089823455
251	0xbe908d67	-0.2823288
252	0x3f07a4c3	0.5298578
253	0x3d6ce493	0.057835173
254	0xbe37ca07	-0.17948161
255	0xbe97fae9	-0.29683617

encoder.3.bias f4 [16]
0	0x3de5c0e3	0.11218431
1	0xbe6cc8bf	-0.23123454
2	0xbdeeb98a	-0.116564825
3	0xbf10b881	-0.5653153
4	0xbddfdd4b	-0.1093088
5	0x3d0b99cf	0.03408223
6	0x3c75151a	0.014958644
7	0xbe99f81f	-0.30072114
8	0xbe4a9094	-0.19781715
9	0xbed0febe	-0.40819353
10	0xbe0b0eb7	-0.13579832
11	0xbe178cad	-0.14799757
12	0x3e20026c	0.15625924
13	0x3e1f436a	0.1555306
14	0x3ebab214	0.36463988
15	0x3e78bb33	0.24290161

encoder.6.weight f4 [16, 16]
0	0xbf32491c	-0.69642806
1	0x3e74ca47	0.23905288
2	0xbe08d760	-0.13363409
3	0x3f2386d5	0.6387761
4	0x3bf8c556	0.0075918837
5	0x3ec7540d	0.38931313
6	0xbeb26528	-0.348428
7	0xbd0f43d5	-0.0349768
8	0xbe356985	-0.17716034
9	0xbf332ab6	-0.69987047
10	0x3ed1ccef	0.40976664
11	0xbf4b79fe	-0.7948302
12	0x3e7ad3bb	0.24494831
13	0x3e58fc3e	0.21189973
14	0xbdcac31c	-0.099004954
15	0x3f27b385	0.655083
16	0x3e9c3ea1	0.30516532
17	0xbe2f7ae1	-0.17136718
18	0xbda55ab7	-0.08073943
19	0xbdf3dbb1	-0.11907137
20	0x3e0b2012	0.13586453
21	0x3f00a4dd	0.5025156
22	0xbce2cd49	-0.027685778
23	0x3e4cd865	0.20004423
24	0x3e1d3c2a	0.15354982
25	0x3d2a619b	0.04159699
26	0x3f0a32cd	0.53983766
27	0x3e69c66f	0.22829603
28	0xbe123d2a	-0.14281145
29	0x3e8c72ba	0.2743128
30	0x3e61c2bf	0.22046946
31	0xbe0fbac2	-0.14036086
32	0xbd8a2894	-0.06746021
33	0x3bc8b9da	0.006125671
34	0xbeb3f98b	-0.35151324
35	0x3efc7e39	0.4931505
36	0x3e8697de	0.2628774
37	0x3e4cf88f	0.20016693
38	0xbdc89731	-0.097944625
39	0x3da51049	0.08059747
40	0x3e2f3d83	0.17113309
41	0x3ec5afbb	0.38610634
42	0x3e691e31	0.22765423
43	0x3db6efdb	0.089324676
44	0xbe4da1fa	-0.2008132
45	0x3e4ff853	0.20309572
46	0x3e8b8a62	0.27254015
47	0xbc4b93cc	-0.012425374
48	0x3cb15e30	0.021651357
49	0xbe47d22c	-0.19513768
50	0x3e77d043	0.2420054
51	0x3e97d226	0.29652518
52	0xbd9fd0a7	-0.07803469
53	0xbeb33b0f	-0.35005996
54	0xbeeb00de	-0.458991
55	0x3f0b3f35	0.5439332
56	0xbf0b5ecf	-0.5444154
57	0xbe0e3e63	-0.13890986
58	0xbdf26cda	-0.11837168
59	0xbe6632bf	-0.22480296
60	0x3e320131	0.17383267
61	0x3eb1427a	0.3462103
62	0xbe01fdaa	-0.12694421
63	0x3e0d68a9	0.13809456
64	0xbf2704b8	-0.65241575
65	0x3ea14757	0.3149974
66	0xbebc0669	-0.3672364
67	0x3f180718	0.59385824
68	0x3e657113	0.22406416
69	0xbba8f5c8	-0.0051562525
70	0x3d8e342f	0.06943547
71	0xbf146fd9	-0.57983166
72	0xbe291c6a	-0.16514745
73	0x3d014cba	0.031567313
74	0xbe56cc6a	-0.20976415
75	0xbe56fc51	-0.20994689
76	0xbd65523a	-0.05598662
77	0x3e82fce9	0.2558358
78	0x3ee203da	0.44143564
79	0x3f11fe88	0.5702901
80	0x3eeca2f2	0.46218067
81	0xbd577bf2	-0.052608438
82	0xbeb59af3	-0.3546978
83	0xbe8a4b3b	-0.2701052
84	0xbda8d1bb	-0.08243128
85	0x3bc45961	0.0059921
86	0xbe8bcf47	-0.27306578
87	0xbb63e57c	-0.0034774235
88	0xbf173058	-0.5905814
89	0x3e2d04bd	0.16896339
90	0xbc0f784d	-0.008756709
91	0xbc531953	-0.012884456
92	0x3eaa3c6e	0.3324923
93	0xbe8232e7	-0.2542946
94	0x3bad04f4	0.0052801315
95	0xbe93fefb	-0.28905472
96	0xbe9d57a8	-0.3073094
97	0xbd9cc644	-0.07655004
98	0x3e1e3d24	0.15453011
99	0x3e505512	0.20344952
100	0x3eb3f22d	0.35145703
101	0x3ea02c1d	0.31283656
102	0x3cd66761	0.026172342
103	0xbe305fff	-0.1722412
104	0xbdbc00c3	-0.09179833
105	0x3e399375	0.18122657
106	0x3deef957	0.116686516
107	0x3ef7a9af	0.48371646
108	0x3e7589d0	0.23978353
109	0x3e89fc3a	0.26950246
110	0xbd5f297a	-0.054482915
111	0xbf03c98f	-0.5147943
112	0xbe5a4121	-0.21313907
113	0x3e92dbe8	0.286834
114	0xbe262817	-0.1622623
115	0x3c27f2a1	0.010250718
116	0x3e4cef9e	0.20013282
117	0x3d3557a4	0.044273034
118	0x3e60fa67	0.21970521
119	0x3e993f57	0.29931137
120	0x3ebafbed	0.3652033
121	0xbcc14f38	-0.023597345
122	0x3daaae58	0.08334035
123	0x3da46d8c	0.08028707
124	0xbefa88ee	-0.48932594
125	0x3e06f384	0.13178831
126	0xbf54c82b	-0.8311793
127	0xbec8e9c2	-0.39240843
128	0xbd999149	-0.07498414
129	0x3ea20d37	0.31650707
130	0xbf2a639e	-0.66558254
131	0xbf4029d2	-0.7506381
132	0xbeead85f	-0.45868203
133	0x3d404cbe	0.046948187
134	0x3e8bbceb	0.2729257
135	0xbda45a41	-0.08025027
136	0xbee9afee	-0.45642036
137	0x3d678775	0.056525666
138	0xbec9cd1c	-0.394143
139	0x3eaa1c57	0.33224747
140	0xbecd5a10	-0.40107775
141	0xbe9cd543	-0.30631456
142	0xbe875067	-0.2642853
143	0xbd50d36c	-0.050982878
144	0xbdc53512	-0.09629263
145	0x3cd46289	0.025925891
146	0x3da66fe3	0.081268094
147	0x3e2f0f6c	0.17095727
148	0x3b968495	0.0045934417
149	0xbd0da450	-0.03458053
150	0x3e559819	0.20858802
151	0x3e831402	0.25601202
152	0xbe474961	-0.19461586
153	0xbd847c20	-0.064689875
154	0xbe4ddbe9	-0.2010342
155	0x3d974392	0.07385935
156	0x3e44d0bd	0.19220252
157	0xbd0f9267	-0.03505173
158	0xbcbc83cb	-0.023012063
159	0x3de9de08	0.11419302
160	0xbe1ca4bb	-0.15297215
161	0xbe37063c	-0.17873472
162	0xbe345164	-0.17609173
163	0x3dbca5e3	0.09211328
164	0x3d82997d	0.06376932
165	0x3ec4b054	0.38415778
166	0x3e33fb74	0.1757639
167	0x3dbd88af	0.09254586
168	0x3e517f15	0.20458634
169	0x3f496e71	0.78684145
170	0x3e19fac9	0.15037073
171	0x3e2b9b73	0.16758518
172	0xbf1389f2	-0.5763236
173	0xbe683b43	-0.22678857
174	0x3e38fed6	0.18065962
175	0xbda6132a	-0.08109124
176	0x3e1aeba2	0.1512895
177	0xbdbd1a19	-0.09233493
178	0x3eb6d650	0.35710382
179	0x3dd9f0d9	0.10641641
180	0x3d08307f	0.033249374
181	0xbec6693b	-0.3875216
182	0x3ec063ef	0.37576243
183	0x3ddc137c	0.10745904
184	0x3dd65789	0.10465915
185	0xbe29cd63	-0.16582255
186	0xbeabd0bc	-0.3355769
187	0x3dec1a57	0.115284614
188	0x3b1598e2	0.002282672
189	0x3e3afd4b	0.18260686
190	0x3d46bccd	0.0485199
191	0xbb33254c	-0.0027335463
192	0xbd68cf6f	-0.05683845
193	0xbe942db3	-0.28941116
194	0x3ed41714	0.41423857
195	0xbc734082	-0.014846923
196	0x3cdd18d4	0.026989378
197	0xbe0d2d37	-0.1378678
198	0xbeb8ff5d	-0.36132327
199	0xbd9717e5	-0.073776044
200	0x3e91f75b	0.2850903
201	0x3ee7fffd	0.4531249
202	0x3d42a7f3	0.04752345
203	0x3c9db979	0.01925348
204	0x3e7e2051	0.24817015
205	0xbe0559c7	-0.13022529
206	0x3e8b4e02	0.27207953
207	0x3e03dc1e	0.12876937
208	0x3e232f7e	0.15936086
209	0xbe830ecd	-0.2559723
210	0xbeb64298	-0.35597682
211	0xbf1904e3	-0.5977308
212	0x3e74b3c1	0.23896696
213	0xbc867933	-0.016415214
214	0xbe889e29	-0.26683167
215	0x3ec1f38d	0.37881127
216	0x3ea0c160	0.31397533
217	0xbe8f113c	-0.27942836
218	0x3ea7462a	0.32670718
219	0x3dd78a2d	0.10524402
220	0x3e1d717c	0.15375322
221	0x3dc915b3	0.09818592
222	0xbf31d396	-0.6946348
223	0x3e97dc56	0.2966029
224	0x3ebcba2a	0.36860782
225	0xbe432dde	-0.19060466
226	0xbe8e2f48	-0.27770448
227	0xbe8b5fd0	-0.27221537
228	0x3dbc12ba	0.09183259
229	0x3e1f7d97	0.15575252
230	0xbebc7d0d	-0.36814156
231	0xbe273f85	-0.16332825
232	0xbec6bdc6	-0.3881666
233	0xbe16dfbe	-0.14733788
234	0x3dfeccff	0.12441444
235	0xbe184dc0	-0.1487341
236	0xbe1ed2a9	-0.15510048
237	0x3e3f4ec8	0.18682396
238	0x3eca2b23	0.39486036
239	0x3e92184e	0.28534168
240	0xbe4837f2	-0.19552591
241	0xbeaac998	-0.3335693
242	0xbe8331b5	-0.2562386
243	0xbf239f55	-0.63914996
244	0xbebc1b0c	-0.36739385
245	0xbef02d13	-0.4690939
246	0xbce4366a	-0.027857978
247	0x3e1a7150	0.15082288
248	0x3ec3fac4	0.38277256
249	0xbe0aa50b	-0.13539521
250	0xbdf05373	-0.11734667
251	0xbd1c82fc	-0.038210854
252	0xbe80adf8	-0.25132728
253	0x3eb9fd1a	0.36325914
254	0xbeb72839	-0.35772875
255	0xbec90c8f	-0.39267394

encoder.6.bias f4 [16]
0	0x3de8efbb	0.1137385
1	0x3d42e62e	0.047582798
2	0xbe0b930f	-0.13630317
3	0xbe901a05	-0.2814485
4	0x3e4d434a	0.200452
5	0x3e3564be	0.17714211
6	0x3da6d4d7	0.08146065
7	0x3e9cfced	0.30661717
8	0x3e4965e0	0.19667768
9	0x3dd78491	0.10523332
10	0xbe7c528e	-0.24640867
11	0xbe8920e3	-0.26782903
12	0x3d2f4f1d	0.042800058
13	0x3cb519ce	0.022107031
14	0xbde544c4	-0.111947566
15	0xbd8b8157	-0.06811779

encoder.9.weight f4 [16, 16]
0	0x3f79a321	0.9751454
1	0x3da2bb86	0.079459235
2	0x3e62e0ea	0.2215611
3	0xbdfe33d7	-0.124122314
4	0x3f0f63c5	0.5601161
5	0x3f18142d	0.59405786
6	0xbe8f7ee6	-0.28026503
7	0xbe2160f1	-0.15759636
8	0xbf104fc0	-0.5637169
9	0x3e0920ea	0.13391462
10	0x3ea6f7ea	0.32611018
11	0xbdd6ccba	-0.10488267
12	0xbe06a44a	-0.13148609
13	0xbeba6861	-0.3640776
14	0xbe3e7a40	-0.18601322
15	0xbec62e96	-0.38707417
16	0x3ef72d29	0.48276642
17	0xbeaa09c9	-0.3321059
18	0xbd031819	-0.032005403
19	0x3dcdd489	0.100503035
20	0x3dbb946b	0.09159168
21	0x3df5004e	0.11962949
22	0x3e5ee0d4	0.21765453
23	0x3d831c7b	0.064019166
24	0xbe9f5c63	-0.31125173
25	0xbb6593ff	-0.003503084
26	0x3ea049e9	0.3130639
27	0x3e262139	0.16223611
28	0x3e46ec93	0.19426183
29	0x3e8bc1d4	0.27296317
30	0x3f084f04	0.5324557
31	0x3f38ac29	0.72137696
32	0xbc840f5b	-0.016120603
33	0xbebe2966	-0.3714096
34	0xbde6ef72	-0.11276139
35	0x3dea39a6	0.11436777
36	0xbee73dd8	-0.4516437
37	0xbe8ba83f	-0.272768
38	0x3e695ca6	0.22789249
39	0x3dd0001a	0.10156269
40	0x3dbe7c87	0.093010955
41	0x3dba2a59	0.090901084
42	0xbd13ccc6	-0.03608396
43	0xbebf8b0d	-0.37410775
44	0x3ddec3f0	0.10877216
45	0x3eb80677	0.35942432
46	0xbc9b8005	-0.018981943
47	0xbdd02d92	-0.10164942
48	0x3f351a74	0.7074349
49	0x3e58db3e	0.21177384
50	0xbebf561f	-0.37370393
51	0x3ec0759d	0.37589732
52	0x3d01979d	0.03163873
53	0x3e6325e0	0.22182417
54	0xbd1357c1	-0.03597236
55	0xbd7e19ad	-0.062036205
56	0x3d8583da	0.06519289
57	0xbed90265	-0.4238464
58	0x3ee55d8f	0.44797942
59	0x3e7f9954	0.24960834
60	0xbe0c7b42	-0.13718894
61	0x3e98a86f	0.29816005
62	0x3e54ff0d	0.20800419
63	0xbdd575cd	-0.10422859
64	0xbec98cc5	-0.3936521
65	0xbe5c5072	-0.21515062
66	0xbdaa7574	-0.08323184
67	0x3ec0f098	0.37683558
68	0xbea1ba98	-0.31587672
69	0x3e84d8ce	0.2594666
70	0x3e5b1c90	0.21397614
71	0xbe6e7447	-0.23286544
72	0x3ef31243	0.4747487
73	0x3e72ea70	0.23722243
74	0xbe095e0d	-0.13414784
75	0x3e534b13	0.20634107
76	0x3e8a885c	0.2705716
77	0xbe971216	-0.29505986
78	0x3eff5289	0.49867657
79	0xbf125324	-0.5715811
80	0xbf658eb4	-0.8967087
81	0x3e0254ca	0.12727657
82	0xbe20de6b	-0.15709846
83	0x3f356f52	0.70872986
84	0x3e074c0e	0.13212606
85	0xbf4650e5	-0.77467185
86	0x3d963bb4	0.07335606
87	0x3eb8b600	0.36076355
88	0xbeb923e8	-0.36160207
89	0xbea17b73	-0.31539497
90	0xbf5cc05d	-0.86231023
91	0xbe3e992e	-0.18613121
92	0x3e9e912c	0.30970132
93	0xbe953eab	-0.29149374
94	0xbc9003c6	-0.017579924
95	0xbec81188	-0.39075875
96	0xbe3ec5c5	-0.1863013
97	0xb998df6d	-0.00029158164
98	0x3d5a332d	0.05327146
99	0xbf1170c6	-0.56812704
100	0x3ddac855	0.106827416
101	0xbd45ea75	-0.0483193
102	0x3eacc45b	0.33743557
103	0xbeb16be3	-0.34652624
104	0xbd4d0690	-0.050055087
105	0x3e939aef	0.28829142
106	0x3ef41eec	0.47679842
107	0xbe468d39	-0.1938981
108	0xbe6c0a22	-0.2305074
109	0x3e0404cf	0.1289246
110	0x3ef1932d	0.471826
111	0x3ea84baf	0.32870242
112	0xbea0507a	-0.313114
113	0x3d06dcb3	0.03292532
114	0xbd7c3a83	-0.06157924
115	0xbf037393	-0.5134823
116	0xbee24fbc	-0.44201458
117	0xbe8a8f1e	-0.27062315
118	0xbd86a468	-0.06574327
119	0xbd5ec4eb	-0.054387014
120	0xbdb4919c	-0.08816835
121	0x3c8f70d1	0.01750985
122	0x3e5d80b6	0.2163113
123	0x3d838748	0.06422287
124	0xbe758a8d	-0.23978634
125	0xbeed370d	-0.46331063
126	0xbf0fde3a	-0.56198466
127	0xbf034467	-0.5127625
128	0x3f42b493	0.76056784
129	0xbd4edf84	-0.05050613
130	0x3e339743	0.1753817
131	0xbea35a54	-0.31904852
132	0x3f3f93bf	0.7483482
133	0x3ebc8e19	0.36827162
134	0x3ec76458	0.38943744
135	0xbf0958c1	-0.5365105
136	0x3da6234f	0.08112203
137	0xbd4c81e3	-0.049928557
138	0x3dd438c5	0.103623904
139	0xbd9d6d5d	-0.07686875
140	0xbe8a2731	-0.26983026
141	0xbe2d95bd	-0.16951652
142	0x3f45f577	0.77327675
143	0x3e114c80	0.14189339
144	0x3d4a4037	0.049377646
145	0xbe41108a	-0.18853965
146	0x3c255750	0.010091618
147	0xbf0f08a2	-0.5587255
148	0x3eba3c53	0.3637415
149	0x3f4fff6b	0.8124911
150	0xbdaef250	-0.08542311
151	0x3d04a677	0.032385316
152	0xbf26b884	-0.651253
153	0x3d5bfa82	0.0537057
154	0xbd6bed68	-0.057599455
155	0xbea14134	-0.3149506
156	0xbe19a323	-0.15003638
157	0xbe380118	-0.17969167
158	0x3e9fc5da	0.31205636
159	0x3e7a2da5	0.24431475
160	0xbe42ee2e	-0.19036171
161	0xbda5ba25	-0.08092145
162	0xbe84f449	-0.25967625
163	0xbed355da	-0.41276437
164	0xbe9a9b66	-0.30196685
165	0xbf2809d4	-0.65639997
166	0xbe4af30f	-0.19819282
167	0xbec134c3	-0.37735566
168	0x3eddd15b	0.43323788
169	0x3e6b8bd0	0.23002553
170	0xbdcb1775	-0.099165834
171	0x3e2b1405	0.16706856
172	0xbe3dfdb2	-0.18553808
173	0x3ecf1ee3	0.40453252
174	0xbe4a01dd	-0.19727273
175	0xbc01af6c	-0.007915359
176	0x3e7a0f8d	0.24419995
177	0xbe435d44	-0.19078547
178	0xbee17b19	-0.4403923
179	0xbed52594	-0.41630232
180	0x3ef95fd7	0.48705932
181	0xbe82fb2b	-0.2558225
182	0xbd1dfe3a	-0.038572527
183	0x3d9abd73	0.07555666
184	0xbf9259c5	-1.1433645
185	0x3db80419	0.089851566
186	0xbe42ed14	-0.1903575
187	0x3e6a8c5e	0.22905108
188	0xbc51fd41	-0.012816728
189	0x3ec276e5	0.37981334
190	0x3d2571d3	0.040391754
191	0xbddc1297	-0.10745733
192	0xbd3d8e1b	-0.0462781
193	0xbeb55d81	-0.354229
194	0xbe1a6075	-0.15075858
195	0x3a6ccdfe	0.0009033381
196	0xbc63d3eb	-0.013905506
197	0xbdcf493e	-0.10121392
198	0x3e9890c1	0.29797938
199	0x3c734a2c	0.014849227
200	0xbe6f0b03	-0.23344044
201	0x3e8b4282	0.2719918
202	0x3f3fd867	0.7493958
203	0x3c51c1e0	0.012802571
204	0xbe869db8	-0.26292205
205	0xbe4bf085	-0.1991597
206	0x3eb5c05b	0.35498318
207	0x3d2a8e64	0.0416397
208	0xbf0a43b4	-0.54009557
209	0xbeb751a3	-0.3580447
210	0xbd2bd5be	-0.041951887
211	0xbeb39625	-0.3507549
212	0x3e35f108	0.17767727
213	0x3c4c30bb	0.01246279
214	0x3e73c53f	0.23805712
215	0xbeca7c75	-0.39548078
216	0xbf1b3cb9	-0.6063953
217	0x3dc3b37a	0.09555717
218	0xbc9ebf5d	-0.019378358
219	0x3caf38ba	0.021389354
220	0xbd077e7a	-0.0330796
221	0xbda5f47f	-0.081032746
222	0xbe5123b0	-0.2042377
223	0x3efa9ee4	0.4894935
224	0x3ee8a45c	0.45437896
225	0x3e6f2eaf	0.23357652
226	0x3ed7fbeb	0.42184386
227	0x3e99aaef	0.30013224
228	0x3f3549cf	0.7081575
229	0x3f003830	0.50085735
230	0xbe1239ce	-0.14279863
231	0x3dd3d94d	0.10344181
232	0xbe4bb2fe	-0.19892499
233	0xbe618cd9	-0.22026385
234	0xbf27349b	-0.65314645
235	0xbeb31171	-0.34974244
236	0x3eb3e392	0.3513456
237	0xbdd3e944	-0.10347226
238	0x3e593dcf	0.21214984
239	0x3e9e8918	0.3096397
240	0x3ca3cd76	0.019995432
241	0xbe746c03	-0.23869328
242	0x3c09f1b7	0.008419446
243	0xbec85829	-0.3912976
244	0x3e086445	0.133195
245	0x3dc0286d	0.093827106
246	0xbe072f5d	-0.13201661
247	0xbd7cfa6a	-0.06176225
248	0x3ed23d8f	0.4106259
249	0xbe38be05	-0.18041237
250	0x3e97ef0b	0.29674563
251	0x3d9caaf1	0.07649792
252	0x3c0a9ead	0.008460683
253	0xbe98b5cb	-0.29826197
254	0xbea05113	-0.31311855
255	0x3db29dd0	0.087215066

encoder.9.bias f4 [16]
0	0xbdda439a	-0.10657425
1	0xbeb94c21	-0.36190894
2	0x3e922110	0.2854085
3	0xbe450d54	-0.19243366
4	0xbeae168c	-0.34001577
5	0x3e3dc165	0.18530805
6	0x3e5ced3b	0.21574871
7	0x3e9f2018	0.31079173
8	0xbe8efa8b	-0.27925524
9	0x3e3ff0d5	0.18744214
10	0x3e2c8dde	0.16850993
11	0xbe65535f	-0.22395085
12	0xbd35f313	-0.044421267
13	0xbd11b2ee	-0.03557103
14	0xbe82a5a6	-0.25517005
15	0x3e8412bf	0.25795552

pretraining_head.0.weight f4 [16, 16]
0	0x3e9989da	0.29987985
1	0x3e44f9b3	0.19235878
2	0x3f051fc0	0.5200157
3	0x3ea63417	0.32461616
4	0xbe229731	-0.15877987
5	0x3eb5176b	0.3536943
6	0x3e2f0ecf	0.17095493
7	0xbec9de74	-0.3942753
8	0xbeae7bdd	-0.34078875
9	0x3d9e5e6b	0.077328525
10	0xbe9ef930	-0.3104949
11	0xbe1f0468	-0.15529025
12	0xbe976b52	-0.29574066
13	0x3ded0fc8	0.11575276
14	0xbe644f48	-0.22295868
15	0x3e9493f1	0.2901912
16	0x3df80a7a	0.12111373
17	0xbec34fb9	-0.3814676
18	0x3d8ae151	0.06781257
19	0xbda32a9a	-0.0796711
20	0xbf23363c	-0.6375463
21	0x3e46fa1e	0.1943135
22	0x3e96e262	0.2946959
23	0x3dfd43f4	0.12366477
24	0xbe9f16dc	-0.31072128
25	0x3e6b626c	0.22986764
26	0xbe979410	-0.2960515
27	0x3ec77690	0.38957644
28	0x3d6e45b4	0.058171943
29	0x3ea9aa55	0.33137766
30	0x3e96378f	0.29339263
31	0x3b652af4	0.003496823
32	0xbeff1bde	-0.49825948
33	0xbc877c76	-0.01653884
34	0x3ec7d0ed	0.39026585
35	0xbec3c0b4	-0.38232958
36	0x3dc3a472	0.0955285
37	0x3f0878dd	0.5330942
38	0x3e0a6280	0.13514137
39	0xbe882e92	-0.2659803
40	0xbeb256db	-0.3483189
41	0xbec94cae	-0.39316314
42	0x3d5c44a2	0.05377639
43	0xbe4d7704	-0.20064932
44	0x3d7161f3	0.058931302
45	0x3d73af9b	0.059493642
46	0xbdd823de	-0.10553716
47	0xbd2cd3be	-0.04219412
48	0x3e296682	0.1654301
49	0xbeba253e	-0.3635654
50	0x3c101474	0.008793939
51	0x3eb4d751	0.35320523
52	0x3d79faee	0.06103032
53	0x3e4b161b	0.19832651
54	0xbe65184f	-0.22372554
55	0xbec3b411	-0.38223317
56	0xbe818e1e	-0.2530374
57	0xbc9bf145	-0.019035945
58	0x3ed2ccf2	0.41171986
59	0xbf14e980	-0.5816879
60	0x3f058514	0.52156186
61	0x3e9c8abc	0.30574596
62	0x3dbf1110	0.09329426
63	0xbefcd316	-0.49379796
64	0xbe9e1021	-0.3087168
65	0xbefb0052	-0.49023682
66	0xbdfd3771	-0.1236409
67	0xbebd352a	-0.36954623
68	0x3e02e1e7	0.12781487
69	0xbe58b599	-0.21163024
70	0x3dfda031	0.1238407
71	0x3ef81837	0.48455974
72	0x3ee6cea1	0.4507952
73	0xbe63eefd	-0.22259136
74	0x3f093ca0	0.5360813
75	0x3e9e4ab0	0.30916357
76	0x3e1eb44f	0.1549847
77	0xbbb2cf74	-0.0054568592
78	0x3dca9026	0.098907754
79	0xbef2b48c	-0.4740337
80	0xbe8de92c	-0.2771696
81	0x3c870331	0.016481014
82	0xbe5a4307	-0.21314631
83	0xbe88a315	-0.26686922
84	0x3eb4c0f4	0.35303462
85	0x3ea88682	0.3291512
86	0x3e13e6bd	0.14443488
87	0x3ee356d5	0.44402185
88	0x3ea95e09	0.33079556
89	0xbe962d7c	-0.29331577
90	0x3f0d85fa	0.55282557
91	0xbdae271a	-0.08503552
92	0xbe523e49	-0.20531572
93	0x3ec3c7e8	0.38238454
94	0x3e114799	0.14187469
95	0xbe5426a6	-0.20717868
96	0x3e68be13	0.22728758
97	0xbee7f632	-0.4530502
98	0x3f0294cd	0.510083
99	0xbeb47784	-0.35247433
100	0xbcb5c42a	-0.022188265
101	0xbd892a9d	-0.06697581
102	0xbe4c6235	-0.19959338
103	0x3f52733d	0.8220709
104	0xbd8591bf	-0.065219395
105	0x3f23efa2	0.64037526
106	0x3dc27020	0.094940424
107	0x3e6e3fd2	0.23266533
108	0xbe4a88c8	-0.1977874
109	0x3f0b25b6	0.5435442
110	0x3cd2b324	0.025720187
111	0xbdcad59b	-0.09904023
112	0x3e704770	0.23464751
113	0xbee7eeed	-0.45299473
114	0x3e8b61de	0.27223104
115	0xbea51758	-0.32244372
116	0xbce06157	-0.027390165
117	0x3deadbd5	0.11467711
118	0xbe7a41c3	-0.24439149
119	0x3ef6d7b1	0.48211434
120	0x3d1da62c	0.038488552
121	0x3e38925f	0.18024586
122	0x3d90f445	0.07077841
123	0x3bb75c70	0.005595736
124	0xbe2fd9c6	-0.17172918
125	0xbe29e5e0	-0.16591597
126	0xbec2b8c0	-0.38031578
127	0x3e842a1e	0.25813383
128	0xbd39582a	-0.045250095
129	0xbd734fff	-0.059402462
130	0x3c598d07	0.013278252
131	0xbd4f6874	-0.050636724
132	0x3e547467	0.20747529
133	0xbe74bd23	-0.23900275
134	0x3ec88ee3	0.39171514
135	0x3f19fe60	0.6015377
136	0xbe9baf39	-0.30407122
137	0xbe88dc8f	-0.26730773
138	0x3e9ae51c	0.30252922
139	0xbe944c32	-0.28964382
140	0x3e81b95d	0.25336733
141	0x3e9022b0	0.28151464
142	0xbf23cdf5	-0.6398614
143	0x3e759ce6	0.23985633
144	0xbedd2954	-0.43195593
145	0x3cd340af	0.02578768
146	0x3ee3f47d	0.44522467
147	0xbd9e9d9a	-0.07744904
148	0xbe699dc6	-0.22814092
149	0x3e089427	0.13337766
150	0x3e82f540	0.25577736
151	0xbd2af934	-0.041741565
152	0xbe9b4fda	-0.3033436
153	0x3ec55825	0.3854381
154	0x3d1a2a5f	0.037638064
155	0xbcf66d8f	-0.030081538
156	0x3e8ae0bd	0.27124587
157	0x3e64af47	0.22332488
158	0xbe7573f8	-0.2397002
159	0x3e181f18	0.14855611
160	0xbe577956	-0.2104238
161	0x3e4ddc4f	0.20103572
162	0x3e8d2c20	0.27572727
163	0xbe95d889	-0.29266766
164	0xbd92615b	-0.07147475
165	0x3deebaba	0.11656709
166	0xbe3afdc8	-0.18260872
167	0x3f015529	0.5052057
168	0x3e8c33ea	0.27383357
169	0x3ecfa618	0.40556407
170	0x3f03e082	0.51514447
171	0x3e5aac6d	0.21354838
172	0xbe840430	-0.25784445
173	0xbdcf5f4a	-0.10125597
174	0x3e9a129a	0.30092317
175	0xbde6c8f9	-0.11268801
176	0x3ebe0697	0.37114403
177	0xbe9f015b	-0.31055722
178	0xbe0b253c	-0.13588423
179	0x3e679b17	0.22617756
180	0x3e431ffb	0.19055168
181	0x3cc57b84	0.024106748
182	0x3e6bb5f1	0.23018624
183	0x3e610a85	0.21976669
184	0x3d640746	0.055671
185	0x3ea59580	0.32340622
186	0xbe9c9f50	-0.30590296
187	0xbeb79f1e	-0.35863584
188	0xbd19b672	-0.03752751
189	0x3d8144c0	0.06311941
190	0xbdeeb80f	-0.116562
191	0xbdac3c5b	-0.084099494
192	0xbeb6bcc3	-0.3569089
193	0xbe492bec	-0.19645661
194	0x3f0c1110	0.54713535
195	0x3d65e5bb	0.05612729
196	0xbe9c75fb	-0.30558762
197	0x3ed10ae1	0.40828612
198	0x3d666cef	0.05625623
199	0x3e1f6852	0.15567139
200	0xbedf9d93	-0.43674907
201	0x3de5cc31	0.11220587
202	0xbd0eff25	-0.034911294
203	0xbee787e5	-0.45220867
204	0xbe51c048	-0.20483506
205	0x3dad2450	0.08454192
206	0xbdfc8746	-0.12330489
207	0x3d3f5fca	0.04672221
208	0xbedaf830	-0.42767477
209	0xbeab8dde	-0.33506674
210	0xbef96df9	-0.48716715
211	0x3dc47585	0.095927276
212	0xbe6e5248	-0.23273575
213	0x3ece1755	0.40252176
214	0xbe90fc63	-0.28317556
215	0x3e2e17b9	0.17001237
216	0xbf00e1cf	-0.50344557
217	0xbe8fbd6f	-0.28074214
218	0x3ecbf347	0.39834043
219	0x3e2dfe02	0.16991428
220	0xbe237bd6	-0.15965208
221	0xbe57587b	-0.21029846
222	0xbeb5bf97	-0.35497734
223	0x3cb47844	0.022030003
224	0xbe7f9203	-0.24958043
225	0xbd385f33	-0.045012664
226	0xbe928a6e	-0.28621238
227	0xbdd2f81a	-0.10301228
228	0x3f073e45	0.5282939
229	0x3ebe15ab	0.37125906
230	0xbea8c3a0	-0.3296175
231	0x3eadfd13	0.33982143
232	0xbed6bacb	-0.41939387
233	0xbeb08713	-0.34478053
234	0xbcbdca17	-0.023167653
235	0x3e03108a	0.12799278
236	0xbed8043d	-0.42190734
237	0xbc52eeda	-0.012874329
238	0x3e5c300f	0.21502708
239	0xbd159068	-0.03651467
240	0xbd5fa516	-0.054600798
241	0x3e8c7a88	0.27437234
242	0xbc9d2f4a	-0.019187588
243	0x3e3a5cf5	0.18199523
244	0x3f0a5281	0.5403214
245	0x3d110147	0.03540161
246	0xbf0dda6d	-0.55411416
247	0xbe8db970	-0.2768054
248	0xbe2c5bc6	-0.16831884
249	0xbd88e57c	-0.06684396
250	0xbd931837	-0.07182353
251	0x3e87e7c5	0.26544014
252	0x3e62aefa	0.22137061
253	0x3e66ace5	0.22526892
254	0xbea8e165	-0.32984462
255	0x3df9e65c	0.12202141

pretraining_head.0.bias f4 [16]
0	0x3d8d3f43	0.06896832
1	0x3e25f032	0.16204908
2	0x3ce6ef34	0.028190233
3	0xbdc51e90	-0.0962497
4	0xbdb64724	-0.08900288
5	0xbd679b66	-0.056544684
6	0xbc8518bf	-0.016247151
7	0x3ec731c0	0.38905144
8	0x3e5ea6ee	0.21743366
9	0x3e90358e	0.2816586
10	0xbe650925	-0.2236677
11	0xbe53734c	-0.20649451
12	0x3e8c7595	0.27433458
13	0x3e65d4ab	0.22444408
14	0x3d47f8e1	0.048821334
15	0xbe987751	-0.2977853

pretraining_head.3.weight f4 [16, 16]
0	0x3e4c7459	0.19966258
1	0x3e51303a	0.20428553
2	0xbe251e5f	-0.16124867
3	0x3e9acff7	0.3023679
4	0x3e03790f	0.12839149
5	0x3d953aae	0.07286583
6	0x3e8cd9a9	0.27509812
7	0x3c39de61	0.011344523
8	0xbcf9619e	-0.030442055
9	0xbdbd93ac	-0.09256682
10	0xbd8653e8	-0.065589726
11	0x3dcd0d2a	0.100122765
12	0x3e092daa	0.13396326
13	0xbdd8d54c	-0.10587558
14	0xbef3921a	-0.47572404
15	0xbec6b8e0	-0.38812923
16	0xbdbdd188	-0.092684805
17	0x3d9095be	0.07059811
18	0xbe446d8c	-0.19182414
19	0x3f0ce002	0.5502931
20	0xbee1577a	-0.44012052
21	0xbeb9ef30	-0.36315298
22	0xbf229b2d	-0.6351803
23	0xbdcfa090	-0.10138047
24	0xbf1e9be4	-0.6195662
25	0xbe740b3d	-0.23832412
26	0xbe0e0a50	-0.13871121
27	0xbda90bdf	-0.08254217
28	0x3ec73661	0.38908675
29	0x3ee2eb93	0.44320354
30	0x3dbd31f7	0.09238046
31	0xbebe382e	-0.37152237
32	0xbe339f32	-0.17541197
33	0x3db1fe1e	0.08691047
34	0x3c982752	0.018573437
35	0x3e1386aa	0.14406839
36	0xbdf98440	-0.12183428
37	0xbd9bafcf	-0.07601892
38	0xbe460b17	-0.19340168
39	0xbe3c61c4	-0.1839667
40	0xbea90e3d	-0.33018675
41	0xbd8c9d26	-0.06865911
42	0xbd5a70fe	-0.053330414
43	0xbe98961b	-0.2980202
44	0xbc18fdcd	-0.009337855
45	0xbcfc4f81	-0.03079963
46	0x3da9008d	0.08252058
47	0x3dafcd38	0.08584064
48	0xbc38184e	-0.011236263
49	0xbde3a14d	-0.1111475
50	0x3e12cd7b	0.14336197
51	0x3efd6cdb	0.49497113
52	0xbdc2c6fc	-0.095106095
53	0xbdc5f913	-0.09666648
54	0xbeb67ca5	-0.3564197
55	0x3ede83ec	0.43460023
56	0xbd50521f	-0.050859567
57	0x3e818140	0.25293922
58	0x3e9f49d3	0.3111101
59	0xbe08ab07	-0.13346492
60	0x3f1cc0a4	0.61231446
61	0x3dd5e320	0.10443711
62	0xbe4c896d	-0.19974299
63	0xbf0a291f	-0.53968996
64	0x3daa1ff3	0.08306875
65	0x3ea65b8e	0.32491726
66	0xbf01f586	-0.50765264
67	0xbeb1f02e	-0.34753555
68	0x3e083a6a	0.13303533
69	0x3b639b88	0.0034730155
70	0x3ee87956	0.45405072
71	0xbeeb8953	-0.46003208
72	0xbdf73657	-0.120709114
73	0xbf019203	-0.5061342
74	0xbe191c7f	-0.14952277
75	0x3de07866	0.10960464
76	0xbefe432e	-0.4966063
77	0x3df4940f	0.119423024
78	0xbe48d46d	-0.19612284
79	0x3e7a342c	0.24433964
80	0x3d2f7fc8	0.04284647
81	0xbb929c85	-0.004474225
82	0x3ef2a66d	0.47392598
83	0x3ecd2715	0.4006888
84	0xbe304ef0	-0.17217612
85	0xbc488251	-0.012238101
86	0xbe1a7bfd	-0.1508636
87	0xbea7f06a	-0.3280061
88	0xbe989e5c	-0.2980832
89	0xbca37f26	-0.01995809
90	0x3ed1ec38	0.41000533
91	0x3e2c73f8	0.16841114
92	0xbc66ee36	-0.01409488
93	0xbeba945c	-0.36441314
94	0x3e4f4861	0.20242454
95	0x3dc331cc	0.095309824
96	0x3d014a67	0.031565096
97	0x3e5b0efb	0.21392433
98	0x3e38227d	0.17981906
99	0x3ed8a2be	0.42311662
100	0xbd9ea28b	-0.07745846
101	0x3daba354	0.08380762
102	0x3d2edfa7	0.04269376
103	0xbe86fb65	-0.26363674
104	0xbeb1c612	-0.34721428
105	0xbd5ebcaf	-0.05437916
106	0xbe94434a	-0.28957587
107	0xbdc7584e	-0.0973364
108	0x3e06ebff	0.13175963
109	0xbee0fd31	-0.4394317
110	0xbe54a0a2	-0.20764402
111	0xbe7494c8	-0.2388488
112	0xbe21d738	-0.15804756
113	0xbe677f1a	-0.22607079
114	0x3ebbf70e	0.36711925
115	0xbea94f47	-0.33068296
116	0x3c91ca76	0.017796736
117	0x3d851940	0.06498957
118	0xbd778a51	-0.060434643
119	0x3d3eb8d7	0.046562996
120	0x3e4f451b	0.20241205
121	0x3e75a49d	0.23988576
122	0xbee862a8	-0.4538777
123	0xbddb88c9	-0.10719449
124	0xbe4417de	-0.1914973
125	0xbe2f790c	-0.1713602
126	0x3ecfbdae	0.40574402
127	0x3ed68278	0.41896415
128	0x3d56627e	0.052340023
129	0x3e2073ed	0.15669222
130	0x3ec6db1d	0.38839045
131	0x3e2d6789	0.16934027
132	0xbe9160e6	-0.2839424
133	0x3a9e5cb5	0.0012082072
134	0xbd948fa6	-0.07253961
135	0xbf3ece14	-0.745332
136	0xbf09051e	-0.53523433
137	0xbe8c4f0f	-0.27404067
138	0xbd061cd9	-0.032742355
139	0x3e80cd6c	0.25156724
140	0xbebfbcd9	-0.37448767
141	0xbed7b37d	-0.42129126
142	0x3eaa572c	0.33269632
143	0x3ea9544a	0.3307212
144	0x3ddb1307	0.106969886
145	0x3d7854f3	0.06062789
146	0xbe925dae	-0.28587097
147	0xbeafa7f4	-0.34307826
148	0x3ec30899	0.38092497
149	0x3e621bb3	0.22080879
150	0x3f11be49	0.5693098
151	0x3db9615e	0.090517744
152	0x3eedada7	0.4642155
153	0x3cd0ae2a	0.025473673
154	0x3e8efc31	0.27926782
155	0x3d5a1d0b	0.053250354
156	0xbe94a7cb	-0.29034266
157	0xbdad2b66	-0.08455543
158	0xbe526e35	-0.20549853
159	0x3e1c4dac	0.15264004
160	0xbe050b9a	-0.12992707
161	0xbdfdfb9c	-0.12401506
162	0xbcd508f3	-0.026005244
163	0x3e8db548	0.2767737
164	0xbead0648	-0.33793855
165	0xbe9b8ef2	-0.30382496
166	0xbf158846	-0.5841106
167	0xbdf843d1	-0.1212231
168	0xbea71f72	-0.32641178
169	0xbe03b331	-0.12861325
170	0xbea4b6ce	-0.3217072
171	0x3d308877	0.043098893
172	0x3d4fa9c3	0.050699007
173	0x3ed1a0d0	0.40943003
174	0x3eedf033	0.4647232
175	0x3e104cc5	0.14091785
176	0xbcaf93bc	-0.02143275
177	0xbdeb0f21	-0.11477495
178	0x3e8cf61c	0.27531517
179	0x3f12c746	0.5733532
180	0xbe8bcedb	-0.27306256
181	0xbe46b75f	-0.19405888
182	0xbf03be95	-0.5146268
183	0x3dfa066b	0.122082554
184	0xbe944f23	-0.28966627
185	0x3dac56a0	0.0841496
186	0xbe89787d	-0.26849738
187	0x3caa866b	0.020816049
188	0x3ede59aa	0.43427783
189	0x3de85051	0.11343444
190	0x3d9ad2eb	0.07559761
191	0xbe9d4b74	-0.3072163
192	0xbd1fd648	-0.039022714
193	0xbe18e189	-0.14929785
194	0x3e78c8da	0.24295369
195	0xbd9c0369	-0.07617838
196	0x3e1fa884	0.15591627
197	0x3dddca15	0.1082956
198	0x3cb4eb72	0.022084925
199	0x3f121b47	0.5707287
200	0x3ea5445f	0.32278726
201	0x3ee21357	0.4415538
202	0xbea93bed	-0.33053532
203	0xbe83351e	-0.25626463
204	0x3ed64ab7	0.41853878
205	0xbe20374d	-0.15646096
206	0xbe8bd543	-0.27311143
207	0xbec73044	-0.3890401
208	0x3d6b1c5b	0.05740009
209	0x3e56a647	0.20961867
210	0x3eb63ff9	0.35595682
211	0x3eb2e283	0.3493844
212	0xbdce3c1c	-0.10070059
213	0x3dec954d	0.11551914
214	0x3e0acfce	0.13555834
215	0xbf02cea6	-0.5109657
216	0xbed69678	-0.41911674
217	0xbe2094f3	-0.1568182
218	0x3e1f51f0	0.155586
219	0x3d200f6b	0.039077204
220	0xbe2bd960	-0.1678214
221	0xbf02fac7	-0.51163906
222	0xbd8f5149	-0.06997926
223	0x3da43b81	0.08019162
224	0xbe5f4716	-0.21804461
225	0xbe6d0927	-0.23148023
226	0x3d978735	0.073988356
227	0xbf18843d	-0.5957678
228	0x3e0e20dc	0.13879722
229	0x3d2ff446	0.042957567
230	0x3c902888	0.017597452
231	0x3ea6011f	0.3242273
232	0x3ec50b00	0.38484955
233	0x3e86a860	0.26300335
234	0xbdfac0d3	-0.122438096
235	0xbe941e32	-0.28929287
236	0xbdffeb56	-0.12496059
237	0x3dfe5f37	0.124205045
238	0x3e5ce044	0.21569926
239	0x3ea4c19b	0.3217896
240	0x3e367ec2	0.17821792
241	0x3e8431df	0.258193
242	0xbefd5e5b	-0.4948605
243	0xbdcb6e93	-0.099332
244	0x3e6566f1	0.2240255
245	0x3ce83a7a	0.028348196
246	0x3ee636fb	0.44963822
247	0xbe0451dc	-0.12921852
248	0x3d87adc3	0.06624939
249	0xbe9cc026	-0.30615348
250	0xbd8b1c66	-0.06792526
251	0x3e134e4c	0.14385337
252	0xbe594ae4	-0.21219975
253	0x3dfbfb95	0.12303845
254	0xbec4b9e7	-0.38423082
255	0xbdb1fbbf	-0.08690595

pretraining_head.3.bias f4 [16]
0	0x3e6e1b6b	0.23252647
1	0x3e35b453	0.1774457
2	0x3eabcb1b	0.33553395
3	0x3d14fb91	0.036372725
4	0x3e969b48	0.29415345
5	0xbe19cada	-0.15018788
6	0x3ec71526	0.38883322
7	0xbe802212	-0.25025994
8	0xbd80be51	-0.062863
9	0x3cc03508	0.023462787
10	0xbe7266fd	-0.236721
11	0xbe04772e	-0.12936088
12	0x3daa20b2	0.083070174
13	0x3e74d4f7	0.23909365
14	0xbdcf1bd6	-0.10112731
15	0x3e62a361	0.22132637
