trained_models/breast_cancer_orc_corr.pt (torch, 11859 bytes, 12 tensors)

encoder.0.weight f4 [16, 30]
0	0xbd4102e9	-0.047121916
1	0x3e14e2cf	0.14539646
2	0x3d8475fd	0.06467817
3	0xbcc7f78a	-0.024410028
4	0x3e26ef77	0.16302286
5	0x3e29dcc5	0.16588123
6	0x3eb86781	0.36016467
7	0x3ed9a506	0.42508715
8	0xbe05a5a2	-0.13051465
9	0xbe161890	-0.14657807
10	0x3eb92a98	0.3616531
11	0x3d02acb6	0.03190299
12	0x3eb70f15	0.35753694
13	0x3f11a7fd	0.56896955
14	0x3e024068	0.12719882
15	0xbdb9f061	-0.09079052
16	0xbc45db40	-0.012076199
17	0xbda84056	-0.08215396
18	0xbf355af6	-0.7084192
19	0xbd2504b5	-0.040287692
20	0x3eef1439	0.46695116
21	0x3e830aa6	0.25594062
22	0x3f11b995	0.569238
23	0x3eb3cf5e	0.35119146
24	0x3eb11669	0.3458741
25	0x3e39f5e5	0.18160208
26	0x3e356fec	0.17718476
27	0x3d8547ae	0.065078124
28	0x3da48c4d	0.08034573
29	0x3edc01b5	0.42970052
30	0x3e426809	0.18984999
31	0x3c980cc0	0.018560767
32	0x3e409d3f	0.18809985
33	0x3e000f5a	0.12505856
34	0x3e182f94	0.148619
35	0x3ed80510	0.42191362
36	0x3ec965a2	0.39335352
37	0x3df73fba	0.12072702
38	0x3d03e0fb	0.03219698
39	0x3e8b8fd3	0.27258167
40	0xbe5de1c3	-0.21668153
41	0x3cca0dd9	0.024664806
42	0xbe7f7512	-0.24947003
43	0xbe60568d	-0.21908017
44	0x3dc6e459	0.097115226
45	0x3e906117	0.28199074
46	0x3e643ef7	0.22289644
47	0x3d096371	0.0335421
48	0x3e6a26f9	0.2286643
49	0x3e4da48e	0.20082304
50	0x3e96aea8	0.29430127
51	0x3dc1d36a	0.09464152
52	0x3ec4cf89	0.38439587
53	0x3f114380	0.5674362
54	0x3e928da2	0.28623682
55	0x3e2c5a2b	0.16831271
56	0x3d64d7e5	0.055869956
57	0x3f1b98a3	0.6077978
58	0x3e201cb4	0.1563595
59	0x3e5889b7	0.21146284
60	0xbe523291	-0.20527102
61	0xbe8da984	-0.27668393
62	0xbd8e1698	-0.06937903
63	0x3e514c9e	0.20439383
64	0x3c7dd469	0.015492537
65	0xbe9d854f	-0.3076577
66	0xbe3418a6	-0.17587528
67	0xbdd9b7bd	-0.106307484
68	0xbc1db2c1	-0.009625138
69	0xbd9a66b7	-0.075391226
70	0x3d33ad69	0.04386655
71	0xbd3695e0	-0.044576526
72	0xbe6936c6	-0.227748
73	0x3d25b0d2	0.040451832
74	0xbe442b66	-0.1915718
75	0xbee893c8	-0.45425248
76	0xbef21818	-0.47284007
77	0xbe701b8b	-0.23448007
78	0xbdac1b9c	-0.084037036
79	0xbf0bdb4a	-0.54631484
80	0xbd4f1b03	-0.05056287
81	0xbe2f241d	-0.1710362
82	0xbd617119	-0.0550395
83	0x3e03aba2	0.12858441
84	0x3ea95fb4	0.33080828
85	0xbe928f94	-0.28625166
86	0xbe997257	-0.29970047
87	0xbde95f11	-0.113950856
88	0x3ecbb5e0	0.39787197
89	0x3eae1473	0.33999977
90	0xbd92ac6c	-0.07161793
91	0xbe449719	-0.19198264
92	0xbd301708	-0.042990714
93	0xbe5fd4e1	-0.2185855
94	0x3d6c3d92	0.057675906
95	0x3cc60e4f	0.024176745
96	0x3df37688	0.118878424
97	0xbdf562e5	-0.11981753
98	0x3d925921	0.07145906
99	0x3ea8531b	0.32875904
100	0xbe79948d	-0.24373074
101	0xbe9e0150	-0.30860376
102	0xbf01712e	-0.50563323
103	0xbe780d39	-0.24223794
104	0xbd2c5d1c	-0.042080984
105	0x3d47bfa9	0.048766766
106	0xbe0edec0	-0.1395216
107	0xbe25f2ab	-0.16205852
108	0xbeadbc03	-0.33932504
109	0x3c9e9696	0.019358914
110	0x3d0fe3ee	0.03512948
111	0xbcdc9ed4	-0.026931204
112	0x3c9c11a5	0.019051382
113	0x3da1371e	0.07871841
114	0xbe43537d	-0.19074817
115	0x3d978689	0.073987074
116	0xbe05b8fe	-0.1305885
117	0x3d982903	0.07429697
118	0xbc6c526c	-0.014423948
119	0xbeafee41	-0.3436146
120	0xbe8eada1	-0.27866843
121	0x3e77231b	0.24134485
122	0xbe92cb42	-0.28670698
123	0xbf1c23ee	-0.60992324
124	0xbe001c45	-0.12510784
125	0xbc934a3e	-0.017979737
126	0x3c7dbc06	0.015486723
127	0xbe967028	-0.29382443
128	0x3c72848f	0.014802112
129	0x3edd280d	0.4319462
130	0x3caeecf8	0.02135323
131	0xbdbdb80a	-0.09263618
132	0x3d7a18ee	0.06105893
133	0xbe5e86b7	-0.21731077
134	0x3e6c495b	0.23074858
135	0x3e0f7d9d	0.14012761
136	0x3d1119a3	0.03542484
137	0x3e0f0fa2	0.13970807
138	0x3e824bb0	0.2544837
139	0x3e54afaf	0.20770143
140	0xbf1d9999	-0.61562496
141	0xbe0cceb4	-0.13750726
142	0xbe6f0484	-0.23341566
143	0xbed48dec	-0.41514528
144	0x3e0fe229	0.14051117
145	0x3cd83ba7	0.026395632
146	0x3ec1ef39	0.37877825
147	0xbecd218c	-0.40064657
148	0xbe5116d4	-0.20418864
149	0x3d81e8d9	0.0634324
150	0x3d460143	0.048341047
151	0x3d4df446	0.050281785
152	0xbe5ddf1a	-0.21667138
153	0xbd22db59	-0.039759967
154	0x3e6a25aa	0.2286593
155	0x3d80e7bd	0.062942006
156	0xbdd15dbd	-0.10222957
157	0x3e3d9987	0.18515597
158	0x3db6375f	0.0889728
159	0x3e607b3a	0.21922007
160	0xbe51898c	-0.20462626
161	0x3ceb0094	0.0286868
162	0x3dab969d	0.083783366
163	0x3e1f8dfb	0.15581505
164	0x3ccbe2ec	0.024888478
165	0xbe37fd22	-0.17967656
166	0xbe329790	-0.17440629
167	0x3d31042f	0.04321688
168	0x3cda0fc9	0.026618855
169	0xbe2a7e85	-0.16649826
170	0x3e253a20	0.16135454
171	0x3dc2a544	0.09504178
172	0xbe7b1df2	-0.24523142
173	0xbe0e3c78	-0.13890254
174	0x3e8ff39b	0.28115544
175	0x3e01d0eb	0.12677352
176	0xbd969617	-0.07352846
177	0x3ee374cb	0.44425043
178	0xbe9ee5d6	-0.31034726
179	0x3f0ff8db	0.562391
180	0x3ddd50af	0.10806405
181	0xbedfc2f5	-0.43703428
182	0x3c40017e	0.011719106
183	0xbdb9eac1	-0.09077979
184	0x3ea9f62c	0.33195627
185	0x3d88e4e3	0.06684282
186	0x3eec94f1	0.46207383
187	0xbda23713	-0.07920661
188	0xbd0b3412	-0.033985205
189	0xbcd8d053	-0.026466524
190	0x3df17c1a	0.117912486
191	0xbe86ade8	-0.26304555
192	0xbd8a3869	-0.06749041
193	0xbe8f6058	-0.28003192
194	0x3e8ca9ca	0.2747329
195	0x3c3623e6	0.011116957
196	0x3e938de2	0.28819185
197	0xbd436161	-0.04770029
198	0xbe2d14e4	-0.169025
199	0xbdb8f274	-0.09030619
200	0xbe80d9bb	-0.25166115
201	0xbf114bc3	-0.5675623
202	0xbe3737ec	-0.17892426
203	0xbe0df37f	-0.13862418
204	0x3de74d92	0.11294092
205	0x3e34fbcb	0.17674176
206	0xbe51e2e0	-0.20496702
207	0xbe80e4e5	-0.25174633
208	0xbd65208b	-0.05593924
209	0x3e26faa9	0.16306557
210	0x3d732a86	0.059366725
211	0xbd8ebcce	-0.069696054
212	0xbc98d699	-0.018657016
213	0xbe0bdec5	-0.13659199
214	0xbb24f69a	-0.00251714
215	0xbe822f96	-0.2542693
216	0xbefb0e1a	-0.49034196
217	0xbebb2cd6	-0.36557645
218	0xbd56bca4	-0.052425995
219	0xbdf62010	-0.12017834
220	0xbbd85cc5	-0.006602856
221	0xbdaa4824	-0.08314541
222	0xbdf3f03a	-0.11911054
223	0xbc3297ae	-0.010900421
224	0x3d4fc48c	0.05072455
225	0xbe38f574	-0.18062383
226	0xbe646a84	-0.22306257
227	0xbe314c2f	-0.17314218
228	0x3dd04cc3	0.10170891
229	0xbe408b4e	-0.1880314
230	0xbe0c4cbb	-0.13701145
231	0xbe5c567f	-0.2151737
232	0xbdcb4c07	-0.099266104
233	0xbe636870	-0.22207808
234	0xbe4f64cf	-0.20253299
235	0xbe432595	-0.19057305
236	0xbe0b1c2d	-0.13584967
237	0xbe75cf56	-0.24004874
238	0xbe9daaca	-0.30794364
239	0xbed3feb4	-0.4140526
240	0xbe70a4ce	-0.23500368
241	0xbc32e129	-0.01091794
242	0xbe1d92e5	-0.15388067
243	0xbdb7c313	-0.08972754
244	0xbe085229	-0.13312592
245	0x3dd4243a	0.10358472
246	0xbd200378	-0.039065808
247	0x3ea17fc0	0.31542778
248	0xbdffe587	-0.12494951
249	0x3dd7c5c1	0.105357654
250	0x3efcc7ba	0.4937113
251	0xbde54dd2	-0.11196484
252	0x3ec72a91	0.38899663
253	0x3e94f5d0	0.2909379
254	0x3e8b6bbc	0.27230632
255	0x3e8e64bb	0.27811226

encoder.0.bias f4 [16]
0	0x3d706d7d	0.058698166
1	0xbd34785f	-0.044060107
2	0xbd93de57	-0.07220142
3	0x3e588d58	0.21147668
4	0x3d856c39	0.065147825
5	0xbe13caa1	-0.14432766
6	0x3e4035a5	0.18770464
7	0xbbf4a71d	-0.0074662105
8	0xbd813832	-0.063095465
9	0x3e87a28b	0.26491198
10	0x3ec67bf1	0.38766435
11	0x3c693330	0.014233395
12	0xbc612fe5	-0.013744329
13	0x3e44ebef	0.19230627
14	0x3db8e830	0.09028661
15	0x3d69df9a	0.05709801

encoder.3.weight f4 [16, 16]
0	0xbea9804e	-0.331057
1	0xbe2877c1	-0.16451932
2	0xbe71d26b	-0.23615424
3	0xbdd9447d	-0.10608766
4	0x3e82bac3	0.25533113
5	0x3eac3194	0.33631575
6	0x3d6b54e9	0.057454024
7	0x3d04917d	0.03236531
8	0xbeb92f10	-0.36168718
9	0x3e973418	0.29531932
10	0x3eb6b781	0.35686877
11	0x3ecbd483	0.3981057
12	0xbe1d11fb	-0.1533889
13	0xbef9c598	-0.48783565
14	0x3e3d8132	0.18506315
15	0xbea6b464	-0.32559502
16	0xbdc81765	-0.09770087
17	0x3ebae44e	0.36502308
18	0x3eb7f751	0.35930875
19	0x3e65e62a	0.22451082
20	0x3daec842	0.0853429
21	0x3deb0546	0.11475615
22	0xbe57cf17	-0.21075092
23	0xbec371f2	-0.3817287
24	0x3e3fa057	0.18713509
25	0x3ef878d3	0.48529682
26	0xbcf8f688	-0.030390993
27	0x3ead9824	0.33905137
28	0xbe567324	-0.2094236
29	0xbdeec870	-0.11659324
30	0x3ed59540	0.4171543
31	0x3c5c28bb	0.013437445
32	0xbef867f9	-0.48516825
33	0x3e81e393	0.25368938
34	0xbe8d2ab0	-0.2757163
35	0x3e835e83	0.25658044
36	0xbee2cc2c	-0.44296396
37	0xbebb4307	-0.36574575
38	0x3d8c192a	0.06840737
39	0xbf0431eb	-0.5163867
40	0x3e922662	0.2854491
41	0xbe939b1d	-0.2882928
42	0xbd53c7e3	-0.0517043
43	0xbee1b1e3	-0.4408103
44	0xbf122095	-0.57080966
45	0x3e94433f	0.28957555
46	0xbdd20920	-0.10255647
47	0xbe69f356	-0.22846732
48	0x3ddb8417	0.107185535
49	0x3e05796d	0.13034602
50	0x3e4ae700	0.19814682
51	0x3e37e580	0.17958641
52	0x3e2c884e	0.16848871
53	0x3f1171ee	0.5681447
54	0x3ebe3aa7	0.37154123
55	0xbe8ec855	-0.27887216
56	0x3e7d4589	0.24733557
57	0xbd2a7a64	-0.041620627
58	0xbe62ef1c	-0.22161525
59	0xbe2b8bb6	-0.16752514
60	0x3d86ad07	0.06575971
61	0x3df9392c	0.12169108
62	0xbe5606f7	-0.20901094
63	0x3ef6d58c	0.48209798
64	0xbb5f7e3b	-0.0034102339
65	0xbeae2458	-0.34012103
66	0xbd9440f5	-0.07238952
67	0xbdb268ae	-0.08711372
68	0xbe8558cc	-0.2604431
69	0x3e1a74a8	0.15083563
70	0xbebe0cf0	-0.37119246
71	0x3e930fbd	0.28722945
72	0x3e6f4af2	0.23368433
73	0x3df9b77b	0.12193199
74	0xbf412473	-0.7544624
75	0x3ee8076f	0.4531817
76	0xbed4e227	-0.4157879
77	0xbf11e9d7	-0.56997436
78	0x3e8185be	0.2529735
79	0x3de10433	0.10987129
80	0x3e97e5b8	0.2966745
81	0x3dc984f4	0.09839812
82	0x3a4830a4	0.00076366425
83	0x3e6e46a2	0.23269132
84	0xbeb1fef3	-0.34764823
85	0x3ea4dae1	0.3219824
86	0xbea664a6	-0.32498664
87	0x3d2f043d	0.04272865
88	0x3e915019	0.28381422
89	0x3ef570b7	0.47937557
90	0xbec4c34a	-0.38430244
91	0x3e167a1a	0.14695016
92	0xbeb32d6b	-0.3499559
93	0x3ec1842b	0.3779615
94	0x3eeb52ad	0.45961514
95	0xbdf341ba	-0.11877771
96	0xbef6252a	-0.4807523
97	0xbec4ab1b	-0.38411793
98	0x3c4ee149	0.012626954
99	0x3eadc5ef	0.33940074
100	0x3d433056	0.04765352
101	0xbd917939	-0.071031995
102	0x3e8dd8b3	0.2770439
103	0x3e61ab23	0.2203794
104	0x3e00ab81	0.12565424
105	0x3d6c5abd	0.057703722
106	0x3f017c5c	0.5058038
107	0xbcf6ca6b	-0.030125817
108	0x3e9c3d50	0.30515528
109	0x3edac040	0.427248
110	0xbe9da333	-0.30788574
111	0xbe3137e7	-0.17306481
112	0xbe316760	-0.1732459
113	0x3e8fbf61	0.28075698
114	0xbe8dded8	-0.2770908
115	0xbebdbb96	-0.3705718
116	0xbd60ea09	-0.054910693
117	0x3e91a64b	0.28447184
118	0xbede33a9	-0.4339879
119	0x3dfdc043	0.12390187
120	0xbe63aea9	-0.22234596
121	0x3c417433	0.011807489
122	0xbdcb3d95	-0.09923855
123	0xbe067e52	-0.13134125
124	0xbdf2189b	-0.11821099
125	0x3e3beecb	0.18352811
126	0x3e41da0a	0.18930832
127	0xbedae64c	-0.42753828
128	0xbf0bf4e4	-0.5467055
129	0xbeea6860	-0.45782757
130	0xbede9eff	-0.4348068
131	0xbe8b0eb3	-0.27159652
132	0xbd9edb50	-0.07756674
133	0x3e97b38d	0.29629174
134	0xbe04d022	-0.12970021
135	0x3d074345	0.033023138
136	0xbf0f2190	-0.5591059
137	0xbe6440e6	-0.22290382
138	0x3daa0bf2	0.0830306
139	0x3ed485de	0.41508383
140	0xbe18f60d	-0.14937611
141	0x3e5f5d5b	0.21812956
142	0x3e1ab138	0.15106666
143	0x3c33c001	0.01097107
144	0x3e1e6186	0.1546689
145	0x3ec988b9	0.39362124
146	0xbe7fb7e0	-0.24972486
147	0x3e43fb3e	0.1913881
148	0xbee08ccf	-0.43857428
149	0x3dc31f56	0.09527461
150	0x3d138dc9	0.03602389
151	0xbe20073b	-0.15627758
152	0x3e6a4261	0.22876884
153	0xbd17048a	-0.036869563
154	0x3ea0691a	0.31330186
155	0xbe99c13d	-0.30030242
156	0xbdcb3580	-0.09922314
157	0xbd332053	-0.043732
158	0x3d60ecd7	0.054913368
159	0xbebcd20f	-0.36879012
160	0xbd80f522	-0.062967554
161	0x3dd9652e	0.106150016
162	0xbed7befd	-0.421379
163	0xbd619e42	-0.055082567
164	0x3ed8ddee	0.4235682
165	0xbdc18ef5	-0.09451095
166	0x3d59185f	0.053001758
167	0xbe6a3880	-0.22873116
168	0xbdece745	-0.11567549
169	0xbe1ce347	-0.15321074
170	0x3ef22289	0.47291973
171	0xbdc66db1	-0.09688891
172	0xbe12cf1b	-0.14336817
173	0xbd05a77b	-0.032630425
174	0xbd121727	-0.03566661
175	0x3ec0edff	0.37681577
176	0xbc2d03b5	-0.010559966
177	0x3eac8eb1	0.33702615
178	0xbe25d6bc	-0.16195196
179	0x3d1f7074	0.038925603
180	0xbdb3c61f	-0.08778023
181	0x3e477743	0.19479088
182	0xbc98b593	-0.018641269
183	0xbe6ca271	-0.23108841
184	0x3e9042a1	0.28175834
185	0xbe590515	-0.21193345
186	0x3dfb7395	0.12277905
187	0x3e9308ef	0.28717753
188	0x3ea73cba	0.32663518
189	0xbf12b116	-0.5730146
190	0xbf28e71e	-0.65977657
191	0x3d92f796	0.071761295
192	0xbf4f8283	-0.8105852
193	0x3c52d296	0.01286759
194	0x3f017d07	0.505814
195	0x3e8d3063	0.2757598
196	0xbdcb0cdd	-0.09914563
197	0x3d87977a	0.06620689
198	0x3e062234	0.13098985
199	0x3e95971c	0.2921685
200	0xbe72797b	-0.23679154
201	0xbe0ba060	-0.13635397
202	0x3e651be6	0.22373924
203	0xbcafd45f	-0.021463571
204	0xbc765a40	-0.015036166
205	0xbe5d2ac4	-0.21598345
206	0x3e0d08e6	0.13772926
207	0x3dd43a8e	0.10362731
208	0xbe4393ab	-0.190993
209	0xbe9fe3f1	-0.31228593
210	0x3e1364ad	0.14393874
211	0xbea07016	-0.31335515
212	0x3ea851b3	0.32874832
213	0x3b6e96e2	0.003640585
214	0xbea154b5	-0.3150994
215	0x3edeb0fc	0.43494403
216	0xbe1484e0	-0.14503813
217	0x3e14c631	0.14528729
218	0xbdd04e30	-0.10171163
219	0x3ccc38d5	0.024929443
220	0x3eb689d0	0.35652018
221	0xbc05ad35	-0.008158972
222	0xbe38b7f0	-0.18038917
223	0x3ecae987	0.39631292
224	0xbb18fbf1	-0.0023343528
225	0x3c139d61	0.00900969
226	0x3c69b430	0.014264151
227	0xbaa34cfd	-0.0012458857
228	0xbe824a5a	-0.2544735
229	0xbd2a7462	-0.041614898
230	0xbe80f960	-0.25190258
231	0x3e8169a3	0.25275907
232	0xbe86a7d8	-0.2629993
233	0xbed1ee2e	-0.4100203
234	0xbdae5061	-0.08511425
235	0xbe550c6f	-0.20805524
236	0x3e98350e	0.29727978
237	0x3ebc5a97	0.36787865
238	0x3e9bfcc3	0.3046628
239	0xbeecc35b	-0.46242794
240	0xbee40751	-0.44536832
241	0xbe2e51d2	-0.170234
242	0xbeab5c3f	-0.33468816
243	0xbe5b87f4	-0.21438581
244	0x3db3f260	0.08786464
245	0x3dba2f22	0.09091021
246	0x3e275d47	0.16344176
247	0xbe043fa2	-0.12914899
248	0x3ec1992a	0.37812167
249	0x3e662f86	0.22479066
250	0xbd090b8f	-0.03345829
251	0x3e4d8b6c	0.20072716
252	0x3e97e3cd	0.29665986
253	0x3ea12b0f	0.31478164
254	0xbe93154f	-0.28727195
255	0x3efcdea6	0.49388617

encoder.3.bias f4 [16]
0	0x3df5ec3d	0.120079495
1	0xbe1369ea	-0.14395872
2	0xbd298829	-0.041389618
3	0xbda21a91	-0.079152234
4	0x3dbbe482	0.09174444
5	0xbd849299	-0.06473274
6	0xbd209077	-0.039200272
7	0x3b03cbf8	0.0020110589
8	0x3e10aef7	0.14129244
9	0xbdab23c0	-0.08356428
10	0x3d85fc06	0.0654221
11	0x3e3094f0	0.17244315
12	0x3c55fe46	0.013061112
13	0xbe36f7c4	-0.17867953
14	0x3d95507f	0.07290744
15	0x3db2ecd8	0.087365806

encoder.6.weight f4 [16, 16]
0	0x3de8832f	0.11353146
1	0x3e18e418	0.14930761
2	0x3d835c41	0.064140804
3	0x3dfb77f7	0.12278741
4	0x3e5e6584	0.21718413
5	0x3e6012be	0.2188215
6	0x3e9e62dd	0.30934802
7	0x3f114269	0.5674196
8	0xbe9bcbbd	-0.30428877
9	0x3ecc3c1c	0.3988961
10	0x3eb1ba7c	0.3471259
11	0xba769834	-0.00094068353
12	0xbde437ee	-0.1114348
13	0xbe1bd6fb	-0.15218727
14	0x3d89006c	0.066895336
15	0xbd4eac92	-0.050457545
16	0x3e8a3be5	0.2699882
17	0xbe7f7455	-0.24946721
18	0xbd13ebbd	-0.03611349
19	0x3d3b0c5f	0.045666095
20	0xbc9666e2	-0.018359605
21	0xbe1646af	-0.14675401
22	0x3e20aac4	0.15690142
23	0xbe67d665	-0.22640379
24	0xbdaef1d4	-0.08542219
25	0xbd02956f	-0.031880792
26	0x3e9ad121	0.30237678
27	0x3b6f0fbb	0.0036477882
28	0xbd987b32	-0.07445373
29	0x3eb9920f	0.36244246
30	0x3e1fb6cf	0.1559708
31	0x3ed35c7d	0.412815
32	0xbea509b4	-0.32233965
33	0xbe2feb17	-0.17179523
34	0xbd14936e	-0.036273412
35	0x3e831446	0.25601405
36	0xbd3ecf61	-0.04658449
37	0xbe734a77	-0.23758875
38	0x3e9d45a7	0.30717203
39	0x3dd8f905	0.10594372
40	0x3ecdfaf2	0.4023052
41	0xbca68ec0	-0.02033174
42	0xbe3405c7	-0.17580329
43	0x3a6097a0	0.0008567516
44	0x3e84618d	0.25855675
45	0x3e8a4414	0.27005064
46	0x3de412c3	0.11136391
47	0xbe2bf89c	-0.16794056
48	0x3e738b07	0.23783503
49	0xbc87643a	-0.016527284
50	0xbebd75c3	-0.37003908
51	0xbe306fa1	-0.17230083
52	0x3ea53517	0.32267067
53	0x3d8f185a	0.069870666
54	0x3e1ae913	0.15127973
55	0x3f088d74	0.5334084
56	0xbf3f28b1	-0.74671465
57	0xbea51894	-0.32245314
58	0xbee285f6	-0.4424283
59	0xbe892172	-0.2678333
60	0xbf09320b	-0.53591985
61	0xbebddb88	-0.37081552
62	0xbe2906d2	-0.16506508
63	0x3e2e3e2d	0.17015906
64	0x3aea921f	0.0017896331
65	0xbdff4b1d	-0.124654986
66	0xbce5aac3	-0.028035527
67	0xbe91cc1f	-0.28476045
68	0x3d5ad4bf	0.053425547
69	0x3e257085	0.16156204
70	0xbe3a7592	-0.18208912
71	0xbe5cd326	-0.21564922
72	0xbddc48ab	-0.10756048
73	0x3dac1dbb	0.08404108
74	0xbdbf1447	-0.093300395
75	0xbdfbe93e	-0.12300347
76	0x3e6c651e	0.23085448
77	0xbe0ef105	-0.13959129
78	0x3eb4fe0b	0.3535007
79	0xbe277d22	-0.16356328
80	0x3e6acb6c	0.22929162
81	0xbe842cd2	-0.25815445
82	0x3eece769	0.46270302
83	0xbdf591d3	-0.119907044
84	0xbe206553	-0.15663652
85	0xbea98394	-0.331082
86	0x3ea830c8	0.32849717
87	0xbf0e28da	-0.55531085
88	0x3e888648	0.26664948
89	0x3cad2db2	0.021139953
90	0x3e07b2b3	0.13251762
91	0x3ea03f17	0.31298134
92	0x3e9fbd7b	0.3119925
93	0xbea31d90	-0.31858492
94	0x3e8d13c9	0.27554157
95	0x3e9c29d5	0.30500665
96	0x3ea28788	0.31744027
97	0xbe88677b	-0.2664145
98	0xbe7a82f1	-0.24464013
99	0x3dbad956	0.09123485
100	0xbe9c1fd6	-0.3049304
101	0x3e3529f0	0.17691779
102	0x3e07ebe1	0.13273574
103	0x3ecf2ad8	0.40462375
104	0x3ed260d1	0.4108949
105	0x3e49f715	0.1972316
106	0x3e0a5e72	0.1351259
107	0xbdeda645	-0.11603979
108	0xbe3c56ec	-0.18392533
109	0xbebe195e	-0.3712873
110	0x3ea8cdfa	0.32969648
111	0xbe4070cf	-0.18793033
112	0x3f18a30b	0.59623784
113	0xbe6bb3cc	-0.23017806
114	0xbe3eb2ee	-0.18622944
115	0xbe965cb2	-0.29367596
116	0x3cb4a481	0.022051098
117	0x3d57be6c	0.052671835
118	0xbe3a3586	-0.1818448
119	0x3e83bf4e	0.2573189
120	0xbde6fbba	-0.11278482
121	0x3e411957	0.18857323
122	0xbe333c5a	-0.17503491
123	0x3e168c7f	0.14702033
124	0xbe532b57	-0.20622002
125	0xbedf805d	-0.4365262
126	0x3e6b52da	0.22980824
127	0xbd792292	-0.060823984
128	0xbe90880f	-0.28228804
129	0xbe877ae3	-0.26460943
130	0xbd6224ec	-0.055210993
131	0xbf06e922	-0.5269948
132	0x3e832e88	0.25621438
133	0x3e0e5df1	0.13903023
134	0xbdae94fe	-0.08524512
135	0x3d4deb01	0.050272945
136	0x3e8753fd	0.26431265
137	0xbe1f1afd	-0.15537639
138	0x3e2ee825	0.17080744
139	0x3defc0ca	0.117066935
140	0x3e39939d	0.18122716
141	0xbe0578a4	-0.13034302
142	0x3edc84ed	0.43070164
143	0xbe9509ed	-0.29109135
144	0x3da73ed1	0.08166278
145	0x3c3762ad	0.01119296
146	0x3e8bda81	0.27315143
147	0x3ec74453	0.38919315
148	0x3d842809	0.064529486
149	0xbe17a9ec	-0.14810914
150	0x3dd73d26	0.1050971
151	0x3d9c834c	0.076422304
152	0xbf0a1ae6	-0.53947294
153	0x3e1797d7	0.14804016
154	0xbd7a62d5	-0.06112941
155	0xbd625075	-0.05525251
156	0xbeba6c17	-0.3641059
157	0xbd896780	-0.06709194
158	0x3e1decce	0.15422365
159	0x3d448f7f	0.04798841
160	0xbd231e91	-0.039824072
161	0x3eaa507f	0.3326454
162	0x3e9cbce4	0.30612862
163	0x3e64e6cf	0.22353671
164	0x3eb3ced2	0.3511873
165	0x3ea4bab3	0.3217369
166	0xbd978c98	-0.07399863
167	0x3e206170	0.1566217
168	0xbf0e568d	-0.55600816
169	0x3ddec62a	0.108776405
170	0xbed837ae	-0.4222998
171	0x3d49ddff	0.049283978
172	0x3d80effe	0.06295775
173	0xbdf25c96	-0.118340656
174	0xbead140d	-0.3380436
175	0xbe605dab	-0.21910731
176	0x3eb87e5c	0.36033905
177	0xbda2f9b9	-0.07957787
178	0xbe836e6e	-0.2567019
179	0x3eb1b54d	0.34708634
180	0x3df6daf7	0.12053483
181	0xbe97b536	-0.2963044
182	0x3e0c6ea2	0.13714078
183	0xbe2eb739	-0.17062081
184	0x3d397f7c	0.045287594
185	0x3e39e53e	0.18153855
186	0xbec192d1	-0.37807325
187	0xbf12c614	-0.57333493
188	0xbdbaae7a	-0.0911531
189	0xbf171de3	-0.5902998
190	0xbee145a9	-0.4399846
191	0xbf120698	-0.5704131
192	0x3dc11fbe	0.094298825
193	0x3e944bfc	0.2896422
194	0x3e0df667	0.13863526
195	0xbde0a977	-0.10969823
196	0x3e0814f4	0.13289243
197	0x3e76fd5f	0.24120091
198	0xbea2f8c3	-0.31830415
199	0x3e19a522	0.150044
200	0x3e5d4628	0.21608794
201	0xbec067a7	-0.3757908
202	0x3e6062e0	0.21912718
203	0x3ea8b02c	0.32946908
204	0x3de14930	0.110002875
205	0x3de50a27	0.11183577
206	0x3e04d143	0.12970452
207	0x3e830d8c	0.25596273
208	0xbc246cca	-0.010035703
209	0x3d7de034	0.061981395
210	0x3e19c19a	0.1501526
211	0xbd1b4bbd	-0.037914027
212	0xbdb879c6	-0.090076014
213	0x3d9d4232	0.076786414
214	0xbebc7911	-0.36811116
215	0x3ec313bc	0.38100994
216	0x3d67690c	0.056496665
217	0x3e1e0847	0.15432845
218	0xbe666d10	-0.22502542
219	0xbe8f0211	-0.27931264
220	0x3d599a26	0.053125523
221	0xbd1ffc55	-0.039059002
222	0xbe7f7688	-0.2494756
223	0x3eb4b1ae	0.3529181
224	0xbe1a0aac	-0.15043133
225	0x3e004311	0.12525584
226	0xbe7565ff	-0.2396469
227	0xbea29cdc	-0.317603
228	0xbeab7fac	-0.33495843
229	0x3e6d05e9	0.23146786
230	0xbb8ab2ec	-0.004232755
231	0xbc5e12d6	-0.0135542955
232	0x3e8a5d46	0.27024287
233	0x3ea19793	0.31560954
234	0xbdcbb776	-0.09947102
235	0x3ea17575	0.31534925
236	0xbec92bb8	-0.39291167
237	0x3e7aeb28	0.24503767
238	0xbe19b8a0	-0.15011835
239	0xbcfd063c	-0.030886762
240	0x3d392c21	0.0452081
241	0x3e6af361	0.22944404
242	0x3e74704a	0.2387096
243	0x3e9e8287	0.3095896
244	0xbf0213ff	-0.5081176
245	0xbf2f10c5	-0.68384963
246	0x3ea21d4e	0.31662983
247	0xbef5acdc	-0.47983444
248	0x3eae25f1	0.34013322
249	0xbe33ce4e	-0.17559168
250	0x3e85a30f	0.26100966
251	0x3e994dc4	0.29942143
252	0xbe979b68	-0.29610753
253	0xbd9523e2	-0.07282235
254	0x3d4ed382	0.05049468
255	0x3ea6bfe9	0.3256829

encoder.6.bias f4 [16]
0	0xbd326d5d	-0.04356133
1	0xbc43c334	-0.0119483955
2	0xbebd99e7	-0.3703148
3	0x3e497bd5	0.19676144
4	0xbd9b3c53	-0.07579865
5	0x3e413f2e	0.18871757
6	0xbcea5948	-0.028607026
7	0x3e5c49cb	0.21512525
8	0x3df52342	0.119696155
9	0x3dccbbf4	0.09996787
10	0x3d8b45ab	0.068003975
11	0x3c355c03	0.011069301
12	0x3e348ac6	0.17631063
13	0xbf0f681a	-0.5601822
14	0xbe346342	-0.17615989
15	0x3e2b1f0b	0.1671106

encoder.9.weight f4 [16, 16]
0	0xbc9a7f23	-0.018859452
1	0xbeabef70	-0.33581114
2	0xbea44bfb	-0.32089218
3	0x3e946c1f	0.2898874
4	0x3e877411	0.2645574
5	0x3e3f43da	0.18678227
6	0x3ea20e56	0.31651562
7	0x3f01b2ea	0.50663626
8	0xbf021db7	-0.5082659
9	0x3ba7ac39	0.005116966
10	0xbe311794	-0.1729415
11	0xbda5bd37	-0.080927305
12	0xbe1f192b	-0.15536945
13	0x3dcfc7d7	0.10145538
14	0xbeba4caa	-0.36386615
15	0x3e73abf0	0.23796058
16	0xbd62dbdb	-0.05538545
17	0xbe896068	-0.26831365
18	0xbefda28a	-0.4953807
19	0x3f113238	0.5671725
20	0x3d56e4ce	0.0524643
21	0x3eb7c952	0.35895783
22	0xbdafb9cc	-0.0858036
23	0x3f02532c	0.5090816
24	0x3e745e3e	0.23864076
25	0xbde0a90d	-0.10969744
26	0x3e3ce444	0.18446451
27	0xbe9f1f04	-0.3107835
28	0xbbf10ebb	-0.0073564923
29	0xbe1a85e5	-0.15090139
30	0x3e8cdfe7	0.27514574
31	0x3ee979af	0.4560065
32	0xbedb7a7d	-0.4286689
33	0x3e9c9e56	0.3058955
34	0x3d42b771	0.047538225
35	0x3e63492b	0.2219588
36	0x3ec67d49	0.3876746
37	0x3eaaf4b6	0.33389825
38	0xbebf4d2c	-0.37363565
39	0xbeb2f436	-0.34951943
40	0x3e8c4b30	0.27401114
41	0xbea330d5	-0.31873193
42	0xbd964662	-0.07337643
43	0xbf1434b1	-0.578929
44	0xbebb6bc9	-0.3660567
45	0x3eae22f4	0.34011042
46	0x3d817b55	0.06322352
47	0xbd87c779	-0.06629843
48	0xbedf0bab	-0.4356359
49	0x3ea1884f	0.31549308
50	0xbd33c0dc	-0.043885097
51	0xbc1625e3	-0.009164306
52	0xbe325a95	-0.17417367
53	0x3ea361ce	0.31910557
54	0x3e044383	0.12916379
55	0xbe1c3d86	-0.15257844
56	0x3ed16887	0.4090006
57	0x3f0247cd	0.5089081
58	0xbe60afde	-0.21942088
59	0xbe1e6623	-0.1546865
60	0x3ee9ac86	0.45639437
61	0xbf0e5b7a	-0.5560833
62	0x3d645e8b	0.055754226
63	0xbdbe7a52	-0.093006745
64	0xbe6149c8	-0.22000802
65	0xbec6e227	-0.38844416
66	0x3ec7d839	0.39032152
67	0x3d99aff1	0.07504261
68	0x3ec6eab4	0.3885094
69	0x3e905319	0.28188398
70	0x3d590fdd	0.052993644
71	0x3eb71b8a	0.35763198
72	0x3ec4196f	0.38300654
73	0xbc8e4b9f	-0.017370043
74	0x3e1d7c70	0.153795
75	0x3e5b8b3a	0.2143983
76	0xbe66b6fa	-0.22530738
77	0xbd9ba76f	-0.07600295
78	0x3e2fc93d	0.1716661
79	0xbeb4ca03	-0.35310373
80	0x3e1fc135	0.15601046
81	0xbe364858	-0.17801034
82	0x3e125a39	0.1429223
83	0xbd920c70	-0.071312785
84	0xbc36775a	-0.011136854
85	0xbe00c99e	-0.12576911
86	0x3ef873d6	0.48525876
87	0x3e99828c	0.29982412
88	0xbea8b9f8	-0.32954383
89	0x3e697d5f	0.22801732
90	0x3ecb72ef	0.39736125
91	0x3ebcc63d	0.36869994
92	0x3da6808d	0.08129988
93	0xbe3c0849	-0.18362536
94	0xbdeeba52	-0.116566315
95	0x3ea67fe6	0.32519454
96	0x3cdd609c	0.027023606
97	0x3e35a1d5	0.17737515
98	0xbd1e7a71	-0.038690988
99	0xbe836ea2	-0.25670344
100	0xbed2dfd5	-0.41186395
101	0xbecef409	-0.4042056
102	0xbe57b988	-0.21066868
103	0xbe9c796f	-0.30561396
104	0x3db907fa	0.090347245
105	0xbe1e16db	-0.15438406
106	0xbe89901a	-0.26867753
107	0xbe6437d3	-0.2228692
108	0xbed23ffb	-0.41064438
109	0xbe5ed316	-0.2176021
110	0xbe203f25	-0.15649088
111	0x3d263c23	0.040584695
112	0x3c80a125	0.01570184
113	0x3df5dab8	0.12004608
114	0x3f03256d	0.5122898
115	0xbe9494ac	-0.29019678
116	0x3d85eabb	0.06538912
117	0x3ef87b66	0.48531646
118	0x3d7a8ee4	0.061171427
119	0xbdca45c4	-0.09876588
120	0xbb1975e9	-0.0023416227
121	0xbe919606	-0.2843477
122	0xbdb9ac84	-0.09066108
123	0xbe8951b4	-0.26820147
124	0x3e0b7350	0.13618207
125	0x3e1a907c	0.15094179
126	0x3e42804a	0.18994251
127	0x3e82453f	0.25443456
128	0x3dc6c1f6	0.09704964
129	0x3d7c8055	0.061645824
130	0x3c82761d	0.015925461
131	0x3e8b5110	0.27210283
132	0x3e333777	0.17501627
133	0x3ed28aae	0.4112143
134	0x3e3b54a9	0.18294014
135	0x3e57d3dd	0.21076913
136	0x3e1ad4ae	0.15120193
137	0x3e9073bf	0.28213307
138	0x3e210803	0.15725712
139	0xbe573f2d	-0.21020193
140	0xbe908285	-0.28224578
141	0x3f002456	0.50055444
142	0x3f0183e3	0.5059187
143	0x3eb0f3d7	0.34561035
144	0xbc881ef1	-0.016616317
145	0xbdd07b81	-0.101798065
146	0x3eabc9ea	0.33552486
147	0x3f058a52	0.52164185
148	0x3e15a7a7	0.14614736
149	0xbf053fde	-0.5205058
150	0x3c10a3c4	0.008828107
151	0x3f1fe57e	0.6245955
152	0xbe380002	-0.17968753
153	0xbe95ae8b	-0.29234728
154	0x3e94d33b	0.29067406
155	0x3dc138b9	0.09434647
156	0xbe1e6245	-0.15467174
157	0x3c84f87d	0.01623177
158	0x3e838ee9	0.2569497
159	0xbe2ffc1f	-0.1718602
160	0x3e68b727	0.22726117
161	0xbedbf3e6	-0.42959517
162	0x3e74a4b3	0.23890953
163	0x3df81d91	0.12115014
164	0x3df698f6	0.12040894
165	0xbdf059a6	-0.11735849
166	0x3eb7839a	0.35842592
167	0x3b9d4cdf	0.0048004235
168	0xbe1a546a	-0.15071264
169	0x3daac9eb	0.08339294
170	0x3f0fd49f	0.5618381
171	0x3eaa6271	0.3327823
172	0x3db19922	0.08671786
173	0xbf19e6e7	-0.60117954
174	0xbeb26998	-0.34846187
175	0xbddfb41e	-0.109230265
176	0xbe77a05b	-0.24182265
177	0x3eaa2768	0.3323319
178	0x3e4f0795	0.20217736
179	0xbe317c94	-0.17332679
180	0xbde41231	-0.11136282
181	0x3ca1f976	0.019772273
182	0x3d8c7c8e	0.068596944
183	0xbe4f6b98	-0.20255888
184	0xbec9f1e9	-0.39442375
185	0xbe1c60df	-0.15271328
186	0xbe34e258	-0.17664468
187	0xbea5614b	-0.3230079
188	0xbe313831	-0.17306592
189	0x3f21e812	0.63244736
190	0xbc0aef6b	-0.008479933
191	0x3dc2bdaa	0.09508832
192	0x3d105044	0.035232797
193	0x3ea3a05f	0.3195829
194	0x3e067acf	0.13132785
195	0xbc7d3aff	-0.01545596
196	0x3e3c4d74	0.18388921
197	0x3e951824	0.2911998
198	0x3c5e5a28	0.0135713
199	0xbed5b600	-0.41740417
200	0xbe1b769f	-0.15181969
201	0xbea6dbb0	-0.32589483
202	0x3d51964d	0.05116873
203	0xbe10998a	-0.1412107
204	0xbec95dc8	-0.39329362
205	0x3f1e998c	0.61953044
206	0xbd0853a6	-0.0332829
207	0xbdf56eb1	-0.11984003
208	0xbec9abed	-0.3938898
209	0x3daafb6c	0.08348736
210	0xbd930680	-0.07178974
211	0x3e0d5d42	0.13805106
212	0x3e66f42f	0.22554086
213	0xbed1381c	-0.4086312
214	0xbd63639c	-0.055514917
215	0x3e8ecd70	0.2789111
216	0x3ebe5c25	0.37179676
217	0xbe342352	-0.17591599
218	0x3e13765d	0.14400621
219	0x3f3be10a	0.7339026
220	0x3e0e64d2	0.13905647
221	0xbd93ef46	-0.07223372
222	0x3dee372a	0.116316155
223	0xbc26ceef	-0.010181173
224	0x3db0ffc8	0.086425364
225	0xbe80639c	-0.25075996
226	0x3da315eb	0.07963165
227	0xbd8dceaa	-0.06924184
228	0x3de720f7	0.112855844
229	0x3eb608ff	0.35553738
230	0xbe3060c3	-0.17224412
231	0x3efaeb31	0.49007562
232	0xbdb2f454	-0.08738008
233	0xbd445279	-0.047930215
234	0xbd756419	-0.059909914
235	0xbe23a971	-0.15982606
236	0x3dbc0c46	0.091820285
237	0xbebd96e4	-0.37029183
238	0x3e2c141c	0.16804546
239	0xbde95ae1	-0.11394287
240	0x3d0ce540	0.034398317
241	0xbea8c56f	-0.3296313
242	0x3e13ecac	0.14445752
243	0x3e1d77eb	0.15377776
244	0x3dd1e089	0.10247905
245	0x3d8ec494	0.06971088
246	0x3c218a94	0.0098597
247	0x3e888827	0.26666376
248	0x3dfbfb02	0.12303735
249	0x3e1ba4da	0.15199605
250	0xbc16fec9	-0.009216019
251	0x3e081f75	0.1329325
252	0xbe4ff022	-0.20306447
253	0x3dc5d53c	0.09659812
254	0x3f113da6	0.56734693
255	0x3e76b8e1	0.24093963

encoder.9.bias f4 [16]
0	0x3ec8f221	0.3924723
1	0x3e1c3aaa	0.15256754
2	0x3dcb4d2c	0.09926829
3	0x3e741574	0.23836309
4	0x3e275dc1	0.16344358
5	0xbe7a65be	-0.24452874
6	0xbd9a28b0	-0.07527292
7	0xbe84ff4c	-0.25976026
8	0xbe93c396	-0.28860158
9	0xbe191c53	-0.14952211
10	0x3d55e756	0.052222572
11	0x3d854d68	0.06508905
12	0xbe8d092f	-0.2754607
13	0xbd50f262	-0.051012404
14	0xbd3e397a	-0.046441533
15	0xbbf370da	-0.0074292244

pretraining_head.0.weight f4 [16, 16]
0	0x3ea13ea8	0.31493115
1	0x3f1373d2	0.575986
2	0x3af7e8a5	0.0018913938
3	0x3e2ec8a2	0.17068723
4	0x3da3b00d	0.079925634
5	0xbe250cfd	-0.16118236
6	0xbdd35a43	-0.103199504
7	0x3a0050fe	0.0004894881
8	0xbdfb2181	-0.1226225
9	0xbecae49e	-0.39627546
10	0x3e4365ff	0.19081877
11	0xbc9bd919	-0.019024419
12	0x3e5b3591	0.21407153
13	0xbea2786f	-0.3173251
14	0x3e2f6fb1	0.1713245
15	0x3e1a7634	0.15084153
16	0x3dfb87ec	0.122817844
17	0xbe49bfef	-0.19702123
18	0x3d9f33be	0.07773541
19	0x3f04de74	0.51901937
20	0xbbc2eff0	-0.005949013
21	0xbe81f712	-0.25383812
22	0xbed438a1	-0.41449454
23	0x3de5857a	0.11207099
24	0xbde1986e	-0.11015402
25	0xbeb0affc	-0.34509265
26	0xbeb1daa0	-0.3473711
27	0x3eb1ce67	0.34727785
28	0xbca81aa1	-0.02052051
29	0xbe9467fe	-0.2898559
30	0xbdd06008	-0.101745665
31	0xbe8219f3	-0.25410423
32	0xbde835fe	-0.11338423
33	0xbea38b97	-0.31942436
34	0x3ea90980	0.3301506
35	0x3ed022f5	0.4065167
36	0xbde44552	-0.11146034
37	0xbd3c58bb	-0.045983057
38	0xbe3a9226	-0.18219814
39	0x3ed0ef96	0.4080779
40	0xbec6c266	-0.3882019
41	0xbe19894c	-0.14993781
42	0xbd9f9609	-0.07792289
43	0x3e1952eb	0.14973037
44	0xbdfb1893	-0.122605465
45	0x3ec24a22	0.37947184
46	0x3d48e43d	0.04904579
47	0x3e43e560	0.19130468
48	0x3e2d289a	0.1691002
49	0x3a67aa62	0.00088373397
50	0x3cb0f53c	0.021601312
51	0x3e8c4281	0.27394488
52	0xbee6af81	-0.45055774
53	0xbe23a0eb	-0.15979354
54	0x3e68e1ac	0.22742337
55	0x3e8e5e53	0.2780634
56	0x3e32c750	0.17458844
57	0xbe3a9749	-0.18221773
58	0xbdf9eba0	-0.12203145
59	0x3dd9d5f6	0.10636513
60	0xbdb50207	-0.08838277
61	0x3ea43f2a	0.3207944
62	0xbe061cac	-0.13096875
63	0xbdb254a5	-0.08707551
64	0xbe8e4958	-0.27790332
65	0xbec6bcac	-0.3881582
66	0xbdad3a3e	-0.084583744
67	0x3e1f8b62	0.15580514
68	0xbe61e2ce	-0.22059175
69	0xba83199c	-0.0010002139
70	0xbdd15494	-0.1022121
71	0x3ebe3c03	0.3715516
72	0xbdb7a4d2	-0.08966984
73	0x3e829488	0.25503945
74	0xbe314023	-0.17309622
75	0x3e2a86a4	0.16652924
76	0x3ef492cc	0.47768247
77	0xbd92d8b6	-0.071702406
78	0x3c3e9a80	0.011633515
79	0x3d2ffd61	0.04296625
80	0x3df2c5d8	0.11854142
81	0xbe02555e	-0.12727877
82	0x3e93e466	0.28885192
83	0x3e1f0a60	0.15531301
84	0xbe3303c4	-0.17481905
85	0x3ecea898	0.40363002
86	0x3e8017e3	0.25018224
87	0x3e714d64	0.23564678
88	0x3e8ad40d	0.27114907
89	0x3d4fbeee	0.050719194
90	0xbedf1132	-0.43567806
91	0xbe9da232	-0.30787808
92	0xbdc8ac73	-0.09798517
93	0xbdf765d0	-0.12079966
94	0xbdf46e5b	-0.11935111
95	0xbd3905c7	-0.045171525
96	0xbe1fb880	-0.15597725
97	0x3e3f608c	0.18689173
98	0xbe71dfc8	-0.23620522
99	0x3ed32959	0.41242483
100	0x3ec24ca9	0.37949112
101	0xbea8c9f4	-0.32966578
102	0xbe8ab66c	-0.27092302
103	0x3e8ec42c	0.27884042
104	0x3ec74193	0.38917217
105	0x3e45e6e6	0.19326362
106	0xbc387415	-0.011258145
107	0x3db7f9a2	0.089831606
108	0x3eae22c2	0.34010893
109	0x3e1243ce	0.14283678
110	0x3ec59657	0.38591263
111	0xbece3920	-0.40277958
112	0x3eda4a8c	0.42635
113	0x3c35bded	0.011092645
114	0x3ec37d01	0.38181308
115	0xbe2ef3e1	-0.1708522
116	0xbe453433	-0.19258194
117	0xbdb33480	-0.08750248
118	0x3f047fbb	0.517574
119	0xbe8196d3	-0.25310382
120	0xbdedcd62	-0.11611439
121	0xbe69471e	-0.22781035
122	0x3e648768	0.22317278
123	0xbdf006bc	-0.117200345
124	0xbecbbd2b	-0.3979276
125	0xbe58ecab	-0.21184032
126	0x3eb745f9	0.35795572
127	0x3e90ef32	0.28307492
128	0xbdc85929	-0.09782631
129	0x3e84ee9e	0.259633
130	0x3e13aa2f	0.14420389
131	0xbefaecee	-0.49008888
132	0xbd374485	-0.04474308
133	0xbec6d8ee	-0.3883738
134	0x3e107550	0.14107251
135	0x3de6ff32	0.112791434
136	0xbe9f2174	-0.3108021
137	0x3eaa7572	0.3329273
138	0xbeb131b0	-0.3460822
139	0xbe738221	-0.23780109
140	0xbe231eb6	-0.15929684
141	0xbc33015a	-0.010925615
142	0x3e6ba904	0.23013693
143	0xbe2d43db	-0.16920416
144	0x3c8814c9	0.016611474
145	0x3e4fca18	0.20291936
146	0x3e22750a	0.1586496
147	0x3e957db1	0.29197457
148	0x3ec21ab3	0.37910995
149	0xbe7585dc	-0.23976845
150	0x3e9d5cf1	0.3073497
151	0x3eb238a3	0.34808835
152	0xbdddcbae	-0.108298644
153	0xbe91f7e4	-0.28509438
154	0x3ead3144	0.3382665
155	0x3c4e3ded	0.012588006
156	0x3e61eb89	0.22062506
157	0xbec24d26	-0.37949485
158	0xbd9b2c41	-0.075768
159	0x3d8c54f2	0.068521395
160	0xbcacfbbc	-0.02111613
161	0xbd99b513	-0.0750524
162	0xbecf0d59	-0.4043987
163	0xbe9a4282	-0.30128866
164	0x3e85b1a7	0.261121
165	0x3e7d6276	0.24744591
166	0xbba436d5	-0.0050114193
167	0xbf05e541	-0.5230294
168	0xbdcc01c7	-0.099612765
169	0x3ea5ec96	0.32407063
170	0x3f0eeae3	0.5582716
171	0xbe904307	-0.28176138
172	0xbf1c0b2c	-0.60954547
173	0x3c81fe4b	0.015868327
174	0x3e33acc3	0.17546372
175	0x3da0b783	0.07847502
176	0x3c257d35	0.010100652
177	0x3e4e292d	0.20132895
178	0xbef12f84	-0.47106564
179	0x3e0cdf64	0.13757092
180	0x3c99c650	0.01877132
181	0x3ea98d74	0.33115733
182	0xbebb97a9	-0.36639145
183	0xbf17aa2d	-0.5924404
184	0xbe77b083	-0.24188428
185	0x3ef677d9	0.48138312
186	0x3e659fc9	0.22424234
187	0xbef158df	-0.47138116
188	0x3e063840	0.13107395
189	0x3e641bcc	0.22276229
190	0xbdf08dfa	-0.1174583
191	0x3d6325bc	0.05545591
192	0xbefc1839	-0.4923723
193	0x3dc08fe1	0.09402443
194	0xbe380083	-0.17968945
195	0xbdd58d28	-0.10427314
196	0xbe06695b	-0.13126127
197	0x3eacaec5	0.3372709
198	0xbe33dfc4	-0.17565829
199	0x3eba826e	0.36427635
200	0x3f0461e1	0.5171185
201	0xbe790655	-0.24318822
202	0x3cf4fe60	0.029906452
203	0x3e92d705	0.28679672
204	0x3f09aa80	0.5377579
205	0xbe239b41	-0.15977193
206	0x3cf763a0	0.030198872
207	0x3de7dc71	0.11321343
208	0x3dfac341	0.12244273
209	0xbe91a132	-0.28443295
210	0xbc0137ae	-0.00788681
211	0xbe0c6f92	-0.13714436
212	0x3e99ab03	0.30013284
213	0xbeac87d4	-0.3369738
214	0xbed972f0	-0.42470503
215	0x3e51210f	0.20422767
216	0x3e936db2	0.28794628
217	0xbeb545e7	-0.35404894
218	0x3e2054fa	0.15657416
219	0xbe89ca16	-0.26911992
220	0x3e9ca249	0.30592564
221	0xbee3cbe8	-0.44491506
222	0x3d80effc	0.062957734
223	0x3d1b7cbf	0.037960764
224	0x3e0ec17f	0.13941
225	0x3e1933e3	0.149612
226	0xbdc6f459	-0.09714574
227	0xbe7086c6	-0.23488912
228	0x3e84236b	0.25808272
229	0x3e941faf	0.28930423
230	0x3ef807e8	0.48443532
231	0x3dbd17b4	0.09233037
232	0xbec525d5	-0.38505426
233	0x3e8da961	0.27668288
234	0x3d9db61f	0.077007525
235	0x3ee06a12	0.43830925
236	0x3e462178	0.19348705
237	0x3e635630	0.22200847
238	0xbe8e6e78	-0.27818656
239	0x3e6cfac3	0.23142533
240	0x3e95e753	0.2927805
241	0x3e3ab141	0.1823168
242	0xbe973e99	-0.29539946
243	0x3dc2f8a3	0.0952008
244	0xbdba2d9c	-0.090907305
245	0x3e95da3b	0.2926806
246	0xbdb41425	-0.08792905
247	0xbc08e3ea	-0.00835512
248	0x3e9c2efe	0.30504602
249	0xbe923e9a	-0.28563386
250	0xbe3595de	-0.17732951
251	0xbc9fbc04	-0.019498833
252	0xbe6bae49	-0.23015703
253	0xbec06d8a	-0.37583572
254	0xbd87dad3	-0.06633534
255	0xbe60925e	-0.21930835

pretraining_head.0.bias f4 [16]
0	0x3e60c00d	0.21948262
1	0x3ec2bb55	0.38033548
2	0xbb22bc03	-0.0024831302
3	0x3db53101	0.088472374
4	0xbf03c6ef	-0.51475424
5	0xbe7e5c41	-0.2483988
6	0xbdc26ae0	-0.09493041
7	0x3db32556	0.08747356
8	0xbda3daac	-0.08000693
9	0x3d0e6113	0.034760546
10	0x3a4d4078	0.0007829736
11	0x3dd0d363	0.10196569
12	0xbe83408b	-0.2563518
13	0xbd33d951	-0.04390842
14	0xbdc8e0c9	-0.09808499
15	0x3ce5cc08	0.028051391

pretraining_head.3.weight f4 [16, 16]
0	0xbf0d0773	-0.5508949
1	0xbf19a063	-0.60010356
2	0x3e0d3e4d	0.13793297
3	0x3e7ec9fb	0.24881737
4	0x3ecfa802	0.40557867
5	0x3e70df82	0.23522761
6	0x3c1eab75	0.009684433
7	0xbe862cff	-0.26206204
8	0x3d88c65a	0.066784576
9	0x3e02f316	0.12788042
10	0x3ecd0f8f	0.40050933
11	0x3eba9c78	0.364475
12	0x3eb1c028	0.34716916
13	0xbe02f182	-0.1278744
14	0x3e8eb4b5	0.27872244
15	0xbc3fd011	-0.011707322
16	0xbeb45741	-0.3522282
17	0xbe56ea01	-0.20987703
18	0xbd3a513d	-0.04548763
19	0xbe0f54ba	-0.13997164
20	0x3e3b546f	0.18293928
21	0x3ea28a23	0.31746015
22	0x3d8ea14a	0.06964357
23	0x3e5b1cc5	0.21397693
24	0xbdfa6d50	-0.12227881
25	0xbe0661f9	-0.13123311
26	0x3e5a066d	0.21291514
27	0x3da59d03	0.08086588
28	0x3efdc4a6	0.49564093
29	0x3e242809	0.16030897
30	0xbead7593	-0.33878765
31	0xbe48b7f4	-0.19601423
32	0x3d342883	0.043983947
33	0x3d9a6923	0.075395845
34	0x3d6655e6	0.056234263
35	0xbbfd65a8	-0.0077330656
36	0xbc47e47a	-0.012200469
37	0x3c9115c4	0.017710574
38	0xbb505a7e	-0.0031792219
39	0xbe888514	-0.2666403
40	0xbdc5bac9	-0.09654767
41	0xbdf7ad1b	-0.12093564
42	0x3eb2aabe	0.3489589
43	0xbe064b84	-0.13114744
44	0xbe87dc11	-0.26535085
45	0xbe3119f6	-0.1729506
46	0xbe7398dc	-0.2378878
47	0x3dc2af52	0.09506096
48	0xbdab80dc	-0.08374187
49	0xbdad327b	-0.08456894
50	0x3d4b8b79	0.04969356
51	0xbe3951eb	-0.18097655
52	0x3e3cd404	0.18440253
53	0x3df51d7e	0.11968516
54	0x3dc0a26f	0.09405982
55	0xbe3ba25f	-0.18323658
56	0xbdceef9c	-0.101042956
57	0xbe528bd9	-0.2056116
58	0x3ec04685	0.37553802
59	0xbdad67c1	-0.08467055
60	0x3e444583	0.19167142
61	0xbdd409bd	-0.1035342
62	0xbe55182e	-0.20810005
63	0xbbc4ea7c	-0.006009398
64	0x3ee05a81	0.4381905
65	0xbd87d524	-0.0663245
66	0xbefb7fc7	-0.49120924
67	0x3e892d20	0.2679224
68	0xbec0bb12	-0.37642723
69	0xbc95b295	-0.018273631
70	0xbedeae3d	-0.43492308
71	0x3e8887fc	0.26666248
72	0xbe8c291b	-0.2737511
73	0xbe90fb52	-0.28316742
74	0x3e87255a	0.26395684
75	0xbe0d20d2	-0.13782051
76	0x3e247ba2	0.16062787
77	0xbe6a7465	-0.22895963
78	0x3eb6f6b7	0.35735103
79	0x3f09dac3	0.5384943
80	0x3dd21de5	0.10259608
81	0xbeb86273	-0.3601261
82	0xbef03a83	-0.4691964
83	0xbe2689b8	-0.16263473
84	0x3dd0c390	0.101935506
85	0x3ea70c79	0.32626703
86	0x3e1091ab	0.14118068
87	0x3e943703	0.2894822
88	0x3eb63a88	0.3559153
89	0xbe162b1d	-0.14664884
90	0xbd9e0242	-0.077152744
91	0xbe1efe47	-0.15526687
92	0x3f1f165e	0.62143505
93	0x3ec74cb5	0.3892571
94	0xbeb01389	-0.34389904
95	0x3e2198d2	0.15780953
96	0xbe6b7512	-0.22993878
97	0x3bd5e6ea	0.0065277712
98	0x3df3ca14	0.11903778
99	0x3e6a8f6f	0.22906278
100	0x3e1f4f3a	0.15557566
101	0xbdc87e65	-0.09789733
102	0xbc46f132	-0.012142466
103	0x3e3067e5	0.17227133
104	0xbe1c23b9	-0.15248002
105	0x3db0b0a3	0.08627441
106	0xbea306b4	-0.31841052
107	0xbd08f051	-0.03343231
108	0x3e62fefd	0.22167583
109	0xbd75147e	-0.059833996
110	0xbd4600e2	-0.048340686
111	0xbe546ddd	-0.20745035
112	0xbe284081	-0.16430856
113	0x3d74c78d	0.05976062
114	0x3d5c45c5	0.053777475
115	0x3e586d1e	0.21135375
116	0x3def51d1	0.11685527
117	0x3ed59ce1	0.41721252
118	0xbeb5c508	-0.35501885
119	0x3e81b91f	0.2533655
120	0x3e367cb4	0.17821008
121	0xbc784854	-0.015153963
122	0xbecbfa0e	-0.39839214
123	0xbec00ede	-0.37511343
124	0x3ea7bcf1	0.32761338
125	0xbd8aae58	-0.06771535
126	0x3c3b2161	0.011421532
127	0x3e0fac38	0.1403054
128	0xbd2d589e	-0.04232084
129	0xbefd55c6	-0.49479502
130	0x3e715886	0.23568925
131	0xbe891373	-0.2677265
132	0xbe58f287	-0.21186267
133	0xbeadeea3	-0.33971128
134	0x3e4c1f83	0.19933896
135	0xbe9b577f	-0.30340192
136	0xbe188f0b	-0.14898317
137	0x3dd78b62	0.10524632
138	0x3f124cdb	0.5714852
139	0x3e83f29a	0.25771028
140	0xbd29e3a9	-0.04147688
141	0x3ef5860f	0.4795384
142	0xbe00485b	-0.12527601
143	0xbd27c3f1	-0.04095835
144	0x3e339d8a	0.17540565
145	0x3e96268b	0.2932628
146	0xbe478f24	-0.19488198
147	0xbe180cf4	-0.14848691
148	0xbd18589c	-0.03719388
149	0x3e2792b5	0.16364558
150	0xbdd14982	-0.10219099
151	0x3efb1d76	0.49045914
152	0xbb8fa9cc	-0.004384255
153	0x3ebc766e	0.36809105
154	0xbf1abadc	-0.60441375
155	0xbf0cae05	-0.5495303
156	0x3e6be123	0.23035102
157	0x3e97aaaa	0.29622394
158	0x3d00fd2b	0.03149144
159	0xbe71cc7d	-0.23613162
160	0xbdca29c8	-0.098712504
161	0xbe32e241	-0.17469122
162	0xbeb05fea	-0.34448177
163	0x3e3d94df	0.18513821
164	0x3e83d482	0.25748068
165	0x3e00cfdb	0.1257929
166	0xbcf63230	-0.030053228
167	0xbe88fc6b	-0.2675508
168	0xbeb2a3a5	-0.34890476
169	0xbd97b346	-0.074072406
170	0x3d23e6c2	0.04001499
171	0x3eed5fb5	0.4636208
172	0x3ce9def4	0.028548695
173	0xbe8f2ff5	-0.27966276
174	0x3e027c95	0.12742837
175	0x3ec6a5f3	0.38798484
176	0x3e85ac4b	0.26108012
177	0x3e034969	0.12820973
178	0x3eb104a6	0.3457386
179	0xbd67b4a7	-0.056568768
180	0xbe7c8d64	-0.24663311
181	0xbe41bcd3	-0.18919687
182	0x3dc233db	0.09482547
183	0xbe75961b	-0.23983042
184	0x3eb5e2f3	0.3552471
185	0x3ddb5ee0	0.10711455
186	0xbe1ba321	-0.15198947
187	0xbdd8e7e9	-0.10591108
188	0xbf0cc7fd	-0.5499266
189	0xbb9b7b55	-0.004744927
190	0x3ea441c2	0.3208142
191	0x3d57fba7	0.05273023
192	0xbded4bb2	-0.11586703
193	0xbe8fc544	-0.2808019
194	0xbeb2846f	-0.34866664
195	0xbed90529	-0.4238675
196	0x3d4b08b0	0.049568832
197	0x3d77272a	0.060340084
198	0x3e6048d1	0.21902777
199	0x3ea35735	0.3190247
200	0xbebe66d7	-0.37187836
201	0x3f021048	0.50806093
202	0xbda80121	-0.0820334
203	0xbe9af392	-0.30263954
204	0x3f14fb4e	0.5819596
205	0x3f00672d	0.50157434
206	0xbe813f21	-0.25243476
207	0xb9f6f8b5	-0.00047106078
208	0x3ee192bc	0.44057262
209	0x3e3300f4	0.17480832
210	0xbe0614e0	-0.130939
211	0xbe5e7552	-0.21724442
212	0xbe8897ab	-0.26678213
213	0xbc2d00d4	-0.0105592795
214	0xbe99b18d	-0.30018273
215	0x3ed0ef15	0.40807405
216	0x3d8d6324	0.06903675
217	0x3ebe3fbf	0.3715801
218	0xbef505cf	-0.47855994
219	0xbef94c5f	-0.4869108
220	0x3e97556a	0.29557353
221	0x3cb396e2	0.021922532
222	0x3cb1af76	0.021690112
223	0x3e0c0770	0.13674712
224	0x3e99324f	0.29921195
225	0x3e99d13b	0.30042443
226	0xbe2e5e65	-0.17028196
227	0x3ceb1bd9	0.028699802
228	0xbe71b7a3	-0.23605208
229	0xbc5b830a	-0.013397941
230	0xbeaa0c24	-0.33212388
231	0x3ea244ac	0.31693017
232	0xbe82067c	-0.25395572
233	0xbe01d594	-0.1267913
234	0xbf2654ec	-0.6497333
235	0xbb8f5083	-0.0043736114
236	0x3e0a69fa	0.1351699
237	0xbe1dcc07	-0.15409862
238	0xbeb58670	-0.3545413
239	0x3eaa841e	0.33303922
240	0x3ed0d3f5	0.4078671
241	0xbd7cc0c3	-0.06170727
242	0xbe40f987	-0.18845187
243	0xbe0fc553	-0.14040117
244	0xbeac3c02	-0.33639532
245	0xbe548314	-0.20753127
246	0xbe4d3b36	-0.20042118
247	0xbe82bdae	-0.2553534
248	0xbe9bd66f	-0.30437037
249	0xbeb80ef8	-0.3594892
250	0x3ef963f3	0.48709068
251	0x3ef774e4	0.48331368
252	0xbea240fe	-0.3169021
253	0x3ddc7dc3	0.10766175
254	0x3e4c3bbc	0.19944662
255	0x3e89b897	0.26898643

pretraining_head.3.bias f4 [16]
0	0xbecedcc0	-0.40402794
1	0xbede2fbf	-0.43395802
2	0x3e3e385d	0.18576188
3	0xbe639a1f	-0.22226761
4	0x3e03b5ca	0.12862316
5	0xbecd7ddd	-0.4013509
6	0x3d1dbac7	0.038508203
7	0x3d9504c2	0.07276298
8	0xbe854b64	-0.2603408
9	0x3d629940	0.05532193
10	0xbe2c6f0a	-0.16839233
11	0x3ed6d088	0.41955972
12	0xbeedde8d	-0.46458855
13	0x3d82e09a	0.063904956
14	0x3e2acea0	0.16680384
15	0xbc043cfb	-0.0080711795
