trained_models/breast_cancer_cls_corr.pt (torch, 11859 bytes, 12 tensors)

encoder.0.weight f4 [16, 30]
0	0xbd6aa75f	-0.057288524
1	0xbef9dae1	-0.48799804
2	0xbdfe58e0	-0.12419295
3	0xbe7040ec	-0.23462266
4	0x3d778617	0.060430612
5	0xbde5f127	-0.11227637
6	0xbe83a31f	-0.2571039
7	0xbefddf21	-0.49584296
8	0xbc1b5f94	-0.009483237
9	0x3d743e00	0.05962944
10	0xbec3091c	-0.38092887
11	0xbe20167d	-0.15633579
12	0xbe8aabb1	-0.27084115
13	0xbf11580a	-0.5677496
14	0xbd7143ff	-0.058902737
15	0x3d1a4c71	0.037670556
16	0x3e9679a1	0.2938967
17	0xbdbb809d	-0.091553904
18	0x3cb9a5e6	0.022662114
19	0xbed3415c	-0.41260803
20	0xbee733d8	-0.4515674
21	0xbea26c46	-0.3172323
22	0xbeb77b25	-0.3583614
23	0xbefc86a3	-0.4932147
24	0xbe05843a	-0.13038722
25	0xbe8302df	-0.25588128
26	0xbe87c933	-0.2652069
27	0xbf11ea40	-0.5699806
28	0xbd3323ed	-0.043735433
29	0xbe17c0bc	-0.14819616
30	0x3c12ab1c	0.0089519285
31	0xbe3030db	-0.17206137
32	0xbe35c3b8	-0.17750442
33	0xbd7647fa	-0.060127236
34	0x3d3c2142	0.045930155
35	0x3d089e25	0.033353943
36	0xbe5f62b1	-0.21814992
37	0xbbe4b57e	-0.0069796434
38	0x3d7a8d61	0.061169986
39	0xbcc4708e	-0.023979452
40	0xbeb8ea18	-0.361161
41	0x3d4931ae	0.049119644
42	0xbe960d49	-0.2930701
43	0xbf481553	-0.7815754
44	0x3b5b7c70	0.0033490919
45	0xbe5aa57b	-0.21352188
46	0xbf07302b	-0.52807873
47	0xbe7599c7	-0.23984443
48	0xbe3ec6d1	-0.1863053
49	0xbeea615a	-0.45777398
50	0xbd86bec9	-0.06579358
51	0xbe07cb77	-0.1326121
52	0x3bf40958	0.007447403
53	0xbddc53f1	-0.10758198
54	0x3e840139	0.25782183
55	0x3e629bbc	0.2212972
56	0xbe9fb17a	-0.3119009
57	0xbdae22c1	-0.085027225
58	0xbe04b395	-0.1295913
59	0x3e7c3240	0.24628544
60	0x3e85c26f	0.26124904
61	0x3e808a5d	0.25105563
62	0x3dea79f8	0.11449045
63	0x3e09ff96	0.13476405
64	0x3de7b8d1	0.11314548
65	0xbea98c3a	-0.33114797
66	0xb8ee2257	-0.00011355121
67	0xbdf88cb8	-0.12136215
68	0xbdddb88d	-0.10826216
69	0xbdddafb5	-0.10824529
70	0x3ef5d996	0.48017567
71	0xbdf16d72	-0.11788453
72	0x3f008a3f	0.50210947
73	0x3f8aa638	1.0831976
74	0x3e565ef7	0.20934664
75	0xbdc547da	-0.09632845
76	0xbde2988e	-0.11064254
77	0x3d1331b1	0.03593606
78	0xbe584776	-0.2112101
79	0x3ee05187	0.438122
80	0x3f163500	0.5867462
81	0x3e8bdeef	0.27318522
82	0x3eb9c283	0.36281213
83	0x3ebd5f52	0.36986786
84	0x3e9005c5	0.28129402
85	0xbe63311b	-0.22186701
86	0x3e8853b3	0.26626357
87	0x3e829349	0.25502995
88	0x3da5017e	0.08056925
89	0xbdcba286	-0.09943108
90	0x3d3ffc49	0.046871457
91	0x3dbd0555	0.09229533
92	0x3d51655a	0.051122047
93	0x3e35383d	0.17697234
94	0x3e397290	0.18110108
95	0xbe9c5a14	-0.30537474
96	0xbf1918ac	-0.5980327
97	0xbdb772ef	-0.08957469
98	0x3dd8bed2	0.10583271
99	0x3c783ea7	0.015151656
100	0x3d999fbd	0.07501171
101	0xbd9995fe	-0.07499312
102	0xbd16a088	-0.03677419
103	0x3e9b5f3b	0.30346093
104	0xbd24df7f	-0.040252205
105	0xbecb8777	-0.3975179
106	0xbf05e8bf	-0.5230827
107	0xbe95595c	-0.29169738
108	0x3ca3e0cf	0.020004658
109	0xbef545ae	-0.47904724
110	0x3e1d1a1e	0.15341994
111	0xbc005f96	-0.007835289
112	0x3d45a201	0.048250202
113	0x3e52f480	0.20601082
114	0x3e58b3c5	0.21162327
115	0xbee5c8ae	-0.4487967
116	0xbee67919	-0.45014265
117	0x3db298dc	0.08720562
118	0x3e3c5dc5	0.18395145
119	0xbe1c9a56	-0.1529325
120	0xbb777eed	-0.0037764863
121	0xbe30980b	-0.172455
122	0xbd2b0309	-0.04175094
123	0xbe1daf15	-0.1539882
124	0xbe56b718	-0.20968282
125	0xbe97e657	-0.29667923
126	0xbd14a702	-0.036292084
127	0xbdbac01b	-0.091186725
128	0xbe1b7468	-0.15181124
129	0xbedb5f93	-0.42846355
130	0x3e07ec8a	0.13273826
131	0xbd20eace	-0.039286427
132	0x3e9736bb	0.29533944
133	0x3e866140	0.2624607
134	0xbde88a96	-0.11354558
135	0xbce2b750	-0.0276753
136	0xbd803af5	-0.06261245
137	0xbd07cb3e	-0.03315281
138	0x3baf5770	0.0053509995
139	0xbed0e2b4	-0.4079796
140	0x3d6877bd	0.056754816
141	0xbdbd2ed5	-0.09237448
142	0xbe82937b	-0.25503144
143	0xbdd24f7c	-0.10269067
144	0xbe76257a	-0.24037734
145	0xbd448066	-0.047974013
146	0xbd1232dc	-0.035693035
147	0xbd9df322	-0.077123895
148	0xbe3a4bbf	-0.18192957
149	0xbe0356ae	-0.12826034
150	0xbf142244	-0.57864785
151	0x3dcfe8eb	0.101518475
152	0xbf1eac74	-0.6198189
153	0xbf47d7f8	-0.7806392
154	0xbc1aeeaa	-0.009456316
155	0x3d84b1dd	0.06479237
156	0x3e1c1454	0.1524213
157	0x3e58c054	0.21167117
158	0xbc885be6	-0.016645383
159	0xbdfcae2b	-0.123379074
160	0xbd00e9e2	-0.031473048
161	0x3d5e7712	0.054312773
162	0xbcdbae7d	-0.026816601
163	0xbe754b9a	-0.23954621
164	0xbe376f2f	-0.17913507
165	0x3def25bb	0.116771184
166	0xbe5a51e2	-0.21320298
167	0x3cf5eadc	0.030019216
168	0x3e3efc0e	0.18650839
169	0x3cc7a053	0.02436844
170	0xbec6fa41	-0.38862804
171	0x3dd8382f	0.10557591
172	0x3cebd127	0.028786255
173	0xbf25d0bc	-0.6477163
174	0x3c302fed	0.010753614
175	0x3dbf7476	0.09348385
176	0xbd9e0ea1	-0.07717634
177	0x3e09bd05	0.13451011
178	0x3e000385	0.12501343
179	0x3e0528bc	0.1300382
180	0x3a09229b	0.0005231292
181	0x3c4333d9	0.011914217
182	0x3ae766d1	0.0017654543
183	0xbccd02e7	-0.025025798
184	0xbd115daf	-0.035489734
185	0xbd6bbc29	-0.05755249
186	0xbd005037	-0.0313265
187	0xbe3f5e8b	-0.18688409
188	0x3e216a2d	0.15763159
189	0xbe56465c	-0.20925277
190	0xbe08d4f6	-0.13362488
191	0xbe98e554	-0.29862463
192	0xbe9958aa	-0.29950458
193	0xbe79a98c	-0.24381083
194	0xbebb8370	-0.36623716
195	0xbe5141c7	-0.20435248
196	0xbecd5787	-0.4010584
197	0xbe951a0e	-0.2912144
198	0xbe0e9b53	-0.13926439
199	0x3eae83f4	0.34085047
200	0x3caa7b43	0.020810729
201	0xbcead293	-0.028664863
202	0x3e592368	0.21204913
203	0x3dc8b21e	0.09799598
204	0xbd624a8b	-0.05524687
205	0x3d8e1b7e	0.069388375
206	0xbe37c15e	-0.17944857
207	0xbe381830	-0.17977977
208	0x3ec67454	0.38760626
209	0xbda5eb18	-0.08101481
210	0x3e381a75	0.17978843
211	0x3d6a9dbf	0.057279345
212	0x3e1fc1db	0.15601294
213	0x3dcd7d2a	0.10033639
214	0x3daaebfb	0.08345791
215	0x3dc78e83	0.09743979
216	0x3e519076	0.20465264
217	0x3eb209bc	0.34773052
218	0x3d9fe301	0.078069694
219	0x3e62a306	0.22132501
220	0x3db2c9a4	0.08729866
221	0x3dc1a3a4	0.0945504
222	0xbdc4644c	-0.095894426
223	0x3e2bf23e	0.16791627
224	0xbc0a9559	-0.008458459
225	0xbe57fb1e	-0.21091887
226	0xbe41796b	-0.18893974
227	0xbe1c4a6a	-0.15262762
228	0xbd895115	-0.06704918
229	0x3c2a4ffe	0.010395048
230	0x3f029ca7	0.5102028
231	0x3e814bff	0.25253293
232	0x3f8ae1d0	1.0850163
233	0x3edc957b	0.43082795
234	0x3e259e6f	0.16173719
235	0x3de77bac	0.113028854
236	0x3db4f6de	0.08836149
237	0x3f06a8f9	0.5260158
238	0x3e85daba	0.26143438
239	0x3e8367c4	0.25665104
240	0xbd6feb75	-0.05857416
241	0xbe69d3da	-0.22834721
242	0xbe5c2c63	-0.21501307
243	0xbe1024e0	-0.14076567
244	0x3dc83267	0.097752385
245	0xbd3ccd84	-0.046094432
246	0xbe69dd9d	-0.22838445
247	0xbeadf03c	-0.33972347
248	0x3e1122d0	0.14173436
249	0x3d04ca74	0.032419637
250	0x3e6ac417	0.22926365
251	0x3e016844	0.1263743
252	0x3ed70ce3	0.4200202
253	0x3ecae020	0.3962412
254	0xbd2c63c4	-0.04208733
255	0xbb54452d	-0.0032389865

encoder.0.bias f4 [16]
0	0x3da1805b	0.0788581
1	0xbef172bb	-0.47157845
2	0xbd9f657e	-0.0778303
3	0xbe3aa426	-0.1822668
4	0x3f3b6692	0.73203385
5	0xbec0c621	-0.3765116
6	0x3d82ff40	0.06396341
7	0x3e1d72a0	0.15375757
8	0x3f1de275	0.6167367
9	0x3e549e78	0.20763576
10	0xbdaafcbe	-0.08348988
11	0x3daaf3b9	0.08347268
12	0x3ea6d2ad	0.32582608
13	0xbe5a9171	-0.21344544
14	0x3ec0adf8	0.37632728
15	0x3e1440e0	0.14477873

encoder.3.weight f4 [16, 16]
0	0x3e579ab8	0.21055114
1	0x3e65dd13	0.22447614
2	0xbde55a0c	-0.11198816
3	0x3e8bad2f	0.27280566
4	0xbe756d19	-0.23967399
5	0x3e87632f	0.2644286
6	0xbe1e0737	-0.1543244
7	0xbe7505f0	-0.23928046
8	0x3e671156	0.22565207
9	0x3eb72a1d	0.35774317
10	0xbeecc6f8	-0.4624555
11	0xbe48de2f	-0.19616006
12	0x3e990049	0.2988303
13	0x3e05aebb	0.13054936
14	0x3f4b2852	0.793584
15	0x3e9c124d	0.30482712
16	0x3e5c7396	0.21528468
17	0xbe0e5f70	-0.13903594
18	0xbef3a652	-0.4758783
19	0xbd350a35	-0.044199187
20	0xbd11c0ff	-0.035584446
21	0xbf100829	-0.5626245
22	0xbe958caa	-0.2920888
23	0x3e8f0089	0.27930096
24	0xbdee2f53	-0.1163012
25	0xbca1e7dd	-0.019763881
26	0x3e1ed9b6	0.15512738
27	0x3c982cec	0.018576108
28	0x3e8c73a3	0.27431974
29	0x3c353236	0.0110593345
30	0xbe87c82d	-0.2651991
31	0xbc6092d3	-0.013706881
32	0xbf32bba0	-0.69817543
33	0x3e517bc0	0.20457363
34	0x3f1c9cd3	0.61176795
35	0xbb770e06	-0.0037697568
36	0x3eaa9215	0.33314577
37	0xbd417eb9	-0.047239993
38	0x3df00ec5	0.11721567
39	0x3ecfb74b	0.4056953
40	0xbe651231	-0.2237022
41	0xbeb0612c	-0.34449136
42	0xbdd97e40	-0.106197834
43	0x3e0ab174	0.13544255
44	0x3edc6f11	0.43053487
45	0xbf051695	-0.5198758
46	0x3ec66f8b	0.38756976
47	0xbe98a769	-0.29815224
48	0xbe5b5ba4	-0.21421677
49	0xbe6c7522	-0.23091558
50	0xbded0a43	-0.11574223
51	0xbe8f8ee0	-0.28038692
52	0xbeae3017	-0.34021065
53	0x3ea00590	0.31254244
54	0x3e22cb26	0.15897807
55	0x3e65f407	0.2245637
56	0xbe8c3754	-0.27385962
57	0xbe83acae	-0.25717682
58	0xbf3ee6ab	-0.7457072
59	0x3e7cbf4a	0.24682346
60	0x3e798820	0.24368334
61	0xbc54bf3b	-0.012985046
62	0x3e9c72c2	0.30556303
63	0xbe240df9	-0.16020955
64	0xbca42305	-0.02003623
65	0xbe53577b	-0.2063884
66	0x3e999f74	0.30004466
67	0xbd0eabaf	-0.0348317
68	0xbe1f7681	-0.1557255
69	0x3e955337	0.2916505
70	0x3d6c0ad8	0.05762753
71	0x3ea1ffe8	0.31640553
72	0xbea8f661	-0.33000472
73	0x3e09262b	0.13393466
74	0xbe109326	-0.14118633
75	0x3ea18d98	0.3155334
76	0xbdf7ed36	-0.12105791
77	0xbe889274	-0.26674235
78	0x3ed59c67	0.41720888
79	0xbcd51b73	-0.026014065
80	0xbeb3892c	-0.3506559
81	0xbdda50e6	-0.106599614
82	0x3e95aab3	0.29231796
83	0xbdaab507	-0.083353095
84	0xbd821df3	-0.063533686
85	0x3ee0a340	0.4387455
86	0x3e71116b	0.235418
87	0xbe6d717f	-0.23187827
88	0xbe31c0fb	-0.17358772
89	0x3ee893fb	0.454254
90	0x3e8ce598	0.27518916
91	0xbdb323bd	-0.08747051
92	0xbe908c96	-0.2823226
93	0x3ec0aa47	0.3762991
94	0xbf2fc862	-0.68665135
95	0xbef39d12	-0.47580773
96	0xbcb723cb	-0.022355935
97	0x3da1300a	0.07870491
98	0xbe6e4193	-0.23267202
99	0xbeeb0d9a	-0.45908815
100	0x3ea94b4f	0.33065268
101	0x3e9dd04b	0.30822977
102	0xbe8b2e90	-0.27183962
103	0xbd87e456	-0.066353485
104	0xbe1abd3e	-0.15111253
105	0xbe178240	-0.1479578
106	0xbe219d3c	-0.15782636
107	0x3dc989be	0.09840725
108	0xbe11d04c	-0.14239615
109	0xbdcd6881	-0.10029698
110	0xbe3925af	-0.18080781
111	0x3e58db7c	0.21177477
112	0x3ef031b0	0.4691291
113	0x3e8e2c6f	0.27768275
114	0xbec7755a	-0.3895672
115	0x3e929974	0.286327
116	0xbe419515	-0.18904527
117	0x3e47d890	0.19516206
118	0x3da5727e	0.08078478
119	0xbeba6133	-0.36402282
120	0xbeceddd1	-0.40403607
121	0xbdfd988e	-0.12382613
122	0x3ecb076e	0.39654106
123	0xbe942555	-0.28934732
124	0xbe34b579	-0.17647351
125	0x3e578bcd	0.21049424
126	0x3f2c0a2f	0.6720304
127	0x3e554e0b	0.20830552
128	0xbe70fe4f	-0.23534511
129	0xbe6c62ec	-0.2308461
130	0xbd3d252f	-0.04617804
131	0x3e38bc0d	0.18040486
132	0xbd0f66f3	-0.03501029
133	0x3e33d211	0.17560603
134	0x3ea89cfd	0.32932273
135	0x3d26d70a	0.04073242
136	0x3ebf06ca	0.37309867
137	0xbe943d43	-0.2895299
138	0x3ec6c6dd	0.38823596
139	0xbe8a6907	-0.27033255
140	0x3e94745a	0.2899502
141	0x3e07ffb9	0.13281144
142	0x3f2cd852	0.6751758
143	0xbb2868cc	-0.002569723
144	0x3ecf47df	0.4048452
145	0xbe90bf10	-0.2827077
146	0xbf30e68b	-0.6910178
147	0xbeab7cbd	-0.33493605
148	0x3e055ead	0.13024397
149	0x3dbbd26a	0.09170993
150	0xbdd03624	-0.101665765
151	0xbe3b1b89	-0.18272223
152	0xbd7b247c	-0.06131409
153	0x3e484552	0.19557694
154	0xbe85bcfb	-0.26120743
155	0x3e74ff82	0.23925593
156	0x3db5e788	0.08882052
157	0xbd941925	-0.072313584
158	0x3ec413b7	0.3829629
159	0x3daa23e1	0.083076246
160	0xbf093124	-0.5359061
161	0xbda86cda	-0.08223887
162	0xbe17f07c	-0.14837831
163	0x3d80f3c9	0.06296498
164	0xbe0f7a23	-0.14011435
165	0x3e564c9b	0.2092766
166	0xbc4f2c0e	-0.012644781
167	0xbe5a1184	-0.21295744
168	0xbe12e9f5	-0.1434706
169	0x3e589476	0.21150383
170	0xbf48074b	-0.7813613
171	0x3e94d51a	0.29068834
172	0x3c976086	0.018478643
173	0xbe5d83ff	-0.21632384
174	0x3f3e5eb4	0.74363256
175	0x3e7549cf	0.23953937
176	0x3e410404	0.18849188
177	0xbd24a44d	-0.040195752
178	0xbe344e59	-0.17608012
179	0x3ee9de11	0.45677236
180	0x3f0e4c8e	0.55585563
181	0xbea9b6c8	-0.33147264
182	0xbd7322ac	-0.059359238
183	0x3db4fa80	0.088368416
184	0xbd898233	-0.06714287
185	0x3e341a85	0.17588241
186	0xbe05e826	-0.13076839
187	0x3b7b4a5c	0.0038343882
188	0xbddb9e73	-0.10723581
189	0xbde4e38c	-0.111762136
190	0xbede3ce4	-0.4340583
191	0x3e5bdebe	0.21471688
192	0xbe9503d8	-0.29104495
193	0x3ec1f707	0.3788378
194	0xbda37568	-0.07981378
195	0xbd893d38	-0.0670113
196	0xbcbd43a3	-0.02310354
197	0xbbb815ca	-0.005617832
198	0x3e1beb96	0.15226588
199	0x3e9bf503	0.30460367
200	0xbe0b061e	-0.13576552
201	0xbe06886b	-0.13137977
202	0xbea325fb	-0.31864914
203	0x3e07256d	0.1319787
204	0x3bee4e03	0.0072724833
205	0xbe41ef70	-0.18938994
206	0xbfc7ca18	-1.5608549
207	0xbddfb617	-0.10923403
208	0xbdbc5396	-0.0919563
209	0xbe65f7d4	-0.2245782
210	0x3e4a522d	0.1975791
211	0xbe602ada	-0.21891347
212	0x3f009874	0.50232625
213	0x3dd32096	0.1030895
214	0xbe9ab81a	-0.30218583
215	0xbd07f5e9	-0.033193503
216	0x3ec1828d	0.37794915
217	0x3e4c04e0	0.19923735
218	0x3e58f8e2	0.21188691
219	0xbdff4262	-0.124638334
220	0xbdceeef0	-0.101041675
221	0xbe96cf7d	-0.29455176
222	0x3e73db98	0.23814237
223	0xbe2cf98b	-0.16892068
224	0x3e568c23	0.20951895
225	0x3e6ae8b0	0.22940326
226	0x3dfaa502	0.12238504
227	0x3e5d323c	0.21601194
228	0x3d671477	0.056416
229	0x3e8e6628	0.27812314
230	0x3e04becc	0.12963408
231	0xbd9bf3f3	-0.07614889
232	0xbe11bffe	-0.14233395
233	0x3e3c830c	0.18409365
234	0xbdc1e327	-0.09467154
235	0xbdeb426c	-0.11487278
236	0x3f089634	0.5335419
237	0xbe81b071	-0.25329927
238	0x3dff2890	0.124589086
239	0xbe4e5cd8	-0.20152605
240	0xbe525377	-0.20539652
241	0xba1ec156	-0.0006056031
242	0xbdc7a51e	-0.097482905
243	0x3ed8bf8c	0.4233364
244	0xbd88bf35	-0.06677095
245	0x3e3983c8	0.18116677
246	0xbdfb2ba2	-0.12264182
247	0xbed31e76	-0.41234177
248	0x3e2a99d3	0.16660242
249	0x3e484e0a	0.1956102
250	0xbcd670ea	-0.026176888
251	0x3e9e5dbc	0.3093089
252	0xbc90d065	-0.017677495
253	0xbe6ce851	-0.23135497
254	0xbe3b9f8d	-0.18322583
255	0x3f266529	0.6499811

encoder.3.bias f4 [16]
0	0xbd7d8097	-0.06189021
1	0xbd86c01b	-0.0657961
2	0x3e02c48e	0.12770292
3	0x3c37e30b	0.011223565
4	0xbe16647e	-0.14686772
5	0xbe1b45b6	-0.15163311
6	0xbe19a3be	-0.15003869
7	0xbdfd6807	-0.12373357
8	0x3e0b1687	0.13582812
9	0x3db5ce48	0.08877236
10	0x3e53261f	0.20620011
11	0x3e7e951a	0.24861565
12	0x3bd7554b	0.006571447
13	0x3dbe13f8	0.092811525
14	0x3dce04ac	0.10059485
15	0x3e673ae4	0.22581059

encoder.6.weight f4 [16, 16]
0	0xbe6a4252	-0.22876862
1	0x3d2453ae	0.040118866
2	0xbe73edc5	-0.2382117
3	0xbe050350	-0.12989545
4	0xbe844510	-0.2583394
5	0x3e412ddf	0.18865155
6	0xbecc80cc	-0.39942014
7	0x3d0a6d65	0.033795733
8	0x3f19a02d	0.60010034
9	0xbd7acc02	-0.061229713
10	0xbf296587	-0.66170543
11	0xbeb726b0	-0.35771704
12	0xbf0f471a	-0.5596787
13	0x3d03f2d4	0.032214
14	0xbf06fe77	-0.5273203
15	0xbe98d42c	-0.29849374
16	0x3e10cf6a	0.14141622
17	0xbec1b27f	-0.37831494
18	0xbde5f48e	-0.11228286
19	0xbec88d03	-0.39170083
20	0x3e0b81ea	0.13623777
21	0x3cafdfee	0.021469083
22	0xbdb4d19e	-0.08829044
23	0x3ed7cdb7	0.42149135
24	0x3de58fb5	0.112090506
25	0xbe5a667c	-0.21328157
26	0xbe89e3dc	-0.26931655
27	0xbd454c04	-0.048168197
28	0xbdb5e7fa	-0.08882137
29	0x3e521d18	0.20518911
30	0x3e78f82d	0.24313422
31	0x3c25deca	0.010123918
32	0x3e17adff	0.14812468
33	0x3e61c2ab	0.22046916
34	0xbe1129a6	-0.14176044
35	0x3d1d8062	0.038452514
36	0xbe4edea6	-0.20202121
37	0xbd5c6c2c	-0.0538141
38	0x3eb6078e	0.3555264
39	0xbea7e930	-0.32795095
40	0x3e7ef52a	0.2489821
41	0xbe9a9234	-0.3018967
42	0x3ed41f85	0.41430297
43	0x3e2e1dcc	0.17003554
44	0xbe160513	-0.14650373
45	0x3ea2485e	0.31695837
46	0x3dcf6320	0.101263285
47	0x3e5db6cb	0.21651761
48	0x3edee33e	0.43532747
49	0x3eadb600	0.33927917
50	0xbeda88c0	-0.42682457
51	0xbee8812d	-0.45411053
52	0xbf31b1c6	-0.69411886
53	0x3ef26b04	0.4734727
54	0x3ea58c7b	0.3233374
55	0xbdbbd868	-0.091721356
56	0x3e1afd63	0.15135722
57	0x3eb63193	0.35584697
58	0x3e8ee05b	0.27905545
59	0xbd656fef	-0.05601495
60	0x3f0168e2	0.50550663
61	0x3ee558b2	0.44794232
62	0xbd4a35c9	-0.0493677
63	0xbe385742	-0.18002036
64	0x3dc1401e	0.094360575
65	0x3e0af1a2	0.13568738
66	0xbf12cab3	-0.57340544
67	0xbd9da3fd	-0.07697294
68	0xbe2bd93d	-0.16782089
69	0x3ec5d101	0.3863602
70	0x3dc3b797	0.09556501
71	0x3eb1c471	0.34720185
72	0xbe9a9073	-0.3018833
73	0xbc8d8144	-0.017273553
74	0x3eec694c	0.46174085
75	0xbe408776	-0.18801674
76	0xbe798a4b	-0.24369161
77	0xbbc1da1e	-0.005915894
78	0x3d378ff0	0.044815004
79	0xbdf0d8cb	-0.117601
80	0xbe1fb4ef	-0.15596364
81	0xbe79e9ca	-0.2440559
82	0xbf285dc1	-0.6576806
83	0xbe57c981	-0.21072961
84	0xbeb7cf67	-0.35900423
85	0x3eb1f492	0.34756905
86	0x3ccdca91	0.025121005
87	0x3e2d60ce	0.1693146
88	0x3e879349	0.26479557
89	0xbe076254	-0.13221103
90	0x3c86fad5	0.016477028
91	0x3ee4cdd2	0.44688278
92	0xbeb50416	-0.3535468
93	0x3e84f778	0.25970054
94	0xbe135dd7	-0.14391266
95	0xbddbd619	-0.10734195
96	0x3dd534db	0.10410472
97	0xbe1570a2	-0.14593747
98	0xbd0e987a	-0.03481338
99	0xbe5f3d35	-0.21800692
100	0xbf16fb93	-0.5897762
101	0xbd1bad0a	-0.03800682
102	0xbecf1101	-0.4044266
103	0xbcb75db1	-0.022383543
104	0xbf89c9cb	-1.0764707
105	0xbe894136	-0.26807564
106	0xbf0f18ad	-0.5589703
107	0x3e5ead87	0.21745883
108	0x3ed7ca6f	0.42146632
109	0xbf254bb4	-0.6456864
110	0xbe5d5af7	-0.21616732
111	0xbece2b33	-0.40267333
112	0x3e734cbf	0.23759745
113	0xbdb649d3	-0.089007996
114	0xbee5d6a7	-0.4489033
115	0xbe9b2da6	-0.30308264
116	0xbeebb4a2	-0.4603625
117	0xbe94230b	-0.28932986
118	0xbd9d34e0	-0.07676101
119	0xbdc7b65f	-0.097515814
120	0x3d4ee921	0.050515298
121	0xbd6d1ca5	-0.057888646
122	0xbda0ad57	-0.07845562
123	0xbd6109f1	-0.05494112
124	0xbec5ca2b	-0.38630804
125	0x3de53f0a	0.11193664
126	0x3d891b82	0.066947
127	0x3ec96855	0.39337412
128	0x3e848d95	0.2588927
129	0xbccccaad	-0.024998987
130	0xbe6b18ef	-0.2295873
131	0x3d15df18	0.036589712
132	0x3e5b87de	0.21438548
133	0x3d75e0db	0.060028892
134	0x3e53b16b	0.20673148
135	0x3de7c985	0.11317734
136	0x3e013b4b	0.12620275
137	0xbe8123e6	-0.252227
138	0xbef1b6aa	-0.47209674
139	0x3e3b3ea2	0.18285611
140	0x3f08599b	0.5326173
141	0x3df90606	0.12159352
142	0xbe8f833d	-0.28029814
143	0x3eefa4f7	0.46805546
144	0x3ea20b95	0.3164946
145	0x3e157637	0.14595877
146	0x3d731266	0.059343718
147	0x3d396bac	0.0452687
148	0xbebbe58b	-0.36698565
149	0x3d5e9f60	0.05435121
150	0x3eb6af94	0.3568083
151	0x3ebf554a	0.37369758
152	0x3e1a5c1b	0.15074198
153	0x3bd7eb42	0.006589324
154	0x3cb304ea	0.02185293
155	0xbe906dca	-0.28208762
156	0xbe4ba557	-0.19887291
157	0xbb2dc6a3	-0.0026516102
158	0xbdd9610b	-0.106142126
159	0x3e11fe7c	0.14257234
160	0x3de17173	0.11007967
161	0x3cb3ce54	0.02194897
162	0xbdf702c5	-0.12061075
163	0xbeaacc0f	-0.3335881
164	0x3c06b81b	0.008222605
165	0x3e2716a9	0.16317238
166	0xbe35680a	-0.17715469
167	0x3e0aabf6	0.1354216
168	0xbedb5183	-0.42835626
169	0xbdb4d050	-0.08828795
170	0x3cadc166	0.021210384
171	0xbe908058	-0.2822292
172	0x3de4ecd7	0.11177986
173	0xbe7748f3	-0.24148922
174	0xbf1ce47f	-0.6128616
175	0x3efdc995	0.49567857
176	0x3d274daa	0.04084555
177	0x3d9d394b	0.076769434
178	0x3e0f2e26	0.13982448
179	0xbe5be610	-0.2147448
180	0x3e7143ab	0.2356097
181	0xbd727fcb	-0.059203904
182	0xbe54cd92	-0.20781544
183	0xbb918cd0	-0.004441835
184	0x3e8f2a06	0.2796175
185	0x3e310864	0.17288357
186	0x3edef0f5	0.4354321
187	0x3e3eed83	0.18645291
188	0x3f766dce	0.962613
189	0x3e28c587	0.164816
190	0xbe74c32b	-0.23902576
191	0x3e0edcf9	0.13951482
192	0x3e26ae1c	0.16277355
193	0x3d91ab22	0.07112719
194	0xbd0602e7	-0.03271761
195	0x3d18ae31	0.037275497
196	0xbce0ff7c	-0.027465574
197	0x3d8acdbc	0.06777522
198	0x3ef55d14	0.47922575
199	0xbc211d75	-0.009833683
200	0x3cbbc66d	0.022921765
201	0xbe0478b3	-0.12936668
202	0xbf07197e	-0.52773273
203	0xbe43d423	-0.19123892
204	0xbe076ad8	-0.13224351
205	0xbe9a870f	-0.30181167
206	0xbe8711ff	-0.26380917
207	0x3e405bf9	0.18785085
208	0xbead6e09	-0.33873013
209	0xbdbdd3d9	-0.09268922
210	0xbf3e3a91	-0.74308115
211	0x3f08c5da	0.534269
212	0x3dc05dea	0.09392913
213	0x3ef1c737	0.472223
214	0x3e51f59c	0.20503849
215	0xbe47f63b	-0.19527523
216	0x3ea25f95	0.31713548
217	0x3caf0cda	0.021368433
218	0x3b5ecd74	0.0033996971
219	0xbd9cf2f1	-0.07663525
220	0xbea03ddd	-0.31297198
221	0xbddb5ac9	-0.10710675
222	0xbf2c46b7	-0.672954
223	0x3e0ad8ca	0.13559261
224	0xbea45f6c	-0.3210405
225	0xbd086e02	-0.033308037
226	0xbd726cdf	-0.05918586
227	0x3f012bde	0.5045756
228	0xbf06c1c6	-0.52639425
229	0x3edcd943	0.43134508
230	0x3eb98563	0.36234578
231	0x3e72daa5	0.23716219
232	0xbe34c105	-0.17651756
233	0xbe602659	-0.21889628
234	0xbe472089	-0.19446005
235	0xbdc71168	-0.09720117
236	0xbf1d4680	-0.614357
237	0xbeb01607	-0.34391806
238	0x3e1b71ea	0.15180174
239	0x3e8fb363	0.2806655
240	0x3e072bd7	0.13200317
241	0x3d6bf7d9	0.057609413
242	0xbda8f508	-0.08249861
243	0xbf58fe45	-0.84762985
244	0xbf852be7	-1.0404023
245	0xbe621f98	-0.22082365
246	0xbf0e14c8	-0.5550046
247	0xbee60303	-0.44924173
248	0xbe81ca83	-0.25349817
249	0xbd87b711	-0.06626714
250	0x3e457b8b	0.19285409
251	0xbe1e579f	-0.15463112
252	0x3e9b8750	0.30376673
253	0x3e3f01cb	0.18653028
254	0x3eae7d44	0.34079945
255	0x3dad1dee	0.08452974

encoder.6.bias f4 [16]
0	0xbe49b807	-0.19699107
1	0xbe3a97b7	-0.18221937
2	0x3e769798	0.24081266
3	0x3e5175e8	0.20455134
4	0x3e505816	0.20346102
5	0x3e3738da	0.17892781
6	0x3e44e75c	0.19228882
7	0x3ea9a07d	0.33130255
8	0xbefd6501	-0.49491122
9	0xbe820e30	-0.2540145
10	0x3e708cb2	0.23491171
11	0xbe85f320	-0.26162052
12	0x3eaa38b6	0.33246392
13	0xbe3aa457	-0.18226753
14	0x3eb3176a	0.349788
15	0xbd406d36	-0.04697915

encoder.9.weight f4 [16, 16]
0	0x3f337d16	0.7011274
1	0xbf08d313	-0.53447074
2	0x3eb44d9e	0.35215467
3	0x3e09833b	0.13428967
4	0xbe0d56cf	-0.13802646
5	0xbe2e7658	-0.17037332
6	0x3de3ae4b	0.11117228
7	0xbd2ee515	-0.04269894
8	0xbe17c6b2	-0.1482189
9	0xbebc1c24	-0.3674022
10	0x3d7bd078	0.06147811
11	0x3e659675	0.22420676
12	0x3d706e2b	0.058698814
13	0x3e2de839	0.16983117
14	0xbd4f6af0	-0.050639093
15	0x3bb5f03d	0.0055523203
16	0x3ef12c9f	0.47104356
17	0xbee1993d	-0.44062224
18	0x3e9c5853	0.30536136
19	0xbe863bde	-0.2621755
20	0x3e139bc7	0.14414893
21	0xbe1ac61e	-0.15114638
22	0x3d40241a	0.04690943
23	0x3ea52909	0.3225787
24	0xbed383fb	-0.4131163
25	0x3dc40112	0.09570517
26	0x3ee9c0c4	0.4565488
27	0xbeaf72cf	-0.3426728
28	0x3e281ebf	0.16417979
29	0xbee28e2d	-0.44249097
30	0x3e6a81c1	0.2290106
31	0xbe9928c5	-0.29913917
32	0x3eefc440	0.46829414
33	0x3e2fb7e9	0.1716
34	0x3d8864a2	0.06659819
35	0x3ee360e0	0.44409847
36	0xbe02abcb	-0.12760846
37	0x3e9b473b	0.30327782
38	0x3e033902	0.12814716
39	0x3ef8fb50	0.48629236
40	0xbe49baee	-0.19700214
41	0x3ea1c027	0.31591913
42	0x3ec50561	0.38480666
43	0x3eb5475d	0.35406008
44	0x3e0571ab	0.13031642
45	0xbe9db6e3	-0.30803594
46	0xbe3a2f1d	-0.18182035
47	0x3deb69fb	0.114948235
48	0x3f1202ab	0.5703532
49	0xbe88e791	-0.2673917
50	0xbebfc1a8	-0.37452435
51	0x3e879f87	0.26488897
52	0x3d2f935f	0.042865153
53	0x3e72a2b4	0.23694879
54	0xbda4b8da	-0.0804307
55	0x3f0f31df	0.5593547
56	0xbec2782b	-0.37982306
57	0x3e3a7187	0.1820737
58	0x3c6e85d5	0.014558275
59	0xbe841861	-0.2579985
60	0xbd93809d	-0.072022654
61	0xbe1f18aa	-0.15536752
62	0x3d911e21	0.07085825
63	0x3e5b13c0	0.21394253
64	0x3e61c259	0.22046794
65	0xbea40db0	-0.32041693
66	0x3e9f6886	0.31134433
67	0x3d271223	0.04078878
68	0xbece0ca7	-0.40244028
69	0xbe6157c8	-0.22006142
70	0x3f067f79	0.5253826
71	0xbdcd1fa0	-0.100157976
72	0x3e8d5b87	0.27608892
73	0x3eb6a0ce	0.3566956
74	0x3f0204c1	0.50788504
75	0xbeb8e339	-0.36110857
76	0xbe82da5f	-0.2555723
77	0x3e42ebce	0.19035265
78	0xbe836c5c	-0.2566861
79	0xbf32f976	-0.699119
80	0x3e1c25eb	0.1524884
81	0xbe674a29	-0.22586884
82	0xbeafe4d3	-0.34354267
83	0x3e827276	0.25477952
84	0xbefaca5b	-0.4898251
85	0x3de6ce70	0.112698436
86	0xbda185cc	-0.07886848
87	0xbe80b184	-0.25135434
88	0x3d676cb2	0.056500144
89	0x3e9aad32	0.30210263
90	0x3f036a4a	0.5133406
91	0xbe466099	-0.19372787
92	0x3e463543	0.19356255
93	0xbea4eef4	-0.32213557
94	0xbd8b8279	-0.06811995
95	0xbc4cccc9	-0.012499996
96	0xbd7a58c5	-0.061119813
97	0xbe0ece73	-0.13945942
98	0xbe312b22	-0.1730161
99	0x3e8b32cf	0.271872
100	0x3e393dee	0.1809003
101	0xbec436da	-0.38323098
102	0xbe4d7ae2	-0.20066407
103	0xbe1fedd2	-0.15618065
104	0x399241ce	0.00027896318
105	0xbe4f05ea	-0.202171
106	0xbd2e9cad	-0.042629886
107	0xbe75b11e	-0.23993346
108	0xbe3b1e6e	-0.18273327
109	0xbe71344d	-0.23555107
110	0xbdd60ef2	-0.10452069
111	0x3d5ac482	0.05341006
112	0x3d017a75	0.031610925
113	0xbe5454f1	-0.20735528
114	0x3ecce74c	0.40020216
115	0x3eb1a6e1	0.3469763
116	0x3eb7cfa7	0.35900614
117	0x3edf182e	0.43573135
118	0xbf026b78	-0.50945234
119	0x3e4d9324	0.20075661
120	0x3eb2ca2e	0.34919876
121	0x3eac967c	0.3370856
122	0x3da01921	0.07817293
123	0xbed88960	-0.4229231
124	0x3ec4868a	0.38383895
125	0x3e77578a	0.24154487
126	0x3e57b4d7	0.21065079
127	0x3dddb4c5	0.10825495
128	0x3e0b8778	0.13625896
129	0xbe8de722	-0.27715403
130	0x3ec062b3	0.37575302
131	0xbf30abae	-0.6901196
132	0xbd62efd0	-0.055404484
133	0xbef8254a	-0.4846595
134	0x3edb835b	0.42873654
135	0xbe95df76	-0.2927205
136	0xbea2a1bf	-0.31764027
137	0xbdbb6445	-0.09149984
138	0xbea83e0a	-0.32859832
139	0xbde8837c	-0.11353204
140	0xbe9d821f	-0.30763337
141	0x3da2a2b8	0.079411924
142	0x3dd88887	0.105729155
143	0xbf397b05	-0.7245334
144	0x3f17d8b1	0.5931502
145	0x3eb648e0	0.35602474
146	0xbc43b8c4	-0.011945907
147	0xbdfa38d8	-0.12217873
148	0xbb82cf08	-0.003991965
149	0xbf083495	-0.53205234
150	0x3ecf5cee	0.40500587
151	0xbee0cf54	-0.4390818
152	0x3e02f4b2	0.12788656
153	0x3dbe9d3c	0.09307334
154	0x3f0f9757	0.560903
155	0x3eb3a353	0.35085544
156	0xbe151dc3	-0.14562134
157	0xbb29e0e9	-0.002592141
158	0xbe768e1a	-0.24077645
159	0xbec8be22	-0.3920756
160	0x3f07214e	0.52785194
161	0xbc15b8ce	-0.009138299
162	0xbee306cf	-0.44341132
163	0x3e6dbbff	0.23216246
164	0x3f00ddcf	0.50338453
165	0xbecc6324	-0.39919388
166	0x3e7c5c82	0.24644664
167	0xbe570641	-0.2099848
168	0x3e62b41b	0.22139017
169	0x3f016fcc	0.50561213
170	0xbe086876	-0.13321099
171	0xbec0095c	-0.3750714
172	0xbd1e4eaa	-0.03864924
173	0xbe99965d	-0.2999753
174	0x3e99a2d5	0.30007043
175	0xbc6d5f20	-0.014488012
176	0x3eb190e9	0.3468087
177	0x3e9c2b9e	0.30502027
178	0xbcbfb13a	-0.023399938
179	0xbea1c99c	-0.31599128
180	0x3e239985	0.15976532
181	0x3e39e2a1	0.18152858
182	0x3ee21f05	0.4416429
183	0xbf0dda99	-0.5541168
184	0xbed067d5	-0.40704218
185	0xbe366915	-0.17813523
186	0x3e0f2eb7	0.13982664
187	0x3dfcac7b	0.123375855
188	0x3ece33aa	0.40273792
189	0xbe0a36c6	-0.13497457
190	0xbee2d16c	-0.443004
191	0xbe06acb8	-0.13151824
192	0xbfa4fb7d	-1.2889248
193	0x3e9aaa2f	0.30207965
194	0xbee67982	-0.45014578
195	0xbeca947e	-0.39566416
196	0xbe66bc81	-0.22532846
197	0x3ec7f472	0.39053684
198	0xbe3778a3	-0.17917113
199	0x3d521b5c	0.051295623
200	0xbdd7a9ab	-0.105304085
201	0x3e0e4b09	0.13895811
202	0xbefa80cf	-0.48926398
203	0x3da82623	0.08210399
204	0x3d9c42fd	0.076299645
205	0x3e42f9b1	0.19040562
206	0xbe9e067b	-0.3086432
207	0xbcbfc24f	-0.023408083
208	0xbef8e9c8	-0.4861586
209	0x3e019bb1	0.12657048
210	0xbdc9c779	-0.098524995
211	0xbec5c731	-0.38628533
212	0xbde40880	-0.11134434
213	0x3eb989e5	0.36238018
214	0xbcffcd01	-0.031225683
215	0x3e92d53b	0.28678307
216	0xbdab1428	-0.08353454
217	0xbede8cb8	-0.43466735
218	0xbe3164b3	-0.1732357
219	0xbd170266	-0.03686752
220	0xbec156c5	-0.37761512
221	0x3f2c3c9f	0.6728
222	0x3e28dd5c	0.16490692
223	0xbee6e2bd	-0.45094863
224	0x3e18b9a0	0.1491456
225	0xbd4aa377	-0.0494723
226	0xbe8fdf1f	-0.28099915
227	0x3ec1b0f5	0.3783032
228	0x3ec6c693	0.38823375
229	0xbe337ce7	-0.17528115
230	0xbf16da64	-0.5892699
231	0xbde67b73	-0.11254015
232	0xbe7595b6	-0.23982891
233	0xbdabfd88	-0.083979666
234	0xbd232af7	-0.039835896
235	0xbea9b656	-0.33146924
236	0xbe1d7501	-0.15376665
237	0xbc66b4e7	-0.014081216
238	0x3efad73a	0.4899233
239	0xbe968011	-0.29394582
240	0xbf232ed4	-0.6374333
241	0x3ea759a1	0.3268557
242	0xbe11a57d	-0.14223285
243	0xbe8cf42c	-0.27530038
244	0x3e4898e2	0.1958957
245	0x3e3d7fce	0.18505785
246	0x3e66ce9d	0.22539754
247	0x3dbbb753	0.09165826
248	0x3e3c65dd	0.18398233
249	0x3e316204	0.17322546
250	0x3da6ea93	0.0815021
251	0xbe71a434	-0.23597795
252	0x3eeb84e9	0.4599984
253	0x3e7211a1	0.23639537
254	0x3e36a582	0.17836574
255	0x3ee649d2	0.44978195

encoder.9.bias f4 [16]
0	0x3e0cd1c4	0.13751894
1	0x3eeff04a	0.46863014
2	0xbeaa5c46	-0.33273524
3	0x3c8a37e2	0.01687235
4	0xbe1bf26e	-0.15229198
5	0x3e769b18	0.24082601
6	0x3ec7d8d3	0.3903261
7	0x3e37797b	0.17917435
8	0x3e8c66bd	0.27422133
9	0xbd9c46d9	-0.076307006
10	0xbd956c6f	-0.07296073
11	0x3eabf918	0.3358848
12	0xbe0c815f	-0.13721226
13	0x3e767930	0.24069667
14	0xbbd9f0be	-0.006651013
15	0x3d73beef	0.05950826

pretraining_head.0.weight f4 [16, 16]
0	0xbe7d9924	-0.2476545
1	0x3e893001	0.26794437
2	0xbf0edc9c	-0.55805373
3	0x3d73a553	0.059483837
4	0x3eb4923e	0.35267824
5	0xbd8cd2bb	-0.06876131
6	0x3f0b04fe	0.5430449
7	0xbe974d41	-0.29551128
8	0x3f4da8cd	0.80335695
9	0x3d383b33	0.04497833
10	0x3f069e9f	0.52585787
11	0xbda23210	-0.07919705
12	0xbe2c578b	-0.1683027
13	0x3eb356fe	0.35027307
14	0x3e8c8d13	0.2745138
15	0x3f047077	0.5173411
16	0x3ccc27cc	0.02492132
17	0x3ed81b6e	0.42208427
18	0x3dcc7c1d	0.0998461
19	0xbdd57e5b	-0.10424491
20	0x3ebe02c6	0.3711149
21	0xbebedbcb	-0.37277064
22	0x3ee5a6cf	0.44853827
23	0xbedcbd85	-0.43113342
24	0x3f910c1e	1.1331823
25	0x3e2ada2e	0.16684791
26	0x3e9ca1e6	0.3059227
27	0x3e811c76	0.25217026
28	0xbf0b7057	-0.5446829
29	0x3e679875	0.22616751
30	0xbd02732a	-0.03184811
31	0xbe745dc7	-0.23863898
32	0x3e2a6881	0.16641428
33	0x3e743a0c	0.23850268
34	0xbb74aa15	-0.0037332822
35	0xbd68f957	-0.056878414
36	0x3dbb8998	0.09157103
37	0x3e8a2b8b	0.26986346
38	0x3eb4701a	0.35241777
39	0x3e83d8db	0.25751385
40	0xbe51fd00	-0.20506668
41	0xbe24c85f	-0.1609206
42	0xbe6dce22	-0.23223165
43	0x3e997230	0.2996993
44	0xbf10bb6e	-0.56535995
45	0xbdeadf90	-0.114684224
46	0xbe587b16	-0.21140704
47	0xbdfcba9d	-0.12340281
48	0x3e83f121	0.25769904
49	0xbcc784f0	-0.024355382
50	0xbd805b93	-0.062674664
51	0xbf08526a	-0.53250754
52	0xbc74288f	-0.014902248
53	0xbed3211e	-0.41236204
54	0x3d84268e	0.06452666
55	0xbf261016	-0.64868295
56	0x3eea666e	0.45781273
57	0x3ec8cd06	0.3921892
58	0xbf09390a	-0.5360266
59	0xbe75d6d5	-0.24007733
60	0xbe6c7c84	-0.23094374
61	0x3eda9de7	0.42698595
62	0x3e6ced52	0.23137406
63	0xbd9af249	-0.075657435
64	0x3d1d36ab	0.038382214
65	0x3ecdfe5c	0.40233123
66	0xbf0ed9c3	-0.5580103
67	0xbebd77ab	-0.37005362
68	0xbecff4e3	-0.4061652
69	0xbef17c00	-0.47164917
70	0xbcc23e9b	-0.023711493
71	0xbf1dd07d	-0.6164625
72	0x3e75b9e8	0.23996699
73	0x3eae21cb	0.34010157
74	0x3df52a61	0.11970974
75	0x3e8b935e	0.2726087
76	0xbe0c2e6d	-0.13689585
77	0x3ebee7d4	0.37286246
78	0xbe342aa9	-0.17594399
79	0xbe9b3527	-0.3031399
80	0x3e36792e	0.17819664
81	0x3ef67927	0.48139307
82	0x3e092110	0.13391519
83	0x3ead7755	0.33880106
84	0xbe1eece4	-0.15520054
85	0x3e9c5d88	0.3054011
86	0xbd4f5437	-0.050617423
87	0x3e25b3c3	0.16181855
88	0xbdb0cdfe	-0.0863304
89	0x3b665657	0.0035146677
90	0x3e0f32dc	0.13984245
91	0xbe032e61	-0.12810661
92	0xbee5757d	-0.448162
93	0x3e203ab2	0.1564739
94	0x3ed8e8ef	0.42365214
95	0x3e105775	0.14095862
96	0xbd869818	-0.06571978
97	0x3efa470b	0.48882326
98	0xbebe4afa	-0.37166578
99	0x3d98a9fd	0.07454298
100	0x3ed6be42	0.4194203
101	0x3e819712	0.2531057
102	0x3dd3b3dc	0.1033704
103	0x3d159246	0.03651645
104	0x3eabd314	0.33559477
105	0xbe6d42d9	-0.23170032
106	0x3d6dcb60	0.05805528
107	0xbef3151f	-0.47477052
108	0x3c8c658a	0.017138261
109	0x3eb1a608	0.34696984
110	0x3d6f5771	0.058433
111	0x3ec1ca3a	0.378496
112	0xbd304fd9	-0.0430449
113	0xbec4d5b8	-0.38444304
114	0x3e3ef8bb	0.1864957
115	0xbe836bbb	-0.2566813
116	0x3ec822d5	0.39089075
117	0x3f0b9942	0.5453073
118	0x3ee428b9	0.4456232
119	0xbe9456c6	-0.28972453
120	0xbe5cc8fc	-0.21561044
121	0xbeb5c445	-0.35501304
122	0x3e9d8231	0.3076339
123	0x3ea786f1	0.3272014
124	0x3d178590	0.03699261
125	0xbebfa73e	-0.37432283
126	0x3ee3008b	0.44336352
127	0xbec71d71	-0.3888965
128	0xbe1dac96	-0.15397868
129	0xbe6e3586	-0.23262605
130	0x3eea942d	0.45816174
131	0x3d824285	0.06360344
132	0x3e0782f4	0.13233548
133	0xbe6da4b6	-0.23207363
134	0x3c6d89e5	0.014498209
135	0x3e2ba9cc	0.16763991
136	0xbe26cf19	-0.16289939
137	0xbd466e0b	-0.04844479
138	0x3e05b89b	0.13058703
139	0xbee5abf0	-0.4485774
140	0xbe9bee39	-0.30455187
141	0xbe355a89	-0.17710318
142	0xbe137877	-0.14401422
143	0x3df00c2f	0.11721074
144	0xbf02d85c	-0.5111139
145	0x3e85526f	0.26039454
146	0xbd396a09	-0.04526714
147	0x3e372a9c	0.17887348
148	0xbefce944	-0.49396718
149	0x3cadaae7	0.021199657
150	0x3ea69d34	0.3254181
151	0x3ed26d02	0.4109879
152	0xbdd5b9a9	-0.104358025
153	0xbea6cb97	-0.32577202
154	0x3eccb238	0.3997972
155	0x3e7c27dc	0.2462458
156	0xbd39deac	-0.045378372
157	0x3e95e176	0.29273576
158	0x3e8f8a75	0.28035322
159	0x3ed42c24	0.41439927
160	0xbeb4ee05	-0.35337844
161	0xbec29658	-0.38005328
162	0x3e9762b7	0.295675
163	0x3dca7336	0.09885256
164	0x3e3b3ffd	0.18286128
165	0xbd1762ef	-0.036959585
166	0xbeac3634	-0.33635104
167	0xbe0a4492	-0.1350272
168	0xbebc31fa	-0.3675688
169	0x3d8c9a2a	0.06865342
170	0x3e96bfed	0.29443303
171	0xbe34a240	-0.17640018
172	0x3d069e1a	0.03286562
173	0xbd9812a7	-0.07425433
174	0x3e801339	0.25014666
175	0x3d12b82c	0.03582017
176	0xbebf5bd9	-0.37374762
177	0x3ec0f288	0.37685037
178	0xbe9ec6fd	-0.3101119
179	0xbd36c917	-0.044625368
180	0xbd90a4d6	-0.0706269
181	0xbe0ed718	-0.13949239
182	0x3da58c4d	0.08083401
183	0xbdc5c51a	-0.09656735
184	0x3dd2c212	0.10290922
185	0xbef5a137	-0.4797456
186	0xbedd73c1	-0.43252376
187	0x3db68238	0.08911556
188	0x3d894df8	0.067043245
189	0x3e403770	0.18771148
190	0xbe1f7313	-0.15571241
191	0xbdc73d80	-0.09728527
192	0x3e842ae3	0.2581397
193	0x3eb624e4	0.3557502
194	0xbe71bcdb	-0.23607199
195	0xbeb2a2e2	-0.34889895
196	0x3efd97b2	0.49529797
197	0xbda526b2	-0.08064021
198	0x3e381f14	0.17980605
199	0x3e9df64c	0.30851972
200	0x3fc921b1	1.5713407
201	0x3ef6f599	0.4823425
202	0xbec73160	-0.38904858
203	0x3f0e3f94	0.5556576
204	0x3d9b6ce8	0.075891316
205	0xbdc85bf0	-0.09783161
206	0x3d9a474d	0.07533131
207	0xbe8fac13	-0.2806097
208	0x3eaf1a28	0.34199643
209	0x3efda1e5	0.49537578
210	0xbe205f6e	-0.15661404
211	0x3ed75f61	0.42064956
212	0xbd8f113a	-0.069857076
213	0x3d881069	0.06643755
214	0x3eeb36af	0.45940158
215	0xbecc958f	-0.39957854
216	0xbd835c37	-0.06414073
217	0x3dafe2e8	0.08588201
218	0x3f1971f3	0.599395
219	0x3cfe1610	0.03101638
220	0xbdcbd923	-0.09953525
221	0x3de43a7f	0.1114397
222	0x3efb292b	0.49054846
223	0xbed1cb94	-0.4097563
224	0x3de83af7	0.11339372
225	0x3ef27956	0.47358197
226	0xbe907e7e	-0.28221506
227	0xbbf61b48	-0.0075105764
228	0xbe14867f	-0.14504431
229	0x3f00d839	0.5032993
230	0x3deee9a7	0.116656594
231	0xbe9c8f96	-0.30578297
232	0x3ec1c55f	0.37845895
233	0x3d671557	0.056416836
234	0x3d92d827	0.07170134
235	0x3ead7484	0.33877957
236	0xbe02c0f1	-0.12768914
237	0x3d4bf3e7	0.04979315
238	0x3decba4d	0.115589716
239	0x3ecf4ba5	0.404874
240	0x3e0e67df	0.13906811
241	0x3dc72898	0.097245395
242	0xbe039ce1	-0.12852813
243	0xbdfd773c	-0.12376258
244	0xbe4bffaa	-0.19921747
245	0x3e1a6aeb	0.15079848
246	0xbe47dd0f	-0.19517921
247	0x3ec9b0c5	0.39392677
248	0xbe40a6e3	-0.18813662
249	0xbef97a5d	-0.48726168
250	0xbf16e3d2	-0.58941376
251	0xbe0762b2	-0.13221243
252	0xbc209765	-0.00980172
253	0x3ef66a81	0.4812813
254	0xbe7b3b86	-0.24534425
255	0x3e1fe552	0.15614823

pretraining_head.0.bias f4 [16]
0	0x3d07e351	0.03317577
1	0x3e34cf21	0.17657138
2	0x3e2f9f9e	0.17150733
3	0xbe1c5de1	-0.15270187
4	0x3cd36722	0.025806013
5	0x3dfcde84	0.12347129
6	0xbdb56a39	-0.08858151
7	0xbdbf66d6	-0.09345786
8	0xbd6aa6d5	-0.05728801
9	0x3e73944c	0.2378704
10	0xbeb68792	-0.35650307
11	0xbc0e02cb	-0.008667658
12	0x3e448949	0.19192995
13	0xbd7c8115	-0.06164654
14	0x3e398d23	0.18120246
15	0x3e144188	0.14478123

pretraining_head.3.weight f4 [16, 16]
0	0x3e8bba73	0.27290687
1	0x3c2110e6	0.009830689
2	0xbd2614bd	-0.04054712
3	0xbd3ae2f1	-0.045626584
4	0x3ec82f34	0.39098513
5	0xbda73b85	-0.08165649
6	0x3eb4424c	0.3520683
7	0xbd0deef8	-0.034651726
8	0x3f0406df	0.51572984
9	0xbe6bf9b0	-0.23044467
10	0x3efea80c	0.49737585
11	0x3d697b62	0.057002433
12	0xbe14dd89	-0.14537634
13	0x3d115d4e	0.035489373
14	0x3d66c1f3	0.05633731
15	0xbe539977	-0.20664011
16	0xbd080cc8	-0.033215314
17	0xbf26d3bb	-0.65166825
18	0x3e8c987d	0.2746009
19	0x3cb74d32	0.022375677
20	0xbcdf1fed	-0.027236903
21	0x3e8b973e	0.27263826
22	0x3f0a3ab3	0.5399582
23	0x3e2e4f35	0.17022403
24	0x3ef4260f	0.47685286
25	0xbe30c628	-0.1726309
26	0xbdaf764a	-0.08567484
27	0x3e859662	0.26091295
28	0xbf4ac174	-0.79201436
29	0x3e5bc646	0.21462354
30	0xbf08752a	-0.5330378
31	0xbdd39a14	-0.103321224
32	0x3e2dec4d	0.16984673
33	0x3ded6195	0.11590878
34	0x3e67ac84	0.22624403
35	0x3e356203	0.1771317
36	0x3e9f68c3	0.31134614
37	0x3e3cbd60	0.18431616
38	0x3e92c46d	0.28665486
39	0x3e5614a8	0.20906317
40	0x3e31b481	0.17354013
41	0xbe58a622	-0.21157125
42	0x3cfb5a72	0.030682776
43	0x3c9ea13d	0.019363994
44	0x3da54b79	0.08071036
45	0x3eae59a6	0.3405277
46	0x3d78a877	0.060707536
47	0xbe683cd1	-0.2267945
48	0x3f5cc42b	0.8623683
49	0x3edee040	0.43530464
50	0xbed5c646	-0.41752833
51	0x3ef0fa96	0.47066182
52	0x3e23fc7a	0.16014281
53	0xbede29ff	-0.43391415
54	0xbe99c26a	-0.3003114
55	0xbeb6d469	-0.3570893
56	0xbe7d58c7	-0.24740897
57	0x3dc2a79b	0.095046245
58	0x3e98e1c4	0.29859746
59	0xbe872d08	-0.26401544
60	0xbc76e8f3	-0.015070188
61	0xbee6dfb7	-0.45092556
62	0x3e7e5537	0.24837194
63	0x3e4a4a84	0.19754988
64	0xbe39a49b	-0.18129198
65	0xbed1f301	-0.4100571
66	0x3c543a37	0.012953333
67	0x3e989068	0.29797673
68	0x3e08406b	0.13305824
69	0x3e82d85e	0.255557
70	0x3ee97c55	0.4560267
71	0x3ea51ea0	0.32249928
72	0xbb326995	-0.0027223576
73	0x3e9c6853	0.30548343
74	0xbd5cce34	-0.053907588
75	0x3de79d8d	0.11309347
76	0xbf1e5120	-0.61842537
77	0x3ddc2011	0.10748304
78	0xbf075cb6	-0.5287584
79	0xbe9a9987	-0.30195257
80	0x3ea33bda	0.318816
81	0x3d5746be	0.0525577
82	0xbda1f380	-0.07907772
83	0x3f0410ef	0.5158834
84	0x3f1ed278	0.620399
85	0x3e086e53	0.13323335
86	0x3e67bc21	0.22630359
87	0x3eaccd7a	0.33750516
88	0xbd973243	-0.073826335
89	0x3dd00ecf	0.101590745
90	0x3ea96755	0.3308665
91	0xbe237d14	-0.15965682
92	0x3f12ebc0	0.57390976
93	0x3e9442d5	0.2895724
94	0x3ea8243e	0.3284015
95	0xbf09936c	-0.5374057
96	0x3ec18f2b	0.3780454
97	0xbe2215da	-0.15828648
98	0x3ecead51	0.40366605
99	0xbd4bd68e	-0.049765162
100	0x3c76955b	0.015050258
101	0x3e9aa6c1	0.30205348
102	0x3c0e687a	0.008691901
103	0xbcbdf22a	-0.023186762
104	0xbd463c7b	-0.048397522
105	0xbed82f9c	-0.42223823
106	0xbf0ae838	-0.5426059
107	0x3c8b0641	0.016970756
108	0xbeebb3fa	-0.4603575
109	0x3e3e2156	0.18567404
110	0xbeef450d	-0.4673237
111	0x3ed555cd	0.41667023
112	0xbe55a6f1	-0.20864464
113	0xbe5df9a7	-0.21677266
114	0xbd2cb2e4	-0.04216279
115	0xbf34f1fd	-0.70681745
116	0xbeb9d810	-0.36297655
117	0xbeb43c50	-0.35202265
118	0xbe437182	-0.19086269
119	0xbee48e3c	-0.44639766
120	0x3e966910	0.2937703
121	0xbe086cf1	-0.13322808
122	0x3c537313	0.012905854
123	0x3e1a9798	0.15096891
124	0xbe36b490	-0.17842317
125	0xbebac872	-0.36481053
126	0xbd95b610	-0.07310116
127	0x3ed51f7c	0.41625583
128	0x3f424afe	0.7589568
129	0xbf18c0ef	-0.59669393
130	0xbb943db4	-0.004523957
131	0x3eae1d4b	0.34006724
132	0x3cf45df4	0.029829957
133	0xbd9e6ba7	-0.07735377
134	0x3e4cde3c	0.2000665
135	0xbe60869e	-0.21926352
136	0xbc7f5489	-0.01558412
137	0xbae51b4d	-0.001747945
138	0xbe850ed1	-0.25987867
139	0x3ca16c5e	0.019704994
140	0xbf824fa0	-1.018055
141	0xbe7f3e51	-0.24926116
142	0xbf3cd439	-0.73761326
143	0x3eab3ff3	0.33447227
144	0x3f6fab09	0.93620354
145	0x3e34943a	0.17634669
146	0xbd61d0e0	-0.05513084
147	0x3e9622d8	0.2932346
148	0x3eb999d3	0.3625017
149	0xbe802fba	-0.25036412
150	0x3d6a9957	0.057275143
151	0xbe853205	-0.26014724
152	0x3d9f2248	0.077702105
153	0xbe76e9af	-0.2411258
154	0x3df3244e	0.11872159
155	0xbe0b10ca	-0.13580623
156	0xbe2e5adb	-0.17026846
157	0xbe029d24	-0.12755257
158	0xbbfcac46	-0.0077109663
159	0x3e39baef	0.18137716
160	0x3fb0dfca	1.3818295
161	0x3f0bf062	0.5466367
162	0xbe9c4e15	-0.30528322
163	0x3eb70229	0.35743836
164	0x3ef49bce	0.4777512
165	0xbf07d1ba	-0.5305439
166	0xbed29972	-0.41132694
167	0xbf056c73	-0.52118605
168	0xbe55167c	-0.20809358
169	0xbe862988	-0.2620356
170	0x3e9bccda	0.30429727
171	0xbebbfb5f	-0.36715218
172	0x3eacd444	0.33755696
173	0xbec13ee4	-0.37743294
174	0x3ec956e2	0.393241
175	0x3ebad5ed	0.36491337
176	0x3f94da3a	1.1629097
177	0x3ed36d6c	0.4129442
178	0x3ddfab41	0.10921336
179	0x3f09ac44	0.5377848
180	0x3f0be801	0.54650885
181	0x3dd4f9e2	0.10399224
182	0xbde36ceb	-0.11104759
183	0xbd683ca8	-0.05669847
184	0xbe32d272	-0.17463091
185	0xbef69cef	-0.48166606
186	0xbd5424e6	-0.051793
187	0xbe9a0100	-0.30078888
188	0x3e958652	0.2920404
189	0x3e4e1e58	0.20128763
190	0x3e605868	0.21908724
191	0x3e252fc7	0.16131507
192	0xbe41bc23	-0.18919425
193	0x3dae9ec6	0.085263774
194	0x3e0bb87a	0.13644591
195	0x3e0b2d80	0.13591576
196	0xbe2917b6	-0.16512951
197	0x3e6d6f5f	0.23187016
198	0xbe5e1b15	-0.21690018
199	0x3e1b06ce	0.15139315
200	0xbf04a61d	-0.5181597
201	0x3e2a5c9a	0.16636887
202	0xbf011548	-0.504231
203	0xbda28b4c	-0.07936725
204	0x3d488d6e	0.048963003
205	0x3def7095	0.11691395
206	0xbe2102cb	-0.15723722
207	0x3e077bce	0.13230821
208	0x3e655809	0.22396864
209	0x3bce761c	0.006300701
210	0x3e3448c7	0.17605887
211	0x3c8873dd	0.01665681
212	0x3e570ffc	0.21002191
213	0x3e3525ed	0.17690249
214	0x3eac0dec	0.33604372
215	0x3dc5ddfb	0.0966148
216	0x3f049d8e	0.5180291
217	0xbeda5172	-0.42640263
218	0x3e803909	0.25043514
219	0x3dc7d484	0.09757331
220	0xbe1e710d	-0.15472813
221	0x3e803d87	0.25046942
222	0x3d385054	0.044998482
223	0xbe219d78	-0.15782726
224	0xbebd5882	-0.3698159
225	0x3efb6e13	0.49107417
226	0x3ead008f	0.3378949
227	0xbde6891b	-0.112566195
228	0xbc1d8518	-0.009614252
229	0x3ea9d1b7	0.33167812
230	0xbdc2d84c	-0.095139116
231	0x3eadef64	0.33971703
232	0xbb849f97	-0.004047345
233	0xbebc3d5a	-0.36765558
234	0xbe2ca67c	-0.16860384
235	0xbd5efa0b	-0.05443768
236	0x3f99e9e1	1.2024499
237	0x3f12071f	0.57042116
238	0x3f2a6f88	0.66576433
239	0xbe8d23af	-0.27566287
240	0x3f728df5	0.9474786
241	0x3f21f059	0.63257366
242	0x3d0a1c06	0.03371813
243	0x3ef0282f	0.46905658
244	0x3f0c5bf7	0.5482783
245	0x3d2a3671	0.041555826
246	0xbe6e1427	-0.23249875
247	0xbbdad5c9	-0.006678317
248	0xbe8893ff	-0.26675412
249	0xbebf77b7	-0.37396023
250	0x3d828063	0.06372144
251	0xbeb2330d	-0.34804574
252	0x3f3c8e96	0.7365507
253	0x3e5bf343	0.21479516
254	0x3f023b9a	0.50872195
255	0x3cc643ac	0.02420219

pretraining_head.3.bias f4 [16]
0	0xbeba1f1d	-0.36351863
1	0xbd5f4c28	-0.054515988
2	0xbe576567	-0.21034776
3	0xbdd72e5a	-0.10506888
4	0x3c8e917f	0.017403362
5	0xbeab5947	-0.3346655
6	0x3e1c5be6	0.15269431
7	0x3e03b11b	0.12860529
8	0x3e1762c6	0.14783773
9	0xbe32e6e8	-0.17470896
10	0xbe4ca87e	-0.1998615
11	0xbe5b1d76	-0.21397957
12	0x3e8b1ac0	0.27168846
13	0xbe926edb	-0.286002
14	0xbd041d68	-0.032254606
15	0xbe727f28	-0.23681319
