trained_models/breast_cancer_cls_corr.pt (torch, 11859 bytes, 12 tensors)

encoder.0.weight f4 [16, 30]
0.03537876 0.12053858 0.28885376 0.10059785 0.31306508 0.013059691 -0.024670819 -0.05920276
0.3892969 0.26492217 0.32731527 -0.0492806 0.40202576 0.25272164 -0.0705795 0.22520462
0.029097568 0.19129309 -0.006935974 0.13167366 0.019119205 0.31740242 -0.15369338 0.27833903
-0.010990405 0.058913708 0.38905352 0.3193276 0.3804577 -0.21384048 -0.1291122 -0.059408464
0.05979661 -0.031090124 0.035350107 -0.511836 -0.07468506 -0.29426667 -0.106114335 -0.004547363
0.012130157 0.0108330045 -0.029524785 0.34401733 0.5462772 -0.36038288 0.12434608 0.15574813
0.025234938 0.17653011 0.0019313106 -0.028174164 0.08453323 0.011821678 0.3110027 -0.44167244
-0.4967772 -0.24567091 -0.1575439 -0.35539106 0.0019814908 -0.15561388 0.08990029 0.008393609
-0.13693626 -0.20669545 0.06301647 -0.087720774 0.29018933 -0.26910675 0.3868427 0.24254885
-0.16308296 -0.23560587 -0.090164945 -0.18842718 0.23847151 0.3163365 -0.20586182 0.34059697
-0.10204468 0.098465964 -0.3268571 -0.060260527 0.09948048 0.07333185 -0.10024142 0.21329477
-0.13757566 -0.32462126 -0.092320085 0.19286458 -0.15981622 -0.15422118 0.013031928 0.039532587
-0.051866457 -0.09506202 -0.11644822 -0.15564251 0.2552239 0.28228024 0.25738105 0.34867582
-0.24274705 0.22306287 -0.009041245 0.28293276 0.13309601 -0.044728145 -0.03589456 -0.14463003
-0.13604194 -0.14989117 -0.14402594 -0.40008518 -0.26395065 -0.3341878 -0.12747484 -0.29621089
-0.027917266 -0.18172097 -0.09840245 -0.08132647 -0.07632488 -0.25282493 -0.36698174 -0.39637265
-0.022336535 -0.22008662 -0.32816964 -0.030530374 -0.49987403 -0.5928913 -0.36219773 -0.31149125
-0.4118186 -0.22245272 -0.06281922 -0.22250505 -0.087935455 -0.17442293 -0.17188005 -0.014132768
-0.081128925 -0.26419076 -0.22512594 -0.2773109 0.035668813 -0.24936761 -0.21068008 -0.030850686
-0.22572224 -0.26467466 -0.116566196 -0.023402596 0.084119506 0.01542403 0.16773269 0.390057
0.38878205 0.64467114 0.48794788 -0.054388907 -0.03638654 -0.20411704 0.13556322 0.17343228
0.20029926 0.034173355 -0.16336033 -0.14992748 0.23853332 -0.41051787 0.17042963 -0.16725652
-0.0302968 -0.12732878 -0.41981092 -0.028527634 -0.3840343 -0.29114777 -0.4021938 -0.55274755
0.06230124 0.1440297 0.1543884 -0.1235681 0.025299804 0.19500062 -0.20173231 0.04769311
-0.39897922 -0.6303467 -0.12352169 0.08042597 0.059308812 0.16662593 0.04448613 0.15099895
-0.5155845 -0.36598122 -0.41026652 -0.5805889 0.18031603 0.015588207 -0.022081802 -0.13766241
0.102629825 0.033583082 0.059197888 0.018823296 -0.031965524 -0.03570667 -0.12889013 0.2783451
0.52279425 -0.14580846 0.1615021 0.015157273 0.3569787 -0.040018596 0.21839298 0.23869617
-0.014021684 -0.32192376 0.33544353 -0.10840279 0.17989828 -0.093686014 0.1715075 0.15206884
-0.40370405 -0.15046784 -0.36242142 -0.22208542 -0.16165426 0.22003122 -0.17307338 0.6890988
0.017572928 -0.08360144 0.047626674 0.06333157 -0.35299966 -0.32144827 0.20679891 -0.031516865
-0.04039965 -0.18462133 0.20038362 0.0849725 0.10514614 0.34225234 0.14194427 -0.33878967
00000000: 52e9 103d eedc f63d a4e4 933e 3f06 ce3d
00000010: 114a a03e 50f8 553c 751a cabc 987e 72bd
00000020: ec51 c73e e1a3 873e de95 a73e 74da 49bd
00000030: 52d6 cd3e bb64 813e fc8b 90bd 0a9c 663e
00000040: 065e ee3c 56e2 433e 2b47 e3bb 76d5 063e
00000050: e19f 9c3c 9282 a23e cc61 1dbe 7482 8e3e
00000060: 1a11 34bc 804f 713d 0632 c73e e87e a33e
00000070: 5acb c23e 00f9 5abe fd35 04be 4a56 73bd
00000080: 4aed 743d b7b0 febc 46cb 103d af07 03bf
00000090: 7bf4 98bd 1faa 96be 7952 d9bd 0c02 95bb
000000a0: 91bd 463c ea7c 313c f6dd f1bc 0a23 b03e
000000b0: d3d8 0b3f 1b84 b8be 28a9 fe3d 707c 1f3e
000000c0: 80b9 ce3c 4fc4 343e 0824 fd3a 81cd e6bc
000000d0: c21f ad3d b6af 413c bf3b 9f3e e422 e2be
000000e0: 9559 febe 2891 7bbe 3053 21be d1f5 b5be
000000f0: e6db 013b 3f59 1fbe a51d b83d 5985 093c
00000100: 0539 0cbe f9a7 53be c70e 813d f3a6 b3bd
00000110: b293 943e 5cc8 89be 3f10 c63e ba5e 783e
00000120: 38ff 26be aa42 71be 66a8 b8bd 0ef3 40be
00000130: e031 743e dcf6 a13e 71cd 52be ba62 ae3e
00000140: cdfc d0bd 86a8 c93d d059 a7be bed3 76bd
00000150: 6cbc cb3d 022f 963d 604b cdbd f269 5a3e
00000160: a2e0 0cbe c234 a6be 5012 bdbd 4b7e 453e
00000170: dda6 23be 28ec 1dbe de83 553c ecec 213d
00000180: ec71 54bd e0af c2bd 687c eebd c060 1fbe
00000190: b5ac 823e 0987 903e 73c7 833e a385 b23e
000001a0: af92 78be 986a 643e bb21 14bc 90dc 903e
000001b0: 524a 083e dc34 37bd 2d06 13bd e519 14be
000001c0: 944e 0bbe 127d 19be 897b 13be f7d7 ccbe
000001d0: 8a24 87be aa1a abbe c488 02be f4a8 97be
000001e0: c0b2 e4bc 1015 3abe 3987 c9bd 7e8e a6bd
000001f0: 3850 9cbd 4572 81be 08e5 bbbe 5bf1 cabe
00000200: 1cfb b6bc 635e 61be da05 a8be d61a fabc
00000210: 7def ffbe b9c7 17bf fb71 b9be c87b 9fbe
00000220: e3d9 d2be a5ca 63be 5da7 80bd 5dd8 63be
00000230: 8117 b4bd ed9b 32be 5301 30be 208d 67bc
00000240: ec26 a6bd 0344 87be 6a87 66be b2fb 8dbe
00000250: 7619 123d 395a 7fbe 85bc 57be 94ba fcbc
00000260: bb23 67be 7083 87be 42ba eebd cdb6 bfbc
00000270: d946 ac3d 12b5 7c3c 1ec2 2b3e 8db5 c73e
00000280: 710e c73e 2b09 253f 4ed4 f93e e7c6 5ebd
00000290: 0d0a 15bd 0f04 51be 16d1 0a3e 3b98 313e
000002a0: 401b 4d3e 5cf9 0b3d ee47 27be 9786 19be
000002b0: 1442 743e 662f d2be 1b85 2e3e 4b45 2bbe
000002c0: ff30 f8bc 7a62 02be 75f1 d6be c9b2 e9bc
000002d0: 25a0 c4be 5211 95be 59ec cdbe dd80 0dbf
000002e0: 962f 7f3d 867c 133e fe17 1e3e 4611 fdbd
000002f0: 8941 cf3c 3eae 473e ea92 4ebe da59 433d
00000300: 0147 ccbe 675e 21bf f1f8 fcbd 5fb6 a43d
00000310: cced 723d fd9f 2a3e 1737 363d 789f 1a3e
00000320: 59fd 03bf e461 bbbe 740e d2be 79a1 14bf
00000330: c4a4 383e ae65 7f3c e5e4 b4bc 60f7 0cbe
00000340: 962f d23d 6a8e 093d 7c79 723d 5033 9a3c
00000350: 48ee 02bd 2841 12bd c6fb 03be 4083 8e3e
00000360: d8d5 053f d04e 15be ce60 253e 3656 783c
00000370: eac5 b63e 8aea 23bd 69a2 5f3e c56c 743e
00000380: 35bb 65bc 31d3 a4be 41bf ab3e 4802 debd
00000390: 4137 383e 74de bfbd a99f 2f3e efb7 1b3e
000003a0: 4cb2 cebe 3e14 1abe 4d8f b9be 5c6a 63be
000003b0: b288 25be dd4f 613e 263a 31be c768 303f
000003c0: 1af5 8f3c 3b37 abbd 3014 433d fbb3 813d
000003d0: 5fbc b4be de94 a4be 18c3 533e d417 01bd
000003e0: 1a7a 25bd 600d 3dbe 5d31 4d3e 1006 ae3d
000003f0: dc56 d73d b33b af3e d759 113e d775 adbe

encoder.0.bias f4 [16]
-0.20947082 0.059578344 0.07908578 0.541546 0.04540231 0.14829373 0.18013823 -0.11936138
0.085741274 -0.016665507 0.060369182 -0.10283682 0.12650171 0.027089711 -0.05150003 0.036730155
00000000: 857f 56be 6c08 743d baf7 a13d c2a2 0a3f
00000010: c6f7 393d 50da 173e 2876 383e bd73 f4bd
00000020: 1f99 af3d 1a86 88bc ad45 773d 1c9c d2bd
00000030: aa89 013e 3eeb dd3c b2f1 52bd 5c72 163d

encoder.3.weight f4 [16, 16]
-0.4711655 0.37887567 0.2389699 0.27177113 -0.24367738 0.07109314 0.40480825 0.013903337
-0.15655512 -0.057652142 -0.33955252 0.14466348 -0.21524814 -0.4220929 0.58153576 0.23563136
0.15021682 0.0997901 0.044085737 0.38593435 -0.37884438 -0.3561317 -0.60373133 -0.23469377
0.31844458 -0.10630766 0.3875852 -0.08678823 0.38761938 0.14300948 -0.34078166 -0.07232053
-0.3686029 0.040876664 0.089521214 0.18649511 0.35513604 0.1170052 -0.33846936 -0.46383247
0.19323966 0.13489561 0.6082649 0.31118146 0.12942472 -0.11495598 0.11323867 -0.092597246
0.11387434 -0.099655606 -0.253222 0.14758494 -0.015631342 -0.12971696 -0.1310504 0.24271616
0.12932475 0.18377012 0.4515422 0.34592658 -0.4357968 0.10057429 -0.05508669 0.08298151
0.035889376 -0.044773012 -0.080388 -0.29551134 0.37793136 0.03233326 -0.052651905 -0.47743532
-0.22276564 0.16158456 -0.31667796 -0.37935337 0.25411963 0.26807582 0.20359984 -0.41643527
0.22624545 -0.055039022 0.13133551 -0.041449603 -0.14947931 0.27241006 -0.26471364 0.040004723
0.14149468 0.48679134 0.24772765 0.1874007 -0.41484907 0.4215492 -0.118068844 0.2734644
0.23883002 0.2070658 0.078210056 -0.17931962 -0.017051823 0.049395446 0.1670446 0.34218895
-0.2261199 0.3369144 0.23670268 0.346827 0.052209474 0.37863472 0.20010214 -0.13194206
0.24989069 -0.12835678 -0.37667063 -0.30162513 -0.19960855 -0.41661972 0.053186722 -0.32029
0.2095049 -0.162148 0.06397482 -0.026027204 0.09221026 -0.51443475 -0.17059772 -0.3041624
0.24022397 0.048720956 0.20438555 -0.14335306 -0.4094988 -0.56848663 0.19225419 -0.08463037
-0.03065964 0.16249721 -0.025862569 -0.10273835 0.110447794 0.4462174 -0.018339882 -0.20185381
0.109664306 0.03538795 0.03238393 0.34887493 0.08181487 0.3519267 -0.18939325 0.032521885
0.33668607 0.055839762 -0.33703676 0.21150966 0.5220207 -0.30302536 0.18618679 0.033756107
-0.17083053 0.23038703 -0.026687153 -0.27647325 -0.0057224524 -0.19834325 -0.22143209 -0.027633969
-0.094108395 0.19856714 -0.44722423 0.03082609 -0.23368847 0.1820856 0.26350623 0.17997724
-0.05191674 0.47518516 -0.13516898 -0.18585728 -0.10707449 -0.14478226 -0.17647792 -0.21875134
0.3764774 0.022716984 -0.0362143 -0.3695171 0.43894902 0.19445221 -0.027179105 -0.27009723
-0.02214713 -0.21878637 0.05984135 -0.26046082 0.23771726 0.18127684 0.06100105 -0.12382367
0.24104783 0.37804404 -0.17311396 -0.22504972 -0.068948895 -0.6862599 0.13952696 0.1437569
-0.38039947 0.22017509 -0.21469103 0.034219895 0.4418168 -0.04816253 0.26935783 -0.29223254
0.25410375 -0.51817554 -0.23639505 -0.06417693 -0.12279285 -0.24226652 0.17233783 -0.08129682
0.019906785 0.12672608 -0.022325976 0.28084126 0.09314163 0.025287854 -0.25380203 0.19056615
0.30284533 -0.18682908 -0.49804106 0.03227438 -0.010462498 -0.4274881 0.40787077 0.2543974
0.05536931 -0.3443966 -0.18281393 0.0074193864 -0.10457908 0.16616595 0.38313255 -0.078255795
0.30195525 -0.10963921 -0.1794885 0.38786775 0.26619542 0.45813766 0.06421731 -0.238178
00000000: 9b3c f1be fefb c13e 87b4 743e 9625 8b3e
00000010: 9086 79be 4899 913d 0743 cf3e d2ca 633c
00000020: fc4f 20be a724 6cbd d4d9 adbe aa22 143e
00000030: 026a 5cbe 901c d8be 87df 143f 5949 713e
00000040: 70d2 193e c05e cc3d 3f93 343d 3099 c53e
00000050: e4f7 c1be e556 b6be 238e 1abf 9053 70be
00000060: 2b0b a33e d5b7 d9bd 9171 c63e 07be b1bd
00000070: 0c76 c63e 1471 123e ef7a aebe c91c 94bd
00000080: 85b9 bcbe 4a6e 273d e656 b73d 93f8 3e3e
00000090: 64d4 b53e 6ca0 ef3d db4b adbe 737b edbe
000000a0: 9ee0 453e 1322 0a3e 40b7 1b3f 2d53 9f3e
000000b0: ea87 043e 0a6e ebbd ade9 e73d a0a3 bdbd
000000c0: f336 e93d 3d18 ccbd 50a6 81be 8220 173e
000000d0: 4d0d 80bc 86d4 04be 1332 06be 968a 783e
000000e0: b56d 043e 3c2e 3c3e 8a30 e73e 4a1d b13e
000000f0: c220 dfbe e5f9 cd3d 95a2 61bd 36f2 a93d
00000100: bd00 133d e863 37bd 77a2 a4bd 434d 97be
00000110: 3880 c13e e16f 043d 86a9 57bd 6772 f4be
00000120: ad1c 64be 6c76 253e 9d23 a2be 9b3a c2be
00000130: f81b 823e 3c41 893e 7a7c 503e 0137 d5be
00000140: e3ac 673e 9970 61bd d17c 063e 0fc7 29bd
00000150: 1b11 19be 5579 8b3e 8c88 87be fedb 233d
00000160: fbe3 103e b73c f93e 51ac 7d3e f8e5 3f3e
00000170: 1967 d4be 4cd5 d73e 14ce f1bd 8703 8c3e
00000180: db8f 743e 0f09 543e 982c a03d 909f 37be
00000190: 44b0 8bbc e152 4a3d bd0d 2b3e 6433 af3e
000001a0: fa8b 67be 0b80 ac3e 3062 723e 4f93 b13e
000001b0: 9ad9 553d 69dc c13e 93e7 4c3e d21b 07be
000001c0: 58e3 7f3e f66f 03be f9da c0be 9c6e 9abe
000001d0: 2f66 4cbe 2e4f d5be 52da 593d 0dfd a3be
000001e0: 7488 563e 200a 26be 3b05 833d 0137 d5bc
000001f0: bcd8 bc3d ffb1 03bf 2bb1 2ebe 2dbb 9bbe
00000200: 46fd 753e a08f 473d 724a 513e 25cb 12be
00000210: d4a9 d1be 5788 11bf 48de 443e b052 adbd
00000220: ed29 fbbc ab65 263e bddd d3bc 7c68 d2bd
00000230: 7432 e23d 9b76 e43e 853d 96bc c4b2 4ebe
00000240: ae97 e03d f4f2 103d 03a5 043d bc9f b23e
00000250: 8e8e a73d bd2f b43e 4ef0 41be ab35 053d
00000260: 1e62 ac3e 3cb8 643d 1590 acbe fd95 583e
00000270: 26a3 053f 2426 9bbe c0a7 3e3e d843 0a3d
00000280: 33ee 2ebe 94ea 6b3e 049f dabc e78d 8dbe
00000290: 6983 bbbb 7e1a 4bbe 18bf 62be a260 e2bc
000002a0: e7bb c0bd 2f55 4b3e 93fa e4be ff86 fc3c
000002b0: 084c 6fbe a674 3a3e 4aea 863e f44b 383e
000002c0: a6a6 54bd 784b f33e bd69 0abe 5f51 3ebe
000002d0: df49 dbbd cd41 14be a1b6 34be 5a00 60be
000002e0: a5c1 c03e f818 ba3c 7255 14bd 5831 bdbe
000002f0: edbd e03e 7b1e 473e b7a6 debc 2f4a 8abe
00000300: e66d b5bc 8909 60be 341c 753d 1f5b 85be
00000310: 276c 733e a3a0 393e 3ddc 793d 4497 fdbd
00000320: 3ed5 763e fd8e c13e c944 31be 6f73 66be
00000330: 1435 8dbd bbae 2fbf 28e0 0e3e 0235 133e
00000340: b8c3 c2be 9475 613e f7d7 5bbe 292a 0c3d
00000350: d035 e23e 1346 45bd 45e9 893e 819f 95be
00000360: e319 823e 27a7 04bf 8b11 72be 326f 83bd
00000370: d17a fbbd b714 78be 5479 303e f27e a6bd
00000380: 8e13 a33c 7bc4 013e f7e4 b6bc 6dca 8f3e
00000390: 0ac1 be3d 7928 cf3c 57f2 81be c623 433e
000003a0: 8b0e 9b3e 1f50 3fbe 3dff febe 2432 043d
000003b0: e66a 2bbc b8df dabe 70d4 d03e 6040 823e
000003c0: eeca 623d c054 b0be 9333 3bbe 531e f33b
000003d0: 8f2d d6bd 6827 2a3e f329 c43e 9344 a0bd
000003e0: e199 9a3e 868a e0bd d5cb 37be 9a96 c63e
000003f0: c44a 883e 0591 ea3e 5d84 833d efe4 73be

encoder.3.bias f4 [16]
0.1858858 -0.036955446 0.021287719 -0.103325374 -0.1652232 0.12510706 -0.06929206 -0.13984898
0.029264584 0.16879286 -0.10641278 -0.0020700602 0.07185115 -0.13270551 0.08764918 0.019563522
00000000: d958 3e3e 985e 17bd 9563 ae3c 419c d3bd
00000010: 4530 29be 111c 003e ffe8 8dbd 9234 0fbe
00000020: 48bc ef3c 09d8 2c3e f2ee d9bd d9a9 07bb
00000030: b226 933d f4e3 07be 6a81 b33d ae43 a03c

encoder.6.weight f4 [16, 16]
-0.2522997 0.2664718 0.16884142 0.39851686 0.19012259 -0.3400545 0.24349424 -0.24149853
0.11545939 0.1435901 -0.19743195 0.2140348 -0.14373402 0.30224845 -0.17842272 0.2273291
-0.3621025 -0.18591285 -0.18154208 -0.17068566 -0.37893242 0.33465323 -0.038767654 -0.049673002
-0.05697744 -0.31122226 -0.38310763 0.26405215 -0.09943982 0.108551495 -0.021273613 0.40051517
-0.23174864 0.051565036 -0.03315336 0.4970095 -0.13314925 0.11824859 0.19009759 0.05242601
0.34881163 -0.06700766 -0.42420208 0.21435598 -0.43225834 0.13438809 -0.3661891 0.3363899
0.26027948 -0.08194612 -0.38558993 -0.36354163 0.19718023 -0.28053707 0.23538582 -0.037465133
-0.1163218 0.26952735 -0.18662977 0.3375731 0.403769 0.09122337 -0.22665544 0.46965992
-0.53663576 0.43684503 0.08408862 0.009701868 -0.044949103 -0.07222834 0.44127497 0.16001126
0.17570056 -0.26737866 -0.2902974 0.28020817 -0.23787045 0.2033022 0.36024332 -0.024944736
-0.3381581 -0.26195613 -0.18092524 0.34111202 0.07962056 -0.10466226 -0.1441083 -0.26841334
-0.086959325 -0.30258444 -0.02065621 0.08497253 0.31603998 0.26302722 -0.47796622 -0.13842893
0.24830955 0.19922654 0.030281505 -0.1400523 -0.22129434 -0.04779964 0.1370523 -0.3365009
-0.5166484 0.43275306 0.31824842 0.39935246 -0.2763632 -0.288316 0.27149966 0.2708726
0.14440647 -0.08568959 0.2299142 0.30422756 -0.14000106 0.124593586 0.12351139 0.11392564
-0.008907634 0.32475245 -0.10441542 0.39089015 -0.2955232 -0.057627868 0.27967077 -0.14983827
-0.47530136 -0.11963692 -0.26334396 0.101153076 0.10463042 0.11308834 0.42788804 -0.009658218
0.35014978 0.46355093 0.1311976 -0.15063657 -0.060526274 0.012700257 0.080252446 0.13629283
-0.03690683 0.3735216 0.030490361 -0.15382339 0.41113326 0.3568763 -0.13829462 0.051897686
0.19426806 -0.66909605 -0.08331305 0.2213643 -0.31112996 -0.23946711 -0.26920462 0.13944198
-0.22315162 0.722118 0.47873494 0.16723369 -0.3209837 0.18335876 0.29038224 -0.008908314
0.3191807 -0.2953684 0.30022803 0.5367361 0.009821958 -0.46401432 -0.27567196 0.31459284
-0.050325077 -0.4243117 -0.061103936 -0.28866732 -0.112571165 0.24089575 0.08532538 0.015244789
-0.18777846 0.3286375 0.36779988 0.4624826 0.36418337 -0.4089157 -0.24675468 -0.25279364
-0.08362392 -0.45697618 0.33444452 -0.33002514 0.2852321 0.09560896 -0.06790827 0.26670927
-0.27218887 0.34144017 0.18150476 -0.27290863 0.30929646 0.27190077 0.06837305 -0.22655323
0.1666819 0.13880275 0.11877419 -0.17262237 0.041126154 -0.21796936 0.34068128 -0.091939256
0.15638562 -0.35386935 0.4909224 0.21414624 -0.27876788 0.3147818 0.25607887 -0.12560818
-0.49959725 0.10710998 -0.24730408 -0.116198085 0.02106332 -0.2676302 0.13625166 0.23787478
0.086911865 0.10736787 0.063614145 -0.25043765 -0.18049821 0.44566894 0.21714729 0.08856364
-0.58548975 0.41673538 0.147052 -0.3258643 0.055575363 0.006765446 0.11412454 0.37141845
0.32149705 0.0808998 0.21365926 0.34194383 -0.572075 -0.3204195 0.078201644 0.29424936
00000000: 6d2d 81be fe6e 883e c4e4 2c3e 670a cc3e
00000010: 7faf 423e a01b aebe 8e56 793e 644b 77be
00000020: f975 ec3d 4809 133e 9a2b 4abe f02b 5b3e
00000030: 032f 13be 4fc0 9a3e 72b4 36be f6c8 683e
00000040: 8065 b9be f05f 3ebe 2be6 39be 39c8 2ebe
00000050: 6e03 c2be ab57 ab3e d5ca 1ebd eb75 4bbd
00000060: 2d61 69bd 8658 9fbe af26 c4be d831 873e
00000070: 1ba7 cbbd 3f50 de3d 0046 aebc 5310 cd3e
00000080: 844f 6dbe dc35 533d d1cb 07bd 0778 fe3e
00000090: 4758 08be 512c f23d f1a8 423e a8bc 563d
000000a0: 7097 b23e 503b 89bd 0431 d9be 2280 5b3e
000000b0: f750 ddbe 089d 093e 237d bbbe 4c3b ac3e
000000c0: 5a43 853e 5ed3 a7bd 0b6c c5be 2122 babe
000000d0: 9de9 493e 8ea2 8fbe fb08 713e 0a75 19bd
000000e0: 203a eebd 7dff 893e e01b 3fbe 62d6 ac3e
000000f0: cfba ce3e 51d3 ba3d 5d18 68be 4477 f03e
00000100: f660 09bf 27aa df3e a836 ac3d 95f4 1e3c
00000110: 8d1c 38bd 74ec 93bd cbee e13e fed9 233e
00000120: d9ea 333e dbe5 88be dca1 94be 7277 8f3e
00000130: 5094 73be 742e 503e d071 b83e e758 ccbc
00000140: 0f23 adbe 1d1f 86be 7744 39be 3ca6 ae3e
00000150: 1b10 a33d 2b59 d6bd 2091 13be 796d 89be
00000160: bb17 b2bd 59ec 9abe 3637 a9bc 1406 ae3d
00000170: fecf a13e 81ab 863e fdb7 f4be 50c0 0dbe
00000180: dc44 7e3e 0b02 4c3e eb10 f83c df69 0fbe
00000190: fc9a 62be 8ec9 43bd 7057 0c3e d949 acbe
000001a0: 1243 04bf cf91 dd3e 75f1 a23e ed77 cc3e
000001b0: 7a7f 8dbe 289e 93be 0102 8b3e d0af 8a3e
000001c0: 4adf 133e 067e afbd a16e 6b3e b7c3 9b3e
000001d0: 705c 0fbe ec2a ff3d 8af3 fc3d d951 e93d
000001e0: 53f1 11bc f445 a63e c0d7 d5bd c122 c83e
000001f0: d14e 97be 330b 6cbd 0231 8f3e 346f 19be
00000200: b35a f3be 3404 f5bd 05d5 86be 5829 cf3d
00000210: 7948 d63d dc9a e73d 2414 db3e 813d 1ebc
00000220: d546 b33e 8c56 ed3e aa58 063e 7940 1abe
00000230: 66ea 77bd bd14 503c 655b a43d 5990 0b3e
00000240: 9e2b 17bd 393e bf3e ecc6 f93c e183 1dbe
00000250: 0f80 d23e 7eb8 b63e 1b9d 0dbe ab92 543d
00000260: 35ee 463e e149 2bbf 08a0 aabd 53ad 623e
00000270: 6d4c 9fbe de36 75be 30d5 89be e1c9 0e3e
00000280: dc81 64be badc 383f bf1c f53e 4f3f 2b3e
00000290: fa57 a4be 66c2 3b3e fbac 943e 2df4 11bc
000002a0: a76b a33e 873a 97be 7db7 993e 8967 093f
000002b0: 47ec 203c 4993 edbe e024 8dbe 5012 a13e
000002c0: ab21 4ebd 623f d9be 1f48 7abd 34cc 93be
000002d0: b68b e6bd 60ad 763e 13bf ae3d 48c5 793c
000002e0: ff48 40be 2d43 a83e 4450 bc3e 85ca ec3e
000002f0: 3e76 ba3e 665d d1be 42ad 7cbe 2b6e 81be
00000300: 0543 abbd c8f8 e9be 503c ab3e 0ef9 a8be
00000310: f109 923e a1ce c33d 7e13 8bbd 1e8e 883e
00000320: 575c 8bbe 3fd1 ae3e 62dc 393e aeba 8bbe
00000330: 1b5c 9e3e 9436 8b3e 2b07 8c3d 92fd 67be
00000340: a9ae 2a3e 4f22 0e3e e23f f33d ebc3 30be
00000350: e673 283d 5c33 5fbe c76d ae3e a64a bcbd
00000360: 8d23 203e 5d2e b5be 2e5a fb3e 2749 5b3e
00000370: aaba 8ebe 152b a13e c51c 833e 6e9f 00be
00000380: 36cb ffbe 7a5c db3d 483d 7dbe 43f9 edbd
00000390: fc8c ac3c d306 89be 8e85 0b3e 7295 733e
000003a0: d9fe b13d b0e3 db3d 2248 823d 5d39 80be
000003b0: 86d4 38be b82e e43e dc5b 5e3e db60 b53d
000003c0: a8e2 15bf 575e d53e cd94 163e afd7 a6be
000003d0: fea2 633d adb0 dd3b 20ba e93d 8f2a be3e
000003e0: 439b a43e cbae a53d 7ec9 5a3e 4313 af3e
000003f0: 8273 12bf 060e a4be 2f28 a03d daa7 963e

encoder.6.bias f4 [16]
-0.087165624 0.060434602 0.001356659 -0.14252864 -0.06815612 0.05856855 0.1624088 0.04446483
0.03180442 -0.0096808085 -0.03201698 0.042063057 -0.05516937 -0.1822147 -0.0037508798 -0.038564164
00000000: e483 b2bd 468a 773d ecd1 b13a 07f3 11be
00000010: 7095 8bbd 93e5 6f3d 7e4e 263e c120 363d
00000020: 5a45 023d 419c 1ebc 3d24 03bd 504a 2c3d
00000030: 47f9 61bd 7e96 3abe 52d1 75bb 75f5 1dbd

encoder.9.weight f4 [16, 16]
-0.32166612 -0.047339436 -0.23518527 -0.02326202 0.2624661 -0.26788414 -0.20550802 0.2508816
0.17834209 -0.033728354 0.2771161 -0.3448697 -0.17351107 -0.33196115 0.06705258 0.398418
0.4813702 -0.051751535 -0.20392054 -0.35827973 0.334446 0.19914402 0.42285967 -0.10046086
-0.1666694 0.6433194 -0.48170528 -0.18372841 0.14156547 -0.1318749 0.33111438 -0.029337602
-0.4739456 -0.37199557 -0.25689387 0.28273937 0.050565332 0.03891273 -0.36892575 0.2429134
-0.13808076 0.5050568 -0.08844981 0.42311475 0.45446694 -0.17600457 -0.21124002 -0.33340463
0.077807195 0.15847243 0.17987815 -0.5883839 0.096404284 -0.1915335 -0.16928415 0.1318706
-0.15009695 0.24721338 0.4711478 0.050755307 0.10795356 -0.20815587 -0.20706087 0.14371952
0.19221824 -0.22061695 0.2955054 -0.32586738 -0.16509187 -0.23329048 0.27534357 -0.0577155
0.25068146 0.14604563 0.33521712 0.2558479 -0.32784784 -0.29651684 -0.19233601 -0.1459439
0.3845944 0.036472857 0.5243902 -0.17535932 0.22247039 0.276522 -0.3943811 -0.3136575
-0.14616744 -0.40437356 0.22363128 0.05500121 -0.33310404 0.37943158 -0.42869055 -0.16874996
0.2232335 0.323161 -0.009749266 -0.25660962 -0.13596058 -0.060473654 -0.42976692 -0.35385674
0.047271695 -0.40735558 -0.018603837 -0.3142641 0.2578241 -0.066027656 0.3006851 0.40886483
-0.23167408 -0.27929997 -0.4037953 0.022451809 -0.37101793 -0.46412337 0.16755277 0.06489396
-0.0152159985 -0.25242433 -0.16252804 0.28557485 -0.06067874 0.23319702 0.18926525 -0.48643264
-0.2139136 -0.080116 -0.16644879 0.13203885 0.27085912 0.35472426 -0.22027609 0.22091553
-0.21108517 0.02503542 -0.13234518 -0.4334708 0.0017154296 -0.12699485 0.18491298 0.05663339
-0.06383534 0.36506712 0.19891338 -0.13144822 0.044037845 -0.5437802 0.21137783 -0.06867925
0.35804784 -0.3367687 -0.05193484 0.0007631509 0.2535258 -0.0115303425 -0.03693899 0.059318487
0.09255918 0.1092526 -0.063209146 -0.29439852 0.24665806 0.17810123 0.20464303 -0.2155554
0.11914991 0.29076225 -0.31552005 0.09485508 -0.27490965 -0.0051835207 0.031350568 0.45275745
0.2668754 -0.24665244 -0.12112264 -0.23850983 0.21130641 0.051283743 -0.1185951 0.3050441
0.07967466 0.08863018 -0.46204418 -0.409075 0.28694978 0.21368866 0.2223308 -0.545398
-0.13889073 -0.26594764 -0.061570197 0.28798714 -0.3964182 0.14684577 0.044330753 -0.42047873
-0.41788903 0.2889497 0.31419563 0.29563364 0.066357255 0.2835756 0.19871274 -0.24755695
-0.018970463 0.16609083 0.059381135 0.013960123 -0.15299547 0.18045044 0.37035185 -0.13598013
-0.5411131 0.16621819 0.4276942 0.1472705 0.030782783 0.33072734 -0.16599599 -0.2837573
-0.33201194 0.06241484 -0.30300114 0.42090762 -0.12492536 -0.079501525 0.20332058 -0.29492024
-0.45027927 0.47815505 -0.23723564 -0.0304341 0.41359288 0.038061526 0.19258964 -0.1080871
0.19608425 0.18932506 -0.070426285 0.03308186 -0.19322483 0.2704947 -0.047298174 -0.00660717
-0.2823054 -0.37385815 -0.14979637 0.039970886 -0.26250583 0.15605927 0.23167121 -0.10956433
00000000: 6cb1 a4be ffe6 41bd 68d4 70be fe8f bebc
00000010: f561 863e 1c28 89be b270 52be 8e73 803e
00000020: 4f9f 363e be26 0abd 29e2 8d3e c392 b0be
00000030: e3ac 31be d0f6 a9be dd52 893d 72fd cb3e
00000040: 2876 f63e 6bf9 53bd 8cd0 50be 7170 b7be
00000050: 823c ab3e 69ec 4b3e 1081 d83e 6cbe cdbd
00000060: 62ab 2abe 95b0 243f 13a2 f6be 4d23 3cbe
00000070: 8af6 103e 370a 07be d387 a93e 6955 f0bc
00000080: ffa8 f2be 3476 bebe 9887 83be 37c3 903e
00000090: 981d 4f3d f462 1f3d d6e3 bcbe 4abe 783e
000000a0: 0b65 0dbe 674b 013f 2d25 b5bd 7fa2 d83e
000000b0: e4af e83e 8b3a 34be 4e4f 58be 03b4 aabe
000000c0: 6159 9f3d 9946 223e fa31 383e 54a0 16bf
000000d0: 9c6f c53d 5c21 44be d358 2dbe 1609 073e
000000e0: 04b3 19be 8125 7d3e 493a f13e cce4 4f3d
000000f0: c216 dd3d d026 55be c407 54be 362b 133e
00000100: dcd4 443e 69e9 61be 7c4c 973e 17d8 a6be
00000110: d80d 29be b3e3 6ebe d5f9 8c3e 1767 6cbd
00000120: 5259 803e fc8c 153e 94a1 ab3e 7ffe 823e
00000130: acdb a7be 0ed1 97be bbf3 44be 5172 15be
00000140: 8fe9 c43e 9064 153d 703e 063f 6591 33be
00000150: 47cf 633e 4b94 8d3e 52ec c9be b797 a0be
00000160: ebac 15be 0d0a cfbe 99ff 643e f348 613d
00000170: 9d8c aabe db44 c23e 547d dbbe cacc 2cbe
00000180: 5397 643e 5c75 a53e 63bb 1fbc 5662 83be
00000190: 4039 0bbe 39b3 77bd 690a dcbe b62c b5be
000001a0: f79f 413d e990 d0be 1367 98bc 39e7 a0be
000001b0: 8501 843e 8239 87bd 66f3 993e bb56 d13e
000001c0: f83b 6dbe 6800 8fbe 42be cebe dbec b73c
000001d0: 10f6 bdbe 94a1 edbe f492 2b3e 20e7 843d
000001e0: 864c 79bc c33d 81be c06d 26be de36 923e
000001f0: 458a 78bd 33cb 6e3e c0ce 413e b30d f9be
00000200: 2b0c 5bbe db13 a4bd 8d71 2abe 3135 073e
00000210: 0cae 8a3e 6b9e b53e 0e90 61be ae37 623e
00000220: b626 58be 1517 cd3c 7f85 07be e2ef ddbe
00000230: 44d8 e03a f00a 02be d459 3d3e 6af8 673d
00000240: 1abc 82bd 14ea ba3e f3af 4b3e 5d9a 06be
00000250: 0761 343d 2e35 0bbf 6e73 583e b5a7 8cbd
00000260: 0c52 b73e f26c acbe a0b9 54bd 310e 483a
00000270: 22ce 813e c3e9 3cbc 574d 17bd f1f7 723d
00000280: ab8f bd3d d4bf df3d cc73 81bd 67bb 96be
00000290: ee93 7c3e 2b60 363e f18d 513e 8eba 5cbe
000002a0: de04 f43d cade 943e d88b a1be 6143 c23d
000002b0: f5c0 8cbe 86da a9bb 7469 003d d3cf e73e
000002c0: e4a3 883e 7592 7cbe 260f f8bd ec3b 74be
000002d0: b560 583e e70e 523d fde1 f2bd be2e 9c3e
000002e0: 782c a33d bd83 b53d 0e91 ecbe 4772 d1be
000002f0: 15eb 923e 33d1 5a3e afaa 633e 349f 0bbf
00000300: 5f39 0ebe 4a2a 88be 0831 7cbd 0d73 933e
00000310: 54f7 cabe bd5e 163e 2a94 353d fd48 d7be
00000320: 8df5 d5be 37f1 933e 40de a03e 4b5d 973e
00000330: 50e6 873d d230 913e 5a7b 4b3e 927f 7dbe
00000340: f267 9bbc b713 2a3e a239 733d 00b9 643c
00000350: d8aa 1cbe 00c8 383e c29e bd3e 603e 0bbe
00000360: 6386 0abf 1a35 2a3e bcfa da3e 14ce 163e
00000370: 2d2c fc3c 1855 a93e dafa 29be a348 91be
00000380: 78fd a9be b4a6 7f3d f722 9bbe 3481 d73e
00000390: ded8 ffbd b2d1 a2bd 4533 503e c9ff 96be
000003a0: 018b e6be bdd0 f43e e6ed 72be ef50 f9bc
000003b0: 72c2 d33e 67e6 1b3d 3836 453e c55c ddbd
000003c0: 4fca 483e 6ede 413e a83b 90bd d880 073d
000003d0: bbdc 45be 487e 8a3e bbbb 41bd f680 d8bb
000003e0: 558a 90be 566a bfbe 3864 19be 83b8 233d
000003f0: 2a67 86be 00ce 1f3e 383b 6d3e 4363 e0bd

encoder.9.bias f4 [16]
0.097325474 0.07803561 0.12511048 0.055919178 0.25011808 -0.21023348 0.09506735 0.033248413
-0.0697867 -0.23319472 0.27398744 -0.0037869564 0.19525313 -0.13338804 0.024726903 0.26265106
00000000: 9452 c73d 22d1 9f3d f61c 003e 820b 653d
00000010: 7a0f 803e 7247 57be acb2 c23d 7d2f 083d
00000020: 54ec 8ebd 99ca 6ebe 1548 8c3e 962e 78bb
00000030: 70f0 473e e096 08be 1390 ca3c 337a 863e

pretraining_head.0.weight f4 [16, 16]
-0.111584745 -0.09466911 -0.1832521 -0.08717688 -0.25614953 0.117004216 -0.3792966 -0.31764126
-0.055812053 0.40544423 -0.33335492 0.009458979 0.16338988 -0.20668924 0.20177089 -0.08696347
0.0037256791 -0.22728778 -0.48594123 0.09342908 0.2682928 -0.25250155 0.16901574 0.24241939
-0.23166692 0.08121313 0.18316181 -0.18444997 -0.091355115 -0.39518937 0.09174285 -0.019289251
-0.36511567 0.070123084 -0.010594714 -0.20905747 -0.34637156 0.14860795 -0.24637319 0.043921303
-0.20668736 -0.12702206 -0.32454222 0.3607397 0.007815181 0.018299023 0.095647454 0.013476468
0.08368583 0.23087554 0.02235172 -0.4369589 -0.015036977 0.15691482 0.13478585 0.29033464
0.10602522 -0.29375893 0.18904774 -0.20668681 -0.10694385 -0.33409804 -0.034865484 0.25959265
-0.00031253236 -0.10917619 0.03754645 -0.3701915 0.21369424 -0.008644862 -0.41411337 0.21082777
-0.13958003 -0.18075295 -0.16320524 -0.05165844 0.29538822 -0.31752884 0.04629434 0.34900904
-0.14867108 0.03914357 -0.13646609 0.016983699 -0.3995436 0.052322693 -0.19112311 0.15405136
0.016361667 0.16108248 -0.39695743 0.34033695 -0.08437814 -0.18476361 0.14757012 -0.08436081
-0.3985147 0.2975229 0.18567264 0.07585862 -0.24589217 -0.20894887 0.38281727 -0.20313586
0.09877031 0.0037709696 0.07789113 0.22433162 0.085558124 -0.2442689 0.2430016 0.27627894
0.18004529 -0.13628419 -0.424449 0.2649739 0.33689076 0.25163814 0.2694797 0.2088191
0.06724802 -0.023130367 0.052212745 -0.06250139 -0.2678363 -0.48986554 -0.07135212 0.35823277
-0.16849822 0.17005959 -0.065582916 -0.38179517 -0.20320866 -0.142396 -0.13115597 0.25329944
0.19346714 0.052019414 -0.10944538 -0.3709997 -0.06385284 0.15537074 0.08349693 -0.21481456
-0.32765704 0.01135016 -0.123703964 0.10604684 0.13423124 0.25884625 -0.0465802 0.24907061
0.21923487 -0.327028 0.20957519 0.023893666 -0.05390579 -0.43417272 0.18200906 -0.27237004
0.08719371 0.2955572 0.2976268 0.063352734 0.32927072 -0.33696288 -0.41211897 0.42530376
-0.1031211 0.34295318 0.21346925 0.36985907 -0.30521274 0.23502399 0.14378305 0.18662252
0.29797763 0.2889666 -0.29188836 0.26330426 -0.057222474 -0.45798433 0.12571912 0.13955249
0.006232524 -0.15257646 0.3456703 -0.109505266 0.16794309 -0.3592895 0.14745401 -0.2674369
0.51406294 0.14323777 -0.5014651 0.57782966 0.066665985 0.1885148 -0.2178595 -0.16893025
0.006462303 -0.017833192 0.44895238 -0.4342555 -0.4237155 0.30678684 -0.6200929 -0.2111934
0.15004648 0.18243349 -0.44042566 -0.034033276 -0.27443466 0.35975188 0.17930374 0.09339603
0.22872142 -0.33077034 -0.27933714 -0.43271926 -0.087899834 -0.5408929 0.13497373 0.12762322
-0.12612481 -0.2964331 0.29234654 -0.26948893 0.0066231685 0.03301394 -0.23559478 -0.08415062
-0.16254248 0.14122918 0.20871362 -0.3876811 -0.22838083 -0.5311774 -0.32024875 -0.2405182
0.18191482 -0.073575325 -0.35523534 0.23035327 0.36794764 0.24931265 0.4095797 0.20647795
0.08317461 -0.076716706 -0.122392975 -0.19856398 -0.3194931 -0.48245046 0.011177001 0.28867674
00000000: 8b86 e4bd e1e1 c1bd 70a6 3bbe cb89 b2bd
00000010: 0826 83be e89f ef3d 2a33 c2be e0a1 a2be
00000020: 2e9b 64bd 6396 cf3e 7fad aabe d5f9 1a3c
00000030: ad4f 273e 58a6 53be 079d 4e3e e719 b2bd
00000040: 862a 743b 21be 68be 4acd f8be bf57 bf3d
00000050: ad5d 893e e247 81be 7612 2d3e ca3c 783e
00000060: 183a 6dbe 1253 a63d c58e 3b3e 74e0 3cbe
00000070: 6418 bbbd 4356 cabe ade3 bb3d 7e04 9ebc
00000080: 71f0 babe b19c 8f3d 7495 2dbc 2913 56be
00000090: 9d57 b1be af2c 183e 4149 7cbe d3e6 333d
000000a0: daa5 53be 1212 02be 662a a6be e0b2 b83e
000000b0: 3f0b 003c d5e7 953c d0e2 c33d 67cc 5c3c
000000c0: 7a63 ab3d a36a 6c3e f41a b73c 14b9 dfbe
000000d0: a75d 76bc 47ae 203e 4d05 0a3e bea6 943e
000000e0: c023 d93d 9267 96be bb95 413e b5a5 53be
000000f0: 6105 dbbd e60e abbe 1ccf 0ebd 54e9 843e
00000100: 62db a3b9 c497 dfbd 4eca 193d be89 bdbe
00000110: aad2 5a3e 2ea3 0dbc ab06 d4be 3ce3 573e
00000120: 11ee 0ebe 4d17 39be 461f 27be cd97 53bd
00000130: 203d 973e 2493 a2be 229f 3d3d 50b1 b23e
00000140: 3b3d 18be 0255 203d c4bd 0bbe 6621 8b3c
00000150: fb90 ccbe 5250 563d c7b5 43be a4bf 1d3e
00000160: e708 863c cef2 243e 013e cbbe a540 ae3e
00000170: 72ce acbd ac32 3dbe 9f1c 173e 5cc5 acbd
00000180: 1e0a ccbe ec54 983e f820 3e3e c45b 9b3d
00000190: 28cb 7bbe b1f6 55be a000 c43e d902 50be
000001a0: 1748 ca3d 5f22 773b 6285 9f3d 30b7 653e
000001b0: 1939 af3d a021 7abe 69d5 783e 6f74 8d3e
000001c0: cb5d 383e 158e 0bbe 6151 d9be a9aa 873e
000001d0: f27c ac3e b7d6 803e 3ef9 893e add4 553e
000001e0: 54b9 893d e57b bdbc 08dd 553d bb00 80bd
000001f0: d721 89be a8cf fabe 0f21 92bd 496a b73e
00000200: cc8a 2cbe 1a24 2e3e 5650 86bd a87a c3be
00000210: ee15 50be 42d0 11be c04d 06be 77b0 813e
00000220: 401c 463e 4f12 553d e624 e0bd acf3 bdbe
00000230: 47c5 82bd 8219 1f3e 7000 ab3d 59f8 5bbe
00000240: aac2 a7be 06f6 393c 8158 fdbd 162f d93d
00000250: ea73 093e 7f87 843e e1ca 3ebd 5e0c 7f3e
00000260: 1b7f 603e 3770 a7be e19a 563e a6bc c33c
00000270: 51cc 5cbd e34b debe 9560 3a3e 1674 8bbe
00000280: 9e92 b23d 4653 973e 8a62 983e 14bf 813d
00000290: 2c96 a83e 6686 acbe 4201 d3be 6ac1 d93e
000002a0: 2831 d3bd 8f97 af3e af97 5a3e 2b5e bd3e
000002b0: d844 9cbe 21aa 703e dd3b 133e f919 3f3e
000002c0: 8690 983e 6ef3 933e 6472 95be d1cf 863e
000002d0: 1d62 6abd ec7c eabe 83bc 003e d9e6 0e3e
000002e0: 333a cc3b 013d 1cbe b3fb b03e 4c44 e0bd
000002f0: 46f9 2b3e cbf4 b7be 2ffe 163e 7ded 88be
00000300: a199 033f ecac 123e 0460 00bf a5ec 133f
00000310: 2d88 883d 060a 413e 9016 5fbe 0dfc 2cbe
00000320: bac1 d33b ea16 92bc 16dd e53e bd56 debe
00000330: 3df1 d8be 2a13 9d3e 69be 1ebf 1543 58be
00000340: c9a5 193e d8cf 3a3e 797f e1be 7a66 0bbd
00000350: b382 8cbe 6631 b83e 669b 373e 6b46 bf3d
00000360: f335 6a3e bb5a a9be 4705 8fbe 618d ddbe
00000370: d404 b4bd f577 0abf 8e36 0a3e a9af 023e
00000380: dd26 01be 14c6 97be 72ae 953e 74fa 89be
00000390: 2a07 d93b a039 073d c23f 71be 2957 acbd
000003a0: 8971 26be 629e 103e 06b9 553e 237e c6be
000003b0: aadc 69be 3efb 07bf a5f7 a3be 674a 76be
000003c0: e147 3a3e a9ae 96bd 68e1 b5be bae1 6b3e
000003d0: a263 bc3e d14b 7f3e 6eb4 d13e f56e 533e
000003e0: 7357 aa3d a61d 9dbd 2ba9 fabd 5b54 4bbe
000003f0: 9994 a3be bf03 f7be bd1f 373c 70cd 933e

pretraining_head.0.bias f4 [16]
-0.19521375 -0.025534144 -0.08568021 -0.17908573 0.29041538 -0.24022153 0.23588176 -0.0050096246
-0.061115455 -0.07467936 0.095467545 0.27243203 -0.054170445 -0.17850028 -0.071029246 -0.03538222
00000000: 1de6 47be fb2c d1bc 1b79 afbd 4062 37be
00000010: 53b1 943e a2fc 75be fd8a 713e c727 a4bb
00000020: 3354 7abd 7ef1 98bd 7d84 c33d 367c 8b3e
00000030: d4e1 5dbd c7c8 36be c877 91bd f2ec 10bd

pretraining_head.3.weight f4 [16, 16]
-0.18820447 0.025156377 -0.117584765 0.10509665 0.031043608 -0.018721567 -0.021102153 -0.32356954
0.23769826 0.30647746 -0.020807663 0.091648884 -0.24376376 0.13558012 0.14506082 -0.22196233
0.2513141 -0.040635616 0.08053838 0.13347064 0.46439832 -0.048253197 0.112232395 -0.25386962
0.23359731 0.42013568 -0.5232879 -0.23401572 -0.12822682 0.32561088 -0.04002625 0.018049736
-0.23903847 -0.23253141 0.010142772 0.0504152 -0.076578 -0.05425121 0.24631418 -0.04984291
-0.1861601 0.4257388 -0.025347847 0.2610108 -0.27427375 0.09699319 0.0013663645 -0.33999583
-0.28533015 -0.28653568 0.12890384 -0.034929276 -0.449053 0.42017436 0.5603422 -0.088936634
-0.22146139 -0.070472 -0.32633638 -0.08724204 0.18109235 -0.05627619 -0.496915 0.3081435
-0.19116701 0.08316778 -0.2566027 0.013431965 0.33467415 -0.19049752 0.12429536 -0.59256464
0.22511084 0.08537457 0.19168949 0.09759086 -0.6899489 -0.062144343 0.19262393 -0.3890575
-0.11930434 -0.24035437 0.14882103 0.17852303 0.21803685 -0.27743495 0.10497591 -0.11828338
0.065188475 -0.10085761 -0.20912004 0.2273181 -0.5054582 0.11706458 0.20068964 -0.4449533
-0.38949192 0.08396466 -0.45072028 0.042061217 0.18905981 -0.113617316 0.22390316 -0.22774076
-0.21292938 0.23219803 -0.19097573 0.27817613 0.012939697 0.20703916 0.12210783 0.23000333
-0.10187272 -0.27630502 0.01490621 0.063997045 0.023899846 -0.06008086 0.35770738 -0.4256031
-0.15048434 0.06188087 -0.01739023 0.17597297 -0.4914449 0.06766942 -0.06420424 -0.2556994
-0.08889073 -0.3034842 0.29846695 0.041819472 -0.1363861 0.22078718 0.25879115 -0.49184144
0.17843948 -0.017243309 0.014157785 0.043814145 -0.6520876 -0.24945144 -0.15502739 -0.39340484
-0.05030725 0.043716483 0.023592476 0.07618598 0.13785385 -0.34764618 -0.18917753 0.41731176
-0.15547462 -0.28481108 -0.2681834 0.23193127 0.3456016 0.13617826 0.2619928 -0.09841549
-0.008828354 0.075486116 -0.4405316 0.042990178 0.21863115 -0.38618365 0.25632143 0.04730838
-0.41019642 0.06688848 -0.024230964 0.19635643 0.019506954 -0.10894179 0.07751895 -0.080383204
0.29922292 -0.07738833 0.22890899 0.22182402 0.3726348 0.15854904 0.26201442 -0.07271634
0.18501681 -0.10877158 -0.5111478 -0.33693653 -0.24150543 0.04423835 -0.28999367 -0.3778347
-0.012532822 0.26038632 -0.2769425 0.09579451 0.25210565 -0.18631293 -0.027565433 0.22574997
0.05994845 -0.07481308 -0.43540332 -0.06804505 0.4009405 0.13760218 0.11490143 0.2926609
0.031564284 -0.06284739 0.18793926 0.12318586 0.37338832 -0.3134786 -0.13741435 -0.17201684
0.19725604 0.25962174 -0.0630285 0.12074644 -0.48674157 -0.09302456 0.27566242 -0.3840336
0.08809502 -0.17605257 0.35830688 -0.044867676 -0.12321364 0.15704095 0.2324937 0.33582395
-0.13104893 0.31314453 -0.20025429 -0.1393163 0.10177556 -0.23900549 -0.32248327 -0.19202548
0.015302583 0.17242618 0.2264942 0.022214385 -0.21203405 0.3449519 -0.3113589 0.18927196
0.32868496 -0.39317352 -0.3970152 -0.30099118 0.75095767 0.02962562 -0.10244211 0.4692123
00000000: acb8 40be bf14 ce3c 48d0 f0bd ea3c d73d
00000010: 2a4f fe3c f95d 99bc 6cde acbc e8aa a5be
00000020: 2c67 733e 9dea 9c3e d574 aabc 69b2 bb3d
00000030: 359d 79be 84d5 0a3e d38a 143e 184a 63be
00000040: 3eac 803e 8871 26bd 4ef1 a43d 87ac 083e
00000050: 9ec5 ed3e 25a5 45bd 19da e53d 33fb 81be
00000060: 2234 6f3e 061c d73e 32f6 05bf d1a1 6fbe
00000070: e44d 03be 78b6 a63e 91f2 23bd 0add 933c
00000080: 80c6 74be b71c 6ebe df2d 263c 2b80 4e3d
00000090: edd4 9cbd 8436 5ebd c939 7c3e 1428 4cbd
000000a0: c1a0 3ebe 70fa d93e 4aa6 cfbc 35a3 853e
000000b0: 9c6d 8cbe 5ea4 c63d 9617 b33a ef13 aebe
000000c0: cb16 92be ceb4 92be 5eff 033e 0012 0fbd
000000d0: 46ea e5be 1821 d73e 9672 0f3f 6924 b6bd
000000e0: c6c6 62be a053 90bd 9015 a7be f4ab b2bd
000000f0: 4670 393e dd81 66bd a56b febe fcc4 9d3e
00000100: 49c1 43be de53 aa3d 6e61 83be bf11 5c3c
00000110: 695a ab3e c811 43be 918e fe3d 51b2 17bf
00000120: 7583 663e ddd8 ae3d 404a 443e b8dd c73d
00000130: 7ea0 30bf 118b 7ebd 353f 453e 8b32 c7be
00000140: d555 f4bd 751f 76be 8a64 183e bece 363e
00000150: 0d45 5f3e f40b 8ebe 9cfd d63d 8f3e f2bd
00000160: 8981 853d 6f8e cebd 9023 56be 13c6 683e
00000170: b565 01bf 8ebf ef3d 9681 4d3e ebd0 e3be
00000180: 7c6b c7be aaf5 ab3d cfc4 e6be 6248 2c3d
00000190: e598 413e 32b0 e8bd df46 653e e034 69be
000001a0: 290a 5abe 52c5 6d3e 248f 43be 1a6d 8e3e
000001b0: 0601 543c 1302 543e ac13 fa3d fe85 6b3e
000001c0: a5a2 d0bd da77 8dbe 2d39 743c e210 833d
000001d0: 9cc9 c33c 5917 76bd 6c25 b73e a6e8 d9be
000001e0: 9118 1abe cc76 7d3d f575 8ebc 4232 343e
000001f0: aa9e fbbe 4496 8a3d 837d 83bd 08eb 82be
00000200: 580c b6bd 4862 9bbe a9d0 983e e54a 2b3d
00000210: cca8 0bbe 0916 623e 4680 843e a4d2 fbbe
00000220: d7b8 363e d741 8dbc 0ef6 673c 7676 333d
00000230: 37ef 26bf 3370 7fbe 80bf 1ebe 5c6c c9be
00000240: fa0e 4ebd 0e10 333d 0245 c13c 6507 9c3d
00000250: 8f29 0d3e aefe b1be c1b7 41be e3a9 d53e
00000260: bd34 1fbe c2d2 91be 564f 89be 647f 6d3e
00000270: b1f2 b03e 5072 0b3e ec23 863e 0f8e c9bd
00000280: cda4 10bc 7798 9a3d 5c8d e1be 7816 303d
00000290: d8e0 5f3e ddb9 c5be 903c 833e 6fc6 413d
000002a0: 4405 d2be d4fc 883d 0480 c6bc a911 493e
000002b0: 0ccd 9f3c e01c dfbd 41c2 9e3d f39f a4bd
000002c0: bf33 993e c67d 9ebd 1e67 6a3e d625 633e
000002d0: fdc9 be3e ae5a 223e c126 863e 4eec 94bd
000002e0: 0c75 3d3e a2c3 debd 95da 02bf f282 acbe
000002f0: 334d 77be 4633 353d 0d7a 94be 8d73 c1be
00000300: 7756 4dbc 5b51 853e 68cb 8dbe e92f c43d
00000310: fe13 813e d1c8 3ebe e7d0 e1bc 002b 673e
00000320: 828c 753d 9a37 99bd 2fed debe 345b 8bbd
00000330: 1348 cd3e 96e7 0c3e 7151 eb3d a6d7 953e
00000340: 8d49 013d 22b6 80bd 2673 403e de48 fc3d
00000350: c12c bf3e 4480 a0be 59b6 0cbe 2f25 30be
00000360: 7dfd 493e 24ed 843e 1615 81bd e949 f73d
00000370: 3136 f9be a983 bebd a023 8d3e 0da0 c4be
00000380: 296b b43d 2047 34be 0074 b73e 2bc7 37bd
00000390: 6f57 fcbd 58cf 203e d412 6e3e 1ef1 ab3e
000003a0: b131 06be 7b54 a03e 760f 4dbe efa8 0ebe
000003b0: b46f d03d dbbd 74be 871c a5be 54a2 44be
000003c0: afb7 7a3c 7d90 303e 18ee 673e f1fa b53c
000003d0: 741f 59be 899d b03e 6f6a 9fbe 82d0 413e
000003e0: 6549 a83e 0a4e c9be 9445 cbbe 841b 9abe
000003f0: c33e 403f 6eb1 f23c 2bcd d1bd 983c f03e

pretraining_head.3.bias f4 [16]
0.28150633 0.07711804 0.24553725 -0.039751433 0.32429734 0.37148875 0.3523873 0.27149397
0.12656596 0.13439754 0.2904049 -0.023412483 0.13443056 0.21494377 -0.2547881 -0.29408652
00000000: 9921 903e 10f0 9d3d 1e6e 7b3e 66d2 22bd
00000010: 4d0a a63e c633 be3e 1c6c b43e 4201 8b3e
00000020: 829a 013e 829f 093e f3af 943e 89cb bfbc
00000030: 2aa8 093e 381a 5c3e 9673 82be 8292 96be
