trained_models/breast_cancer_rand_corr.pt (torch, 11873 bytes, 12 tensors)

encoder.0.weight f4 [16, 30]
00000000: 189b 2b3e c1ec b93e bd4c 373e 8675 113e
00000010: b63a 06be b82f 27be 0755 dcba 928e 82bd
00000020: 9feb 8abe 09a0 b8be c352 253e d333 4a3e
00000030: 97e3 a43d d38c 283e b0cd 9dbe c49e 49be
00000040: e5d2 72be 5854 71bd 2d4e 5bbe a65e e9bd
00000050: f74f 0bbe e322 3b3e 9ef5 1ebd 5d2a 313e
00000060: dba3 78be 8190 a0bc 8618 ecbb b44a 1a3e
00000070: 3e12 5e3d 28b2 7bbe d64f 493d 23d3 cebc
00000080: ea81 fbbd 9b81 0e3d 13b9 313b 8836 5dbe
00000090: fb24 ad3d 22cd 59be 6853 e63d 02fa 27bd
000000a0: 5610 38be a586 29be 284f 85be 771b 55bd
000000b0: 9796 21be 0b25 c0be 1a2e e4be a5f3 c5be
000000c0: f80a d4bd d011 02bf c6c2 c33d 5957 703d
000000d0: 8779 d5bd 1228 bd3d a1f8 b43d 642d 033e
000000e0: eb48 85bd f1c8 283e c723 573e 1652 bcbc
000000f0: dfef cdbe 7f39 133d 4bd8 eebe ebc7 3abd
00000100: d146 dabc f469 2b3f a984 193c 0424 8cbe
00000110: 34d6 cfbc ad6e 11be 360f ec3d 8a11 083e
00000120: dae3 92be bf1c 9e3d 46d2 5a3d 3a31 eebd
00000130: 4115 74bd d677 49be 35b2 3f3b 5e9b 333d
00000140: 6828 20be 7acc 12bd 7f60 05bf 46be 023f
00000150: 541d febd 6de1 8f3c 9fc8 8cbc f039 973e
00000160: e63b 203d b1ef 06be 3b53 51be d3c7 1fbe
00000170: 6bb3 c7bd a269 f9bd bd65 bd3d 239e 92bc
00000180: fd8c 05bf 9016 68bd 776c 4e3d 21f7 c13d
00000190: 9e19 5e3e b460 07be ae20 7dbe bd11 afbe
000001a0: 80b0 98bc ec87 c43b 8d4f 44be 5d1a 6ebd
000001b0: cda8 573c a27d cc3b c65d 34be 7aa5 22be
000001c0: 52e1 3b3f 78b5 72bd c4be 1f3c 9a55 9bbe
000001d0: 67ef bbbe 6169 3fbe 9f51 123c 63fb 0ebc
000001e0: d1b2 c63c 973b 23bd edad a73e 44d0 123e
000001f0: 4941 8b3d 361d 35be 02c6 a33c f088 05bf
00000200: d99e 3fbc de71 0c3e 2b49 223e 445a bd3c
00000210: 1b7f 933e eccb 263e 4ba8 b43c 17e5 143e
00000220: c4bc d73d 648d c53e e40f 933d d553 eb3c
00000230: cbdf 0bbf 184a fd3c 0864 173e a085 df3d
00000240: 6139 67ba 57d2 ebbb 008c 84be c985 debe
00000250: 40f3 22bc 16ef 11bd e77f d53e 776f abbe
00000260: 91bc eabe d18b 86be bf67 e53d 1f61 0bbe
00000270: 2008 cc3e be3d 00bd 6b34 073e b994 723e
00000280: 7817 503d e8e1 1abe 87fa 32bd 4d8d 80be
00000290: b469 013e f762 913e 22a8 213e a343 9e3d
000002a0: 001f 893e dd7d 65bd 1c99 2cbc 003b 0abe
000002b0: c04d 46bd 0c82 90be f0ca 853e c555 1b3d
000002c0: a970 9dbe 51ce 9d3d 84d9 0f3e 3938 603e
000002d0: eb0f 83bc 5d42 4f3d ae6d e3bc e3a4 27be
000002e0: 5107 d7bc cece 24bd a367 083d 3da2 143f
000002f0: df64 0abd 9358 10bd 66ca b3bd 3a2d 383e
00000300: 151d b93d 5182 973d 1f77 413e 5de8 8bbd
00000310: 5655 3dbe 93dd ebbe e8bf b63d b463 21be
00000320: bc26 e93e 5fae 1b3e 1cbc e53d fb2d b8bd
00000330: 0cac 3e3b e9e7 eb3d 7439 27be cb34 06bf
00000340: 1020 ccbb ec2a a03d dabc c03d 1abc db3d
00000350: 7d88 2d3e 2d2c f33d 31d8 503e 7fd7 3c3e
00000360: bed2 ec3d ab80 813d 8828 3c3e 8745 2f3d
00000370: ff83 88bc 3179 8dbe 7e1a cdbc 7318 043b
00000380: 13da 8fbe 4556 52bd 0d06 5ebd 871b 5abe
00000390: 90a6 c6bd cdf7 31be 928d d03d 733f 603e
000003a0: 41c5 0abe 1af2 203e d2fc b63e 574f 6f3e
000003b0: e1a4 773e 2d85 e83d ef15 eb3e e3d5 793e
000003c0: 1741 f6bd 6918 493d 4efa c6bd 7b7a f63d
000003d0: 2eb0 10bd fc4f 203e f58b debd fd38 36bb
000003e0: df15 8f3c 9b7c 2d3e f43a 4f3d f4ac 773d
000003f0: a17b da3c b3d1 3f3d 0e14 603c 9168 95be
0.16758382 0.3631344 0.17900367 0.14204988 -0.13108334 -0.16326797 -0.0016810008 -0.063748494
-0.2713289 -0.36059597 0.16144852 0.19746332 0.08051222 0.1645997 -0.3082099 -0.1968947
-0.23713262 -0.058918327 -0.2141654 -0.11395006 -0.13604723 0.18275027 -0.038808458 0.17301317
-0.24281256 -0.019600155 -0.007205072 0.1506756 0.054216616 -0.2457968 0.049148403 -0.025247162
-0.122806385 0.03479157 0.002711837 -0.21602833 0.08454319 -0.21269658 0.11246377 -0.04100991
-0.17974982 -0.16555269 -0.26036954 -0.052028146 -0.15780102 -0.37528262 -0.44566423 -0.3866245
-0.103536546 -0.5080843 0.095586345 0.05867705 -0.1042357 0.092361584 0.08836485 0.12810284
-0.065080486 0.16482903 0.21009742 -0.02298836 -0.4022207 0.035943504 -0.46649393 -0.045600813
-0.026645096 0.66958547 0.009370008 -0.27371228 -0.025370695 -0.14202376 0.11526339 0.1328794
-0.28689462 0.07720327 0.05342319 -0.11630483 -0.05959058 -0.1967462 0.0029250507 0.04384934
-0.15640414 -0.035839535 -0.52100366 0.51071584 -0.12407938 0.017563546 -0.017185507 0.2953639
0.039119624 -0.13177373 -0.20441906 -0.1560357 -0.09751018 -0.12178351 0.09247921 -0.017897671
-0.52168256 -0.056662142 0.05039641 0.09470964 0.2168946 -0.13220483 -0.24719498 -0.3419322
-0.01863885 0.0059976485 -0.19170971 -0.05813061 0.013162804 0.0062405625 -0.17613897 -0.15883437
0.73390687 -0.059255093 0.009750072 -0.30338746 -0.36706087 -0.18692543 0.008930593 -0.008726927
0.024255188 -0.03985175 0.32749882 0.1433726 0.067995615 -0.17686924 0.019991878 -0.52162075
-0.011695587 0.13715312 0.15848224 0.023114331 0.2880791 0.16288728 0.022052905 0.14540516
0.10534051 0.38584435 0.07180765 0.028726498 -0.54638356 0.03091912 0.14784253 0.10914159
-0.0008820501 -0.0071967053 -0.25888062 -0.43461445 -0.009945691 -0.0356284 0.41699144 -0.33483478
-0.4584699 -0.26278546 0.112014286 -0.13611268 0.3984995 -0.031308882 0.1320359 0.23689546
0.05080363 -0.15125239 -0.043695953 -0.25107804 0.12637979 0.28395817 0.15786794 0.077277444
0.26781464 -0.056028236 -0.010534551 -0.13499069 -0.048413992 -0.28224218 0.26131392 0.037923593
-0.30750015 0.07705367 0.1404782 0.21896447 -0.015998801 0.0506004 -0.02776226 -0.16371493
-0.026248606 -0.040236287 0.03330196 0.58060056 -0.033787604 -0.03524072 -0.08778839 0.17986003
0.0903875 0.07397903 0.18893097 -0.06831429 -0.18489584 -0.46067485 0.08923322 -0.1576069
0.45537364 0.15203236 0.1121752 -0.08993145 0.0029094247 0.11518843 -0.1633051 -0.52424306
-0.006229408 0.07820687 0.094110206 0.10729237 0.16946597 0.1187366 0.2039497 0.1844158
0.115636334 0.063233696 0.18374836 0.042790916 -0.016664503 -0.27631524 -0.025037047 0.0020156174
-0.28096065 -0.051351804 -0.05420499 -0.21299563 -0.09699738 -0.17379685 0.101832524 0.21899204
-0.13551809 0.15717354 0.35739762 0.2337011 0.2418399 0.11353526 0.45915172 0.24397998
-0.12024134 0.049095545 -0.097157106 0.1203508 -0.035324268 0.15655512 -0.108665384 -0.0027804964
0.017466484 0.16942064 0.05059333 0.060467675 0.026670279 0.046830844 0.013676656 -0.2918134

encoder.0.bias f4 [16]
00000000: 4f49 913e 9799 f23e a38b c93c 89f5 5dbd
00000010: f15c 7c3e b56a 0d3e ae4c 073e 93c7 133f
00000020: 113e d23e 252e 13be ece4 1d3f 842f 9bbd
00000030: d3a2 4e3f fedd 363e 45b9 4c3d 0df0 8e3e
0.28376243 0.47382805 0.024602717 -0.05418924 0.2464483 0.13810237 0.13212845 0.577264
0.41062978 -0.14373071 0.6167743 -0.07577422 0.807172 0.17858121 0.049981374 0.2791752

encoder.3.weight f4 [16, 16]
00000000: 1596 103e d75b a9bd 3db6 a23c 9c58 d03e
00000010: b3be 353d dd30 8d3e 3367 8d3d 1483 95bd
00000020: c5c6 063f 00c8 de3d 4172 c03d b73a 333f
00000030: 8156 113e 7d7a 3ebe 54c4 353f a212 4abe
00000040: e1be febd cb2c 22be f8d6 073f 811f 0a3e
00000050: 23ed 4fbd 5f21 06be 15c5 8f3e 3ba0 b9bc
00000060: bed5 3abe 6236 c8bd 2b5d 8ebe 38b6 af3d
00000070: 6490 703e 9c80 eabe 5cc1 cbbe b581 83bb
00000080: 5003 613e 0a69 5b3e 72c9 51be b438 05be
00000090: 57c4 34bd 9116 03bd 55b4 2c3e bfef cc3e
000000a0: 5d79 123b 1c2e 313b edb3 833e ebd5 97be
000000b0: bd3a e63e 273f 82be a4e0 b73e 6ed0 723e
000000c0: 911f 213e 64cc d73e 176a 633e 1145 3f3e
000000d0: 170e 4b3e 2567 3c3d 0f31 303e 4143 ec3e
000000e0: 873a bb3d 0856 54be 643b 543d d66b 3f3f
000000f0: d941 17be 7acc d63e 1e40 15bd 25e3 c4bd
00000100: de77 7b3e 7797 5dbe 71a4 8c3d e663 13be
00000110: 8528 1cbe d6a3 b63d 196c 533e 5923 a43b
00000120: c6f3 363f b129 abbe 09ba b7be 1e0c 87bb
00000130: 941e 9dbd df20 a23d 1eb0 e93e e67f ecbe
00000140: 08b0 9d3e 71bc 99bc c3a5 c03e acce 63bd
00000150: 0bc0 3f3e a9fb 603e 8e00 b63e ddd6 a23d
00000160: 9a01 35bd a6b0 913d 2e6b fb3e 47f1 e03d
00000170: 2cd9 a93e c1ed ee3e a3b7 d6be cd86 30be
00000180: 2f40 3a3d eb78 64be bc81 0f39 7c59 aa3d
00000190: 4d8c 793e 20b5 023e 1dae b43d 4dd3 5c3e
000001a0: ce41 d73e 05c8 be3e 93a6 bc3e 2617 92be
000001b0: 049f 873e 6382 7abd 1dd2 cf3e b1a9 e43e
000001c0: b06a 3b3d 1292 303e e7ac 70bd 5be1 503e
000001d0: 927b 973d 190c d53e 3675 613d 2728 c13e
000001e0: 7c13 21bc c1bf a73e b522 a7bd 6725 e0be
000001f0: 105d 69be c132 eebd a1e8 4abe 21f0 233e
00000200: 2af8 f03e 28fd 58bd 53ac 4cbe 8f70 85be
00000210: 020a 0fbf da34 8ebe 8e20 9a3e 698b b03e
00000220: 0732 1cbf 3397 10be 03de 19be 8db0 ee3d
00000230: 1668 093e 1eff cebe 63cd 8fbc f2d8 47bd
00000240: 8c38 9abe c354 303e 6604 b43e 8766 f83d
00000250: bc37 973d 55e5 fa3e b4c7 7c3e 6ba5 863e
00000260: 97b7 423e c688 c1be 2d1a 943e d04e ecbc
00000270: bc2f ad3d 72a0 da3e 098e 5e3e 6f5e bf3e
00000280: a854 753e 0755 dd3e a744 263e df0b 9d3e
00000290: 8192 7bbd 5754 7a3c a1e7 8d3e aa88 283e
000002a0: 329a 153d 47af 9d3e 2c80 64be b75d 2bbd
000002b0: 16b5 903e cccb 9e3d f7fe edbc c2c7 243e
000002c0: 4d89 053b aeec a2be fa66 d83d 94dd 813d
000002d0: a5a9 0dbe 6bdf 7c3e 50cb 9ebe c214 d73e
000002e0: 8105 563d eb10 be3b 1638 38be 0f50 1fbe
000002f0: d21d 973e c1f8 db3d 5ef6 b9be 7366 4cbe
00000300: 9bf7 403d 63a8 7fbe 36b0 603e e8d9 36be
00000310: 560c a5be 3163 afbe ae51 d6be a3cf 5b3d
00000320: 2a04 22bf 0544 723e a057 49bc 2eca 293f
00000330: 01c6 ed3d de60 a33e f77a c7bc d52a 6abe
00000340: 2786 693d 974d 22be 6a83 883e 5870 23be
00000350: 11a4 043f 64e2 9dbd e7b7 5f3e 38a7 143e
00000360: b83c 40be c818 c3be 26f6 87be a650 89be
00000370: 3eba 023d 4089 9f3d 0eed 0b3f 7abd 18be
00000380: dc61 ad3d 5b42 ad3d 70f1 013e 8f25 a03d
00000390: e403 903e f2b7 0abe 77ec 9a3e dbbd 88be
000003a0: 1be6 44bd 2aee 8a3e f25b 1f3e b06f 4c3e
000003b0: 26c5 88bd 64bc 35bd 0402 02bd 7d1d 57be
000003c0: dfbc ff3d c8e4 1cbe e1d1 f2be 557f e8be
000003d0: c214 c13d 42bf ddbd 5260 67be 3eb2 ad3e
000003e0: 7603 513e 2268 1abf 5928 9d3e 1798 8a3e
000003f0: f816 55be 7b46 abbe 677e d4be 3f91 34bd
0.14119752 -0.0826947 0.019862289 0.40692604 0.044371318 0.27576342 0.06904449 -0.07300392
0.5264705 0.10877991 0.09396792 0.70011467 0.14193155 -0.18601413 0.710027 -0.1973367
-0.12438751 -0.158374 0.5306239 0.1348858 -0.05076326 -0.13098668 0.2808005 -0.022659412
-0.18245599 -0.09775998 -0.27805457 0.08579677 0.2349258 -0.45801246 -0.3979596 -0.004013265
0.2197392 0.21426788 -0.20487002 -0.13009912 -0.044132557 -0.032003943 0.16865666 0.40026662
0.002235017 0.002703554 0.2572321 -0.29655394 0.4496669 -0.25438806 0.35913575 0.23712322
0.15734698 0.42148125 0.22208439 0.1867869 0.19829594 0.045996804 0.17206214 0.4614506
0.091420226 -0.20735943 0.05181445 0.7477392 -0.14771213 0.41952878 -0.0364381 -0.09613637
0.24557444 -0.2163981 0.06867302 -0.14393577 -0.15249832 0.08917968 0.20646705 0.0050090966
0.7146572 -0.33430246 -0.3588412 -0.0041213175 -0.07671848 0.07916426 0.4564218 -0.4619133
0.30798364 -0.018766614 0.37626466 -0.05561702 0.18725602 0.21971 0.35547298 0.07951138
-0.04419098 0.07113771 0.4910521 0.1098352 0.33173501 0.46665767 -0.4193698 -0.17238922
0.045471366 -0.22311752 0.00013685873 0.08317849 0.24369927 0.12764406 0.08822272 0.2156498
0.42042392 0.37261978 0.36845836 -0.28533286 0.26488507 -0.061159503 0.4058999 0.44660714
0.045756042 0.17243221 -0.058758643 0.20398466 0.07396616 0.41610792 0.05504342 0.37725946
-0.009831306 0.32763484 -0.08160917 -0.43778536 -0.22789407 -0.11630774 -0.19815303 0.1600957
0.47064334 -0.052975804 -0.19987611 -0.26062438 -0.55874646 -0.27774698 0.30102962 0.34481362
-0.61013836 -0.14120178 -0.15026097 0.11654768 0.13418612 -0.40429014 -0.01755399 -0.04879088
-0.30121267 0.17219834 0.35159606 0.121289305 0.07383677 0.4900309 0.24685556 0.2629808
0.19015346 -0.37799662 0.2892622 -0.028846174 0.0845637 0.42700535 0.2173387 0.37376735
0.23958075 0.43228933 0.16237126 0.3067312 -0.061419014 0.015278897 0.2771578 0.16458383
0.036524005 0.30797789 -0.22314519 -0.04183742 0.28263158 0.07753715 -0.02905224 0.16091827
0.0020376027 -0.31821197 0.10566516 0.06341091 -0.13834246 0.24694602 -0.3101449 0.42008024
0.052251343 0.0058003566 -0.17990145 -0.15557884 0.2951494 0.107408054 -0.36320776 -0.19960956
0.047111135 -0.24966578 0.21942219 -0.17856562 -0.32235974 -0.34255365 -0.41859192 0.053664815
-0.63287604 0.2365876 -0.012288958 0.66324127 0.11610032 0.3190984 -0.024350626 -0.22867902
0.057012703 -0.1584991 0.2666276 -0.15960824 0.51812845 -0.07709196 0.21847497 0.14516914
-0.18773162 -0.38104844 -0.26554984 -0.26819342 0.031915896 0.0778985 0.5465859 -0.1491603
0.08465931 0.08459922 0.12689757 0.07819664 0.28127968 -0.13546732 0.30258533 -0.26707348
-0.04807101 0.2713483 0.15562418 0.1996448 -0.06678228 -0.044369116 -0.031740203 -0.21007343
0.12487196 -0.15321648 -0.4742575 -0.45409647 0.09427787 -0.10827495 -0.22595337 0.3392505
0.20411476 -0.60315144 0.30694845 0.2706916 -0.20809543 -0.3345221 -0.41502687 -0.04408383

encoder.3.bias f4 [16]
00000000: 2ee6 56be 2d64 6b3d bce8 ff3d f153 a7bc
00000010: fd44 ebbc 9409 463e 3de5 41bd e7bf 903d
00000020: 8390 3a3d 6652 67bc 2fa2 ea3d 7696 483e
00000030: a4f8 81be 475b bf3c 7769 c53c 0980 9d3e
-0.20986244 0.057468582 0.124955624 -0.020425769 -0.02871942 0.19339591 -0.04733776 0.070678525
0.045547973 -0.014118766 0.11456715 0.19588646 -0.2538501 0.023358954 0.024098141 0.30761746

encoder.6.weight f4 [16, 16]
00000000: ae1c 5cbc 619f a63e 5608 17be d8ad ee3e
00000010: 16dc ca3e 2000 40be bb5b 35be 62af c73e
00000020: 2ead 68bd 7bb9 68be bdb2 aebd be33 9c3d
00000030: 5ff7 a8bc 1b1c be3d bc7d ad3d 5efb 91be
00000040: 7a98 babc c57c 1f3e 75c4 ec3e dfc3 b5bc
00000050: 06c6 823d b7bb f63d 05c1 91be 2380 5fbd
00000060: 68f8 b13e 8a4d 9fbe 8900 f13d f757 c43e
00000070: 3db3 523d b096 59be 84cd 903e aa63 753e
00000080: 5723 bebd 9d2c e8bd 9d7e 213e d027 91be
00000090: d40a 873e 6cf8 56be 4bdf af3e fac9 4abe
000000a0: 0c03 e8be bc82 0a3d 4107 ca3e 0013 e8bc
000000b0: 9ed8 18bf f7e1 063f 0bf9 45be 5dca 303d
000000c0: 2f30 89bc c134 b0bd 6714 fabd 48e8 2fbe
000000d0: c979 12bf e279 eabe 3038 f1be 337b 173e
000000e0: f918 bd3c c70f b43d f5ae e53e 2e6d a1be
000000f0: 794f 28be f5fc dcbe be0e 283e a80e aebe
00000100: 30ac 9c3b 3ece 87be f39b cabe a291 013e
00000110: 8d70 793e 027a 043e 2dc8 923e ff86 8f3e
00000120: 8259 8bbd f2a2 a13d ef5a a73e 40a7 a0be
00000130: 6831 d53e e25a 243f cccd 7a3e 5878 fabe
00000140: 84c4 643e b23e 82be 51cb 2e3e e675 e03e
00000150: 2ecd 9c3e c7ef 863e b8fb 523e 6757 c7be
00000160: eed2 65be f2dc 75be 2f67 c93c 02d2 8a3c
00000170: 4ffd 40be 805d 753e 65ff fb3d f8b4 003e
00000180: 7167 083f 308e f3bd fd29 b63d 844c 24be
00000190: 9e30 f3ba 5a38 15bf d136 833d 0945 84be
000001a0: e33d a5bc 9002 9e3d bd5a b33d 1a4c 92bd
000001b0: 72c8 1c3f cb65 fb3e cc9b 593d ee27 3fbf
000001c0: 16d7 003e a52d 80bd 0da9 84be bfa0 643e
000001d0: 50d4 803e e31f 4abe 3b3d 1e3d 4f45 65be
000001e0: 18a4 a23e 0d5b 003f 1039 95be c72f 813e
000001f0: 34c3 513f 4615 423e 332f 853d ee73 08be
00000200: d5da 223e f943 a2be 0d0b 083e b328 04be
00000210: 871a 1a3e eaa1 493e 5f8d c3bd 2505 e4bd
00000220: affa d7bd 4e0d 48be a4fd 883e cd92 9abe
00000230: 2bb1 fa3e 5c0a e03d e32c b83e 9f14 22be
00000240: b9e8 733d eebf 133f a9e7 9d3e 6f69 b1be
00000250: 6686 8ebe c639 af3e 9a9b 943e c35c 7ebe
00000260: 0cb7 0c3c 4083 c63e a22f c7bd 8dfb 623d
00000270: 1a4d b23e fc4a 76bd 8233 c53d 5327 8abd
00000280: 1d65 00bf ff08 a13e 918b 84bd fe0a a33d
00000290: 4fa9 edbe 9688 673e 627a 1cbe 71a3 643e
000002a0: e63c 2abe 444d a3be 2ccf 63be 14ff a63e
000002b0: d3ec 99be cb45 f43e d094 f9bd f0dd 9f3e
000002c0: b742 be3e 3256 c93e ac75 443e 6210 663e
000002d0: 0407 acbd f7a5 b0be 7e67 adbd 0ea5 eb3b
000002e0: 3428 de3d 3f15 23be e4ae 4b3d 8706 1a3e
000002f0: bf7f 30bf 79ce a8be aad7 ffbd a9d6 b83e
00000300: 7416 5dbe 63b2 2d3f 74fa 80be da3d 8f3d
00000310: c014 ec3c ab8e ca3e adf3 a6be 8547 28be
00000320: 89cb 37be 6f29 3e3e 1e84 043e 2832 993d
00000330: b304 cabd cf38 fe3e 7ab8 6c3e 8ba1 0dbf
00000340: 5311 b23e 7a2e ef3d 9d87 ddbd d5d7 eb3d
00000350: c07c a73d db74 633e a587 6abe de3f 6fbe
00000360: 4d28 a1be ade8 223e 4317 3d3e b246 553e
00000370: 1aac 2f3e d312 d83e f81b b4bd e7b2 3bbf
00000380: 9da2 27be 191d d73d 8240 de3e 224e ac3e
00000390: 658e 173d 66ca c8bd 4ea3 16be 7182 28be
000003a0: dfea c13c 2e87 733e d400 c23e 0959 c53d
000003b0: c6a4 653e 0a7e 1b3e c5d0 36be e25f 2bbe
000003c0: 4d23 a83d b370 bf3e 53a4 aabc 64c9 893e
000003d0: 8321 123e 629b abbc 3e92 893c eefc 813e
000003e0: ad43 8abd a737 8e3e 443a 0fbe 016f 193e
000003f0: 1db0 4d3d 3c9a a53d 99bb 85bd faf2 893e
-0.013434572 0.3254347 -0.14749274 0.46617007 0.39621037 -0.18750048 -0.17710774 0.39000994
-0.056805782 -0.22727005 -0.08530185 0.076270565 -0.020625768 0.092827044 0.084712476 -0.2851209
-0.022777785 0.1557494 0.46243635 -0.022188125 0.06385426 0.120475225 -0.28467575 -0.05456556
0.3475983 -0.31113845 0.1176768 0.38348362 0.051440466 -0.21248889 0.28281796 0.239638
-0.09284084 -0.11336634 0.15770955 -0.28350687 0.2637545 -0.20993203 0.34350047 -0.1980361
-0.45314825 0.033816084 0.3945866 -0.028329372 -0.5970553 0.52688545 -0.19333284 0.04316174
-0.016746609 -0.08603812 -0.12210923 -0.17178452 -0.5721708 -0.45796114 -0.4711318 0.1479309
0.023083197 0.08792072 0.44860044 -0.3152861 -0.16436566 -0.4316174 0.16411874 -0.33995557
0.0047812685 -0.26524538 -0.39572105 0.12653211 0.24359341 0.12937167 0.28668347 0.2803268
-0.06804182 0.078924075 0.32686564 -0.31377602 0.41639256 0.64201176 0.24492568 -0.4891994
0.2234059 -0.25438458 0.17069747 0.4383995 0.3062529 0.2635481 0.20603836 -0.3893387
-0.22443745 -0.24010065 0.024585335 0.016945843 -0.1884663 0.23961449 0.12304572 0.12569034
0.5328284 -0.118923545 0.088947274 -0.16044813 -0.0018553918 -0.5828911 0.0640694 -0.2583392
-0.020171111 0.077153325 0.08757541 -0.071434215 0.61243355 0.491011 0.053127095 -0.746703
0.12582049 -0.06258706 -0.25910226 0.22326945 0.25161982 -0.19738726 0.038632613 -0.2238972
0.3176582 0.5013893 -0.29145098 0.25231764 0.8193848 0.18953428 0.06503143 -0.13325474
0.1590379 -0.31692484 0.13285466 -0.1290615 0.15049182 0.19690672 -0.09548449 -0.11133794
-0.10545861 -0.19536325 0.26756012 -0.30190125 0.48963293 0.10939476 0.35971746 -0.15828179
0.059548113 0.57714736 0.30840805 -0.34650752 -0.27836913 0.34223765 0.29024965 -0.24840073
0.008588564 0.3877201 -0.09725882 0.05541568 0.3482445 -0.060130104 0.09628965 -0.06745782
-0.50154287 0.31452176 -0.06471933 0.07961081 -0.46418235 0.22610697 -0.1528106 0.22327973
-0.16624793 -0.31894886 -0.22246999 0.32616484 -0.30063495 0.47709498 -0.12186587 0.31224012
0.37160274 0.39323574 0.19185513 0.22467187 -0.083997756 -0.3450162 -0.08467005 0.007191307
0.10847512 -0.15926073 0.049727336 0.15041552 -0.68944925 -0.32970026 -0.124923065 0.36101273
-0.21590596 0.6785032 -0.2519108 0.06994219 0.028818488 0.39561972 -0.32607785 -0.16433533
-0.17948736 0.18570493 0.12941024 0.0748027 -0.098641776 0.49652717 0.23117247 -0.5532462
0.34778842 0.116787866 -0.10816882 0.11515776 0.08178091 0.22212546 -0.22903307 -0.23364207
-0.3147606 0.15909071 0.18465905 0.2082775 0.17155495 0.42201862 -0.08794397 -0.7331986
-0.16370626 0.10503597 0.4340859 0.3365336 0.037001032 -0.098042294 -0.14710733 -0.1645601
0.023671566 0.23782036 0.37891257 0.09636123 0.22426137 0.15184799 -0.17853077 -0.16735795
0.08209858 0.3739067 -0.020830309 0.2691146 0.14270596 -0.020948116 0.016793367 0.25388283
-0.067511894 0.27776834 -0.1398707 0.14983751 0.050216783 0.080860585 -0.06529922 0.2694319

encoder.6.bias f4 [16]
00000000: b22b c43d b0dd 2d3e db23 0f3e 8bd9 883e
00000010: c808 a4bd 6e58 0d3d 8769 48be f158 20bd
00000020: 31e6 6a3c 083d 7f3d 1e08 293e f681 8e3d
00000030: 26ff b23d 2600 c7bd d56a f43c 4fca cabd
0.09578647 0.16979098 0.13978522 0.26728472 -0.080094874 0.03450816 -0.19571505 -0.03914732
0.0143371085 0.062314063 0.16507003 0.06958382 0.08740072 -0.09716825 0.029836098 -0.099018686

encoder.9.weight f4 [16, 16]
00000000: 628c 9f3e 81c8 853e 18f4 0abf 2c95 64bc
00000010: f15b a4be d6e9 503e a0b1 5a3f 77c7 9cbd
00000020: 32f6 5cbe 0679 7abe e3f5 ce3e 7a2d cc3e
00000030: 321e dc3e cbc3 743e 8c9c a13e 01a5 c43e
00000040: 74dd abbd 0479 683c 4f9f 76bd c7e5 e63e
00000050: df38 0a3f cdae 4e3d 82a2 65be 1437 61be
00000060: 9867 22be 5193 8c3e 6061 66be 4359 a53e
00000070: 804f 253d d290 40bd 5543 72be 55c3 5f3e
00000080: 5f82 b63e f2be e23d 26b5 0ebd 79c5 ae3e
00000090: 67e2 95bd f3ea 8e3d 80e1 26be 3dcf 0dbe
000000a0: cb9a 273e 6536 7dbe 80cf 92be d663 83be
000000b0: c9af f0bd 1d4e 98bd 08e4 273e 387f b8be
000000c0: 8917 913d 7c97 94be fdc1 cd3d d6bf 2c3e
000000d0: 4206 66be edcd c93c 5a4f 37bf cbe3 ba3e
000000e0: 3620 4c3d 699c 2e3e 9190 48be 3072 cb3d
000000f0: 3320 52be 8c0e 0cbe 51eb ed3d 8033 263b
00000100: 296a 263d 0f20 8f3b 2ee3 823e d4e3 d33e
00000110: 94bf 9a3c 759f d53c ad94 46bf c1d1 963e
00000120: 93a0 b13d e140 a1be 5290 82bc 10dc e4be
00000130: 2cf0 1dbf a33e 13bd 2e86 a73e 374c 503d
00000140: db88 5cbe 49e2 d1be 7f61 c0be 29b2 b6be
00000150: 726d e43d cd50 e43e 5318 1dbe 15d0 7b3d
00000160: 1f10 46bd d014 c5bc 8886 04bd bdb5 4cbe
00000170: a507 fbbd 0fc7 0b3f 41fd 8c3c 1a65 cdbd
00000180: e9b5 ae3c 33de bdbe b930 a7be cdc5 42be
00000190: d32e 1bbe 7078 6a3e 44e8 b33e 3bd8 003e
000001a0: e073 9cbe 7f46 1e3e 5b44 d13e 8b22 063d
000001b0: dd08 8b3e 227a 5f3e a824 c13e ad44 913e
000001c0: 1d73 4cbe 7ea0 07bd cbc7 b6bd 4ba4 6b3e
000001d0: 88f6 32be 8e10 68be 7187 0a3d 210d 0cbe
000001e0: 94b3 9fbe 0626 a13e 529a 263c 228a 3cbe
000001f0: 9fbe dabd 825b 03bf 0306 983e 3aa5 4c3e
00000200: ab1a 643e 8ff0 1cbd ef68 433e 0f26 bb3e
00000210: 753c 613e 6759 9ebe 6729 02be 1d82 88bd
00000220: bf23 78bd e8ad 60be ea0d 85be dd0b 843c
00000230: 8d0f 83be 82ba 3e3e 386c d63e 51fe 1e3e
00000240: 12c2 253e 915d 7ebe 31e1 cbbe b110 2b3e
00000250: 626c 5f3d 4385 a03e 8d40 043f b50e 413d
00000260: ec0c c9be 596c b3be 3054 273d 18c7 6abe
00000270: 0cfa 013d d31c 7ebc 0a96 50be 2e39 7d3e
00000280: 3d6f 5c3e ff7d d03e da4b d5be a1eb 4f3e
00000290: ae22 623d ced0 c93e 28d5 ec3e 8b2b dabe
000002a0: fe38 f23e 8e4c 4d3e 1dbb 0c3f 22dd b13e
000002b0: b06f 143e 1d1c 9dbc f1ac 263e 2378 c3be
000002c0: f07c 853e 5160 983d 5ec3 cfbc 9c8b 713e
000002d0: 998e dc3e 3886 91be 9c88 26bf 5a18 633e
000002e0: b07b 30bc 5955 8bbd 88ff 803e dcd6 12be
000002f0: 036d 4fbe a9ba 50be 631d bb3e 60d9 67be
00000300: d959 52bd 87a1 60be e477 4ebe ef6d 6b3e
00000310: 191e d13e 1036 4bbd d202 49be 6530 a93e
00000320: c10c ecbd 4e3d 3dbe a839 c7bd 730d 62be
00000330: 11fd 5ebe dbc5 753e b06e 0a3e 13e5 593d
00000340: f25f a83e 40f6 45be 5814 89bc eebf 2bbe
00000350: 15be bbbd ae31 bfbe a045 3f3d 6269 27be
00000360: 7034 92be 7f2c e0be 9450 4f3d c57f bd3e
00000370: e467 123f d13c 7cbe 1a5c e8bd bc03 ea3d
00000380: d6a4 cd3e 200b 2a3e cbdd 2dbe 8c11 fc3d
00000390: 4b2f 813e 25fc adbe b023 acbe 079d 923e
000003a0: efa1 3fbd 732c 4b3e fdea 693e ef33 80be
000003b0: c81c eebd 1a0d 48be 6376 a6be 416e 55bd
000003c0: ff02 603e 255e f3bc 20c6 813d 9859 1d3d
000003d0: 94d0 4abe c78a 61be 83d7 023f 787d 393e
000003e0: 5934 183d 6e3c 0b3e 0be9 c13e a394 ce3e
000003f0: 9ee4 63be ca00 1cbe b56b d0bd a241 5a3e
0.3116179 0.26129535 -0.5427871 -0.013951581 -0.32101396 0.20401701 0.85427284 -0.076552324
-0.21578291 -0.2446023 0.40421972 0.39878446 0.42991787 0.23902814 0.31564748 0.38407138
-0.08391848 0.014189009 -0.060210522 0.4509718 0.5399303 0.05045967 -0.22425273 -0.21993667
-0.1585983 0.27456143 -0.22498083 0.32294664 0.04035902 -0.04701311 -0.23658498 0.21851857
0.3564634 0.11071576 -0.034840725 0.34135035 -0.073185734 0.06978407 -0.16296959 -0.13848586
0.16367643 -0.24727781 -0.28673935 -0.25662106 -0.11752278 -0.07436774 0.16395581 -0.3603456
0.07084567 -0.29021823 0.10046766 0.16870055 -0.22463325 0.024634326 -0.71605456 0.36501917
0.049835406 0.17051853 -0.19586398 0.09933889 -0.20520096 -0.13677424 0.11617149 0.0025360286
0.040628586 0.0043678354 0.2556395 0.41384757 0.01889018 0.026077012 -0.7757061 0.29456905
0.08673205 -0.3149481 -0.015937958 -0.44699144 -0.616946 -0.035948407 0.32719558 0.050853934
-0.21536581 -0.40992954 -0.37574384 -0.356828 0.111536875 0.44592896 -0.1534131 0.06147774
-0.048355218 -0.024057776 -0.03235486 -0.19991203 -0.122573175 0.54600614 0.017210605 -0.10029049
0.021326976 -0.37083587 -0.3265436 -0.19020768 -0.15154581 0.22897506 0.35138142 0.12582485
-0.30557156 0.1545658 0.40872464 0.032747786 0.271552 0.21823934 0.3772328 0.28372708
-0.19965787 -0.03311204 -0.08924826 0.23011892 -0.17476857 -0.22662565 0.033820573 -0.13676883
-0.31191695 0.31474322 0.010168629 -0.18412068 -0.10680889 -0.51311505 0.29692087 0.19984904
0.22275798 -0.038315352 0.19082998 0.36552474 0.21995719 -0.30927584 -0.12711106 -0.06665442
-0.060580965 -0.2194134 -0.25987178 0.016118938 -0.25597802 0.18625835 0.4187944 0.15526702
0.16187313 -0.2484038 -0.39820245 0.16705586 0.05454672 0.3135167 0.51660997 0.047133166
-0.3926767 -0.350436 0.04085177 -0.2292751 0.031732604 -0.015509802 -0.20369735 0.24728844
0.21526809 0.40721127 -0.41659433 0.20304729 0.055208854 0.39417118 0.46256375 -0.42611346
0.47309107 0.20048735 0.5497301 0.34739023 0.1449573 -0.019178445 0.1627691 -0.38177595
0.26071882 0.07440246 -0.025361713 0.23588413 0.43077543 -0.28422713 -0.650522 0.22177258
-0.010771677 -0.06803388 0.25194955 -0.14339775 -0.20256428 -0.20383705 0.36545858 -0.22641516
-0.051355217 -0.21936618 -0.20162922 0.22991155 0.40843275 -0.049612105 -0.19629982 0.33044735
-0.1152587 -0.18480417 -0.09727794 -0.22075443 -0.21776225 0.24001257 0.13518786 0.053196978
0.328857 -0.19332218 -0.016733333 -0.16772434 -0.09167115 -0.3734259 0.04669726 -0.16348794
-0.28555632 -0.43783948 0.050613955 0.37011543 0.57189775 -0.24632575 -0.11345692 0.114264935
0.40164822 0.16605806 -0.16979139 0.12308034 0.25231394 -0.33981434 -0.33620977 0.28635427
-0.04678529 0.19841175 0.22843547 -0.25039622 -0.11626583 -0.19536248 -0.32512197 -0.0521071
0.21876143 -0.029707978 0.063366175 0.03841552 -0.19806129 -0.22025596 0.51110095 0.18114269
0.037159298 0.13597271 0.3787311 0.40347776 -0.2225518 -0.15234676 -0.101767935 0.213141

encoder.9.bias f4 [16]
00000000: afa0 423c baec 28be 7e46 5e3e 0d22 8b3e
00000010: 9573 0fbe ee6d 7ebe 3df8 8ebe 7572 9a3e
00000020: 2572 cbbd 6e40 723d 8093 383e ad64 aebe
00000030: 7f9a 923e 9dd3 663e 14cb 223e 58e3 00be
0.01187913 -0.16496554 0.21706578 0.27174416 -0.14008935 -0.24846622 -0.27923766 0.3016545
-0.09933881 0.059143476 0.18025017 -0.34061185 0.28633496 0.22541662 0.1589778 -0.12586725

pretraining_head.0.weight f4 [16, 16]
00000000: 2ad6 e23e 1fcf bebc b751 10bb d8f6 f5bc
00000010: c25d 2fbf 8082 a13c cd85 483b 35f8 b03d
00000020: 078f 5abd 0845 c8bd 20a2 033f f377 97be
00000030: 8932 e9bc 53ba c53e 00eb 5c3e 3182 353e
00000040: a89a d3bd ccb2 82be bea6 b03e 3803 96bc
00000050: 1fa6 85be 3584 d33b 8e43 4fbe f23c 53be
00000060: 4e93 b6bd c89a 103e 576d 23be f64e a33e
00000070: aad9 c1be e428 09be e051 82be 0cd2 cb3d
00000080: 9e41 0e3e 2fc1 b33e e517 153e df6b e0bd
00000090: e7b8 3fbe c583 b4be 7729 953e 5aae 8bbe
000000a0: 4dc5 b43e af85 423e 1100 a63e 845d 003f
000000b0: ae89 32be 74f2 3fbe b3b7 90be 93b0 2fbe
000000c0: a39d 70be 11d4 033f 6b9d e6be 0576 a73e
000000d0: cd0f aabe fe57 833e 9155 613e 95d6 8a3e
000000e0: f4dd 98be 581a f23d c569 463e 66cd d03d
000000f0: 04a9 4d3d b495 05bf 6b1e 4d3e 1d5c 4cbe
00000100: 0c2c 0cbf 6867 c7bd c097 55be 27df e93d
00000110: 6ac1 0f3e a94c b5be 5a38 e7be 3555 993e
00000120: 23bd b43e cdd3 5fbe febc e2bd 6650 cdbd
00000130: da80 b03e f3ba 893c 4314 043e 1b13 85be
00000140: d4de 903e 89c9 103e 7515 9fbe d4c2 aa3d
00000150: 3839 3c3e 6bd7 9abe dfa4 c63e da31 883e
00000160: 46c7 f43e 9579 51be d428 15be 1d14 eb3d
00000170: 8901 4f3e efdb 82be 38f6 5ebe 814b 1ebe
00000180: bc2f 21bd f943 afbc 4855 493e 826b 6a3e
00000190: 31d9 27bd ff1f 413e e014 a0bd 72ac c53e
000001a0: 5526 b83e 0284 c5bd 0be3 c53e 85a1 9c3d
000001b0: 9fbd 0abe 7ebd 173e 3bdc 90be 8b08 9dbd
000001c0: bcf7 c53e 98cc 8cbe e09f 3dbe 74fc 57be
000001d0: 92a8 1bbf 464e c1bd a38b c93e 6214 91be
000001e0: a16a e3be a0e3 c33e 8a70 d03e 918a d5be
000001f0: feec 2c3e 0b9a b73d a012 a2be 57b7 07be
00000200: 193f c03e 739f acbd 2358 67be fda1 b1bd
00000210: 7b07 d33e bffc c6be aaea a23e 7d4e 9f3e
00000220: 1c68 c4bd aa6f 6dbe 902f efbe 8e74 cabd
00000230: 2e7f dfbd 83e9 a63e 1d4b 073f 68f4 a43e
00000240: cfed 1dbe 17f6 aebd 0219 313d 1a79 dabd
00000250: 8c7f 273e c89e 083e 0418 a63e 2fa8 4a3e
00000260: 982b 60be a078 dfbe 5008 f13e 95fb 933d
00000270: e2d8 04be 1e75 03bf 1e74 ebbe c24c 9fbe
00000280: 3177 86bd 57c0 4c3e a92f a2bc 05ea d03d
00000290: fa45 bc3d 7432 16be 805e 89be 3043 90be
000002a0: 0de2 fb3d 8a37 033e a84b 413e e46a c6bd
000002b0: f276 05bd 9b06 63be 8f16 38be 1071 aabe
000002c0: 675f 033e 0f10 84be 6cc7 5cbc 0435 5bbe
000002d0: e622 bf3e ff7f 16be 0a76 6e3d 71d0 69be
000002e0: 4d86 5bbe ce2f 9c3e 1a15 65bd 049b dcbe
000002f0: 04de 91be ba6c a23e 3e58 dfbd ea41 d63e
00000300: 0513 223e 7979 d63e a5ab 0e3e 8cfd 413e
00000310: 3fcd 7b3e ce82 ad3e 8c2e 353e 6157 d1be
00000320: 8598 5b3d a7fd 463e d5a6 453e 9dac 7dbd
00000330: a70c dd3e bdc2 dfbd 0daf 223e 2ce2 073e
00000340: 7cb6 f5be b453 55be bbd5 103d 9deb 623c
00000350: e3b1 993e ffbb c1be 69c4 293e 2c58 523e
00000360: 8ff4 bfbb 625a 82be 54d9 08be ed1c b9bd
00000370: 5568 81bc c5e1 433c 22a1 853e 3273 27be
00000380: d897 6fbd 67c8 a3be fab3 783e 497d 563e
00000390: 2fc0 95be 11dd bfbe 06ac 373e 73c7 c03e
000003a0: 98b1 88be f0d8 71be ee97 9c3e f023 b0be
000003b0: cff2 783e 35f4 c9bd a776 5e3e 5a85 32be
000003c0: af4d e63d 24ba 513e 8680 933d b3a5 21bd
000003d0: d342 a9be 25a1 f9be 2024 c4be 48a4 ca3e
000003e0: 7abc 62be 1432 ad3e 140b a03e 7fe2 e1bd
000003f0: 861c 983e 0424 a5bc 9580 d63b 782c 4ebe
0.4430402 -0.023292122 -0.0022021362 -0.03002493 -0.6850244 0.019715548 0.003059733 0.08641092
-0.053359058 -0.09778792 0.5141926 -0.29583701 -0.02846648 0.38618717 0.2157402 0.17725445
-0.10332233 -0.25527036 0.34502214 -0.018312082 -0.26103303 0.0064549693 -0.20240614 -0.20628718
-0.08914815 0.14121544 -0.15959679 0.3189618 -0.37861377 -0.13394505 -0.2545309 0.09952173
0.13892218 0.35108325 0.14559896 -0.10958075 -0.18722878 -0.35256782 0.29133198 -0.27281457
0.3530678 0.18996309 0.32421926 0.50142694 -0.17435333 -0.18744832 -0.2826515 -0.17157201
-0.23497634 0.5149546 -0.45041975 0.3270723 -0.3321518 0.2565307 0.22005297 0.27116838
-0.29856837 0.11821431 0.19376285 0.10195427 0.050210014 -0.52181554 0.20031135 -0.19957013
-0.5475471 -0.0973652 -0.2085867 0.11419516 0.14038625 -0.3541005 -0.4516018 0.2994782
0.3530055 -0.2185814 -0.11071204 -0.100251004 0.34473306 0.016812777 0.12898354 -0.2599114
0.28295004 0.1413938 -0.31071058 0.08337942 0.18381202 -0.30242476 0.38797662 0.26600534
0.47808284 -0.20456536 -0.14566356 0.11478446 0.2021543 -0.2555842 -0.21773612 -0.1545849
-0.039352164 -0.021394717 0.19661438 0.22892573 -0.040978614 0.18859862 -0.078164816 0.38608128
0.35966745 -0.09644319 0.38649783 0.07647995 -0.13548897 0.1481838 -0.28293023 -0.07667645
0.3866557 -0.27499843 -0.18518019 -0.21092397 -0.6080409 -0.094387576 0.39364347 -0.28335863
-0.4441729 0.38259602 0.4071086 -0.4170728 0.1688728 0.08964928 -0.31654835 -0.13253532
0.3754814 -0.0842885 -0.22592215 -0.08673475 0.41216645 -0.38864705 0.3181966 0.3111457
-0.0959017 -0.23187128 -0.46715975 -0.09885512 -0.109129295 0.3260003 0.5284899 0.32217717
-0.15422748 -0.08543032 0.04323674 -0.106676295 0.16357249 0.1334182 0.32440197 0.1979072
-0.2189163 -0.43646717 0.47076654 0.0722572 -0.12973359 -0.5135058 -0.45987028 -0.3111325
-0.06565703 0.19995247 -0.019798117 0.10200886 0.091930345 -0.14667684 -0.2682991 -0.2817626
0.12298975 0.12814155 0.18876517 -0.096883565 -0.03258414 -0.22170489 -0.17977355 -0.33289385
0.12829362 -0.25793502 -0.01347528 -0.21406943 0.37331313 -0.14697264 0.05821804 -0.2283342
-0.2143795 0.30505222 -0.055928327 -0.43087018 -0.28489697 0.31723577 -0.10905503 0.41847163
0.15827568 0.4188955 0.13932665 0.18944377 0.24590014 0.3388886 0.17693537 -0.40886977
0.05361225 0.19432698 0.19301923 -0.061932195 0.43173715 -0.10925815 0.15887089 0.13269871
-0.47990787 -0.20832711 0.03536008 0.01385012 0.3001853 -0.37838742 0.16578831 0.20541447
-0.005858011 -0.25459582 -0.13364154 -0.0903872 -0.01579682 0.011955683 0.26099497 -0.16352537
-0.05849442 -0.31988832 0.24287406 0.2094623 -0.29248187 -0.37473348 0.17936715 0.37652168
-0.26697993 -0.23617911 0.30584663 -0.34402418 0.24311374 -0.09861032 0.2172495 -0.17433682
0.11245286 0.20481163 0.07202248 -0.039464664 -0.33058795 -0.48755756 -0.3830881 0.39578462
-0.2214221 0.3382727 0.31258452 -0.11029529 0.29709262 -0.020158775 0.00654609 -0.20134151

pretraining_head.0.bias f4 [16]
00000000: 1792 2e3e 93b3 e9bd 6539 1fbe 2e61 17bd
00000010: 0c48 fa3d 2d80 fe3c af2f 923e 6df1 ebbd
00000020: 8b58 553d f382 79bd 2d2d 253b 3951 06be
00000030: 1337 523d e98b c13d 538b d23e 5a14 113f
0.17047916 -0.11411204 -0.15549238 -0.036957912 0.12220773 0.031066978 0.28552005 -0.11520658
0.052086394 -0.0609159 0.0025203929 -0.13116921 0.051322054 0.09450514 0.4112192 0.5667168

pretraining_head.3.weight f4 [16, 16]
00000000: 626a 0f3f ff7f 61bd 3636 ad3d 87cb 7cbe
00000010: 60c4 b0bd 2da3 b7be 20f1 873e 1311 0d3c
00000020: 752c ae3d 338e aebd dcc8 1bbd 7017 8bbe
00000030: 3ebb 9b3e 4e1a 3abe 7925 adbe 7cc9 b33e
00000040: 941d ea3e 3e81 67be cada b43e ba0b a6be
00000050: f1d3 7cbe aea6 e63e d9e0 3d3e 65d8 52be
00000060: 1b23 a53e 5056 03bf 9811 abbe d1ff e63d
00000070: 1768 acbc b971 5dbe 234b a5bd 9c77 843e
00000080: e2d5 34be c27c 53be e29c 9d3d d754 91be
00000090: 2543 983e 62ac a6be f4c7 19be d52e 91ba
000000a0: 4b7f c23c 84fb 93be 59e2 39bd c280 16bc
000000b0: ac82 073f 8053 3e3e a2be 313e 4493 8e3e
000000c0: ce40 18bd c8e7 553e a971 ad3e 129e b0be
000000d0: 954d e7be 7de9 3abe e4f8 803e 0798 86be
000000e0: f664 81bd f774 ae3d 4a76 a63e 2529 1ebe
000000f0: 8bbd b2be 80fa 9cbe ab9b 893e d520 c13e
00000100: 7257 81bd 41d6 a1be 7872 a03e f62e 723e
00000110: a69c c43e ee1a 98be a82c 24be 9299 863e
00000120: 15d5 1cbe e325 74be 6e22 573e 9adf 0b3e
00000130: 7c3b bc3e b76e b33d 165f 24be 7e23 57be
00000140: 856a 00bc 71c8 adbe fe11 b0be 8e61 b73d
00000150: ae46 d8be c6b6 8ebe 682e 093e 4581 1bbf
00000160: 105e f63e 2408 d8be e573 a1be cd25 dcbd
00000170: 1953 4dbe 74fc a3be fe10 093f 7389 493f
00000180: 4ad2 ac3e 69d3 68be d105 c23e 7224 7c3d
00000190: a18e 663d 8b67 b43e 7541 82be 58a2 113f
000001a0: 5296 bcbc cadb 76bd 16aa 0bbe 3915 733e
000001b0: 497d 4a3d 8461 9e3e 4dec ebbe 34b4 acbe
000001c0: 7f3d 49be b706 843e cf9f f93c d445 acbd
000001d0: 7de3 013f 9cb5 8c3e 6fb6 e23c 0309 91be
000001e0: 69b2 c9bd ba2b c3be 57dd 643e efb1 233e
000001f0: 9945 d13e 23f5 c2bd ead3 9bbd b1b2 88be
00000200: 5b71 e6be 74d1 25be 272a a8be 2cde 9abe
00000210: 9b65 1e3e 2424 1b3e 3b08 133d 6dbc 083e
00000220: 4a42 ac3d 845f 9aba 0f22 54be ab32 703e
00000230: 713b 8f3e 7358 d93e 2cee 11be a888 313e
00000240: c284 dd3d e0f4 133e b11e 98be 5009 483e
00000250: c2d9 6cbd 01b0 cbbe 9962 4abd 6a7a d1be
00000260: a272 653b 3aad 16be d595 743e ea73 88be
00000270: 2c35 1f3e f916 cabd 1ba8 8c3d 583d c83e
00000280: 2880 25bd ca8a 5c3d 8f47 8bbe f016 153e
00000290: 5ccc 94bd ce23 4cbe 6f39 c73d 252b 2f3e
000002a0: 6497 fabc 9bc3 30bd 83b0 543e b9de c0bd
000002b0: f366 86bd 5b9d 6a3d 1355 663e c023 11be
000002c0: 3b08 b5bd 0bc7 be3e 28da 90be 8bb9 8f3e
000002d0: 9306 89be 1fc7 d33e 0739 62bd e674 f5be
000002e0: a29f aa3e 9a21 acbe 450c c0be b2e8 053e
000002f0: 1c0b 82be 76b5 5cbb 74b2 863e 901d 8d3e
00000300: b37a 2c3d 3829 c13e 96e4 3c3e a4f3 793e
00000310: 05ba 733e c9c7 ab3e f8e0 12be f1b3 54bd
00000320: 70c7 dd3d 85d9 7fbe d920 a7be 1914 053f
00000330: 9559 273e 2126 dd3d 297f 50be 936d 65be
00000340: 7afa ec3e 24ad 5a3d 5bc2 52be 177f 083f
00000350: 3e24 973e 6715 87be 8844 8fbe 7412 003f
00000360: a1e5 c43d af21 afbe a1d9 20bd 7cb3 bc3c
00000370: c7d8 a73e dcef 2b3d 7c75 91be d885 49be
00000380: 5e93 22bf dac1 9fbe 9918 ec3c 4f3b 61be
00000390: 67e4 b93e e1d3 c13d 7e69 5e3e ff1a e1be
000003a0: 7895 dbbd 0612 2e3e c339 dbbc d08a d63e
000003b0: f8c0 8b3e e97c 583e ead9 88bd d866 50be
000003c0: 0e33 5f3e 2853 f23e 524f 983e 177e 15be
000003d0: 1054 903e 8fb6 a1be 8f2b 15be 8e87 0bbe
000003e0: 34fa 82be cb18 f83d c31d a33e bda9 22bc
000003f0: c3e2 ba3e 4fa7 02be 70f5 d5be 5b0a 763d
0.560217 -0.055053707 0.084576055 -0.24687015 -0.086312056 -0.3586668 0.2655115 0.008610028
0.08504573 -0.08523216 -0.03803335 -0.2716632 0.30416292 -0.18174097 -0.33817652 0.35114658
0.4572569 -0.22607896 0.35323173 -0.32430822 -0.24690224 0.45049042 0.18542804 -0.2059036
0.32253346 -0.5130358 -0.3341186 0.11279262 -0.021045728 -0.21625413 -0.08070972 0.25872505
-0.17659715 -0.2065306 0.07695939 -0.2838504 0.29738727 -0.32553393 -0.15017682 -0.0011076579
0.023742339 -0.2890283 -0.045381878 -0.009185972 0.52933764 0.1858654 0.17357877 0.2784673
-0.037171178 0.20889199 0.33875778 -0.34495598 -0.45176378 -0.18253131 0.25189888 -0.26287863
-0.06318085 0.08518403 0.32512122 -0.15445383 -0.34910235 -0.30659866 0.26876578 0.3772036
-0.06315507 -0.31608775 0.31337333 0.23650727 0.38400763 -0.29708046 -0.1603266 0.2628904
-0.1531566 -0.23842578 0.21009228 0.13659516 0.36764133 0.087613516 -0.16051897 -0.21009633
-0.007837896 -0.33941987 -0.34388727 0.08954154 -0.42241424 -0.2787382 0.13396609 -0.60744125
0.4811864 -0.4219371 -0.31533733 -0.107493974 -0.2005123 -0.32028544 0.53541553 0.78725356
0.33754188 -0.22736897 0.37895063 0.061558194 0.056288365 0.35235247 -0.25440565 0.5688834
-0.023020897 -0.0602682 -0.13639101 0.23738565 0.049435887 0.30933774 -0.4607872 -0.33731234
-0.19652365 0.25786373 0.03047171 -0.08411756 0.50737745 0.27482307 0.027674882 -0.28327188
-0.09848482 -0.38119298 0.2235006 0.15985845 0.4087341 -0.09519412 -0.07608779 -0.2669883
-0.45008358 -0.16193181 -0.3284466 -0.3024763 0.15468447 0.15150505 0.03589652 0.13353129
0.08411081 -0.0011777733 -0.20716117 0.23456828 0.27975038 0.42450294 -0.14251012 0.17337286
0.10816337 0.14448881 -0.29710916 0.19534802 -0.057824858 -0.39782718 -0.049410436 -0.40913707
0.0035010953 -0.14714518 0.23885281 -0.26650935 0.15547627 -0.09867663 0.06868001 0.39109302
-0.040405422 0.053843297 -0.27203032 0.14559531 -0.07265541 -0.19935533 0.097277515 0.17106302
-0.030589767 -0.043155294 0.20770459 -0.09417481 -0.06562605 0.057278972 0.2249339 -0.14173794
-0.088394605 0.37261233 -0.2829144 0.28071246 -0.26762828 0.41362855 -0.055230167 -0.4794075
0.33324915 -0.33619386 -0.3750936 0.13077047 -0.253991 -0.0033677495 0.26308024 0.27561617
0.042109203 0.3772676 0.18446574 0.24409348 0.2380143 0.3355086 -0.14343631 -0.051929418
0.10829055 -0.24985321 -0.32642248 0.5198379 0.16342767 0.10798288 -0.20361008 -0.2240508
0.46284848 0.053387776 -0.20581953 0.53318924 0.29519838 -0.26383516 -0.27981973 0.5002816
0.09614111 -0.34205386 -0.039270047 0.023034804 0.32782575 0.041976795 -0.28409946 -0.19679964
-0.63506114 -0.31202585 0.028820323 -0.2199528 0.3630707 0.09464241 0.2171993 -0.4396591
-0.10721868 0.16999063 -0.026760941 0.4190278 0.2729566 0.211414 -0.06682189 -0.20351732
0.2179682 0.47329068 0.29748017 -0.1459888 0.28189135 -0.31584594 -0.14567398 -0.13625929
-0.25581515 0.12114104 0.31858644 -0.009928164 0.3650113 -0.12759136 -0.41788816 0.06006847

pretraining_head.3.bias f4 [16]
00000000: a81b e03d f4aa 4b3e 2262 6e3e e06c 053e
00000010: 2f01 4ebe 3b23 3a3f 2402 d8be f72e 003e
00000020: 50f7 803e 65fe 8c3e 5a83 5e3d e906 803e
00000030: 5854 21be 16d3 e2bd 7fb4 323e 3a26 0cbc
0.10942775 0.19889432 0.23279622 0.13029814 -0.20117639 0.7271001 -0.42189133 0.12517916
0.25188684 0.27537838 0.054324485 0.25005272 -0.15754831 -0.11075418 0.17451666 -0.008554036
