trained_models/cylinder-bands_orc_corr.pt (torch, 19297 bytes, 12 tensors)

encoder.0.weight f4 [16, 146]
0	0x3e1787d2	0.14797905
1	0x3e237680	0.15963173
2	0x3ebb79a7	0.3661625
3	0x3e4cb762	0.1999183
4	0xbe0afafd	-0.13572307
5	0xbdc09f21	-0.094053514
6	0x3db4c552	0.08826698
7	0x3b8da263	0.0043223365
8	0xbcaabc1b	-0.020841649
9	0x3c6c2606	0.014413362
10	0xbdc2cbee	-0.09511553
11	0x3da30407	0.079597525
12	0xbdac0ec3	-0.08401253
13	0xbe8bad03	-0.27280435
14	0x3c9c5ed0	0.019088179
15	0xbdd86d57	-0.1056773
16	0xbcd2ccca	-0.025732417
17	0x3d9ff166	0.07809715
18	0x3d85ec2a	0.06539185
19	0xbda04956	-0.07826488
20	0xbe1b7c98	-0.15184247
21	0xbd96b9c5	-0.073596515
22	0xbd96c49f	-0.07361721
23	0xbe1c39cf	-0.15256427
24	0xbd38e843	-0.045143377
25	0x3bfb2b2b	0.007665058
26	0xbd09f443	-0.03368021
27	0xbd924908	-0.07142836
28	0xbdab44fa	-0.083627656
29	0xbd5a3730	-0.053275287
30	0xbc3e4f52	-0.011615591
31	0xbd5c54bf	-0.053791758
32	0x3c86ef18	0.01647143
33	0xbe51d96c	-0.20493096
34	0xbd68f47b	-0.05687378
35	0x3d83b80c	0.064315885
36	0x3e004e27	0.12529813
37	0x3e1dc87b	0.15408508
38	0xbe3f0f4b	-0.18658178
39	0xbde51bc5	-0.11186937
40	0x3c207650	0.009793833
41	0x3e0abcda	0.13548604
42	0xbeac1085	-0.33606353
43	0x3dac316d	0.08407865
44	0x3eb2b97a	0.34907132
45	0x3cfa3ec4	0.030547507
46	0x3e2d4605	0.16921242
47	0xbcc5e542	-0.02415717
48	0x3e85f3ff	0.26162717
49	0x3c37b5f1	0.011212812
50	0xbe2a9b90	-0.16660905
51	0xbd07d66a	-0.033163466
52	0xbe9b30ec	-0.30310762
53	0x3d87add5	0.06624953
54	0x3e0086ba	0.12551394
55	0x3dbc2c29	0.091881104
56	0xbe5f882b	-0.21829288
57	0x3d84155c	0.064493865
58	0x3d593318	0.053027242
59	0x3cdcdf51	0.026961954
60	0xb920358e	-0.0001527874
61	0xbe64ff79	-0.2236308
62	0x3de5953f	0.11210107
63	0xbdf67217	-0.1203348
64	0x3e85252e	0.26004928
65	0x3e5b862e	0.21437904
66	0x3df559bd	0.11980007
67	0x3e0d8f94	0.13824302
68	0x3ce31acb	0.027722737
69	0x3e6f0509	0.23341765
70	0x3e8fdf28	0.28099942
71	0xbb933e6f	-0.0044935266
72	0xbbdc8068	-0.0067291744
73	0x3cee0ef6	0.029059868
74	0xbdd6b319	-0.10483379
75	0xbd38eb5a	-0.045146324
76	0xbdf6d84d	-0.12052975
77	0x3e437138	0.19086158
78	0x3dcf0afd	0.10109518
79	0xbe7c1e89	-0.24621023
80	0x3d94b861	0.0726173
81	0x3ccc2dd7	0.024924202
82	0x3da60081	0.08105565
83	0x3dfd4bb9	0.123679586
84	0xbdaa6c31	-0.08321417
85	0xbe953ea5	-0.29149356
86	0x3c8a82ca	0.016908068
87	0x3de47594	0.11155239
88	0x3c51956a	0.012791971
89	0x3d1d6d3a	0.038434245
90	0x3e181798	0.1485275
91	0x3d1545db	0.036443572
92	0xbe19f6e0	-0.15035582
93	0x3e924a27	0.285722
94	0xbb6d36ba	-0.003619595
95	0xbcdf1a18	-0.027234122
96	0x3d645d72	0.05575318
97	0x3dc19e40	0.09454012
98	0x3ec831af	0.39100406
99	0x3db7090e	0.08937274
100	0xbda66866	-0.08125381
101	0x3e73abf2	0.2379606
102	0x3e70c2b6	0.23511776
103	0x3e7aeb27	0.24503766
104	0x3d42c508	0.047551185
105	0xbe62a907	-0.22134791
106	0x3c734109	0.014847049
107	0xbe4cd85a	-0.20004407
108	0x3e804a40	0.25056648
109	0xbb253228	-0.0025206897
110	0xbd0a9559	-0.033833835
111	0x3d9601bd	0.0732455
112	0x3c196feb	0.009365062
113	0xbe2c321a	-0.16815987
114	0x3dc9cfc9	0.09854085
115	0xbd495878	-0.049156636
116	0xbe518339	-0.20460214
117	0x3d726e7c	0.059187397
118	0xbc643dda	-0.013930762
119	0x3d22381f	0.039604302
120	0xbdbddf4f	-0.09271108
121	0xbec1f6ad	-0.3788351
122	0x3e5c8479	0.2153491
123	0x3e742cc0	0.23845196
124	0xbdbc27f0	-0.09187305
125	0x3e5ca2d6	0.21546492
126	0x3e384383	0.17994504
127	0xbe37964a	-0.17928424
128	0x3e2574ea	0.1615788
129	0xbde9b4e8	-0.11411458
130	0x3e69ac6b	0.22819678
131	0xbdf6ee7a	-0.120572045
132	0x3dd789cb	0.10524329
133	0xbebdb928	-0.37055326
134	0x3e2ede3c	0.17076963
135	0xbe2f2f52	-0.17107895
136	0x3da2a31b	0.07941266
137	0xbd5e8eb7	-0.054335322
138	0x3b7f7777	0.0038981119
139	0xbd1f36ac	-0.0388705
140	0xbeb361c4	-0.35035527
141	0xbe3e1c8c	-0.18565577
142	0xbe3eb0a9	-0.18622078
143	0x3e311ca2	0.17296079
144	0x3df2fee4	0.11865023
145	0xbdd2e8f4	-0.102983385
146	0xbd9b2d4f	-0.07577001
147	0xbe2bf8f9	-0.16794194
148	0x3d6bc7c4	0.05756356
149	0x3e4e71ea	0.20160642
150	0x3dedc3fa	0.11609645
151	0x3cfcdb8d	0.030866409
152	0xbd53f137	-0.051743712
153	0x3d37e1c6	0.04489305
154	0x3e511423	0.20417838
155	0xbde89ca8	-0.11358005
156	0x3de3c153	0.11120858
157	0x3e5b0e8d	0.2139227
158	0x3dff24fa	0.124582246
159	0xbe10f6d8	-0.14156663
160	0xbe877492	-0.26456124
161	0x3e63655f	0.22206639
162	0xbdb6e3e0	-0.089301825
163	0x3ba7e290	0.005123444
164	0xbdca8ca8	-0.09890109
165	0xbdb76e77	-0.08956616
166	0x3dd3774c	0.103254884
167	0xbe3e5961	-0.18588783
168	0x3e0b9f3e	0.13634965
169	0xbe1e0802	-0.15432742
170	0xbd926f18	-0.07150096
171	0x3e1af374	0.15131932
172	0xbe5f39b5	-0.21799357
173	0x3db8a761	0.090163
174	0xbd991f96	-0.07476728
175	0x3e62eb46	0.22160062
176	0x3c86c4a4	0.016451187
177	0xbe9122ed	-0.2834696
178	0x3cc0edec	0.02355095
179	0xbe2b4908	-0.16727078
180	0xbc8ee2e5	-0.017442176
181	0xbeb23339	-0.34804705
182	0xbe732670	-0.23745131
183	0xbca654db	-0.020304134
184	0x3d85f3cc	0.06540641
185	0xbc368a2a	-0.011141339
186	0xbe9a6963	-0.3015853
187	0x3d24032a	0.04004208
188	0xbd9ac86b	-0.07557758
189	0x3e49e1e4	0.19715077
190	0x3cf59639	0.029978858
191	0xbddd51f2	-0.108066455
192	0x3c2c9d89	0.010535606
193	0xbd619166	-0.055070303
194	0x3e1fa2d7	0.15589462
195	0xbe0bed64	-0.13664776
196	0xbe2b7fc4	-0.16747957
197	0xbd0f91d9	-0.0350512
198	0x3e058baf	0.13041566
199	0x3e44e46c	0.19227761
200	0x3d87ae17	0.06625002
201	0x3e2d485e	0.16922137
202	0xbd0d8b68	-0.034556776
203	0x3d155366	0.036456488
204	0x3dc987cf	0.098403566
205	0x3e196a7e	0.1498203
206	0x3b8b2205	0.004245999
207	0xbd31c955	-0.043404896
208	0xbe2931ad	-0.16522856
209	0x3e84cf21	0.25939277
210	0x3d8b86cd	0.068128206
211	0x3ce77179	0.02825235
212	0xbd8d52d1	-0.069005616
213	0xbd6558ec	-0.055993006
214	0x3e0c54e0	0.13704252
215	0xbdf3d989	-0.11906726
216	0xbe870c30	-0.26376486
217	0xbc38382b	-0.01124386
218	0x3e3ca086	0.1842061
219	0xbeb7a03d	-0.3586444
220	0x3c9456eb	0.018107852
221	0x3e0333fb	0.12812798
222	0xbe6aae6f	-0.22918104
223	0xbd3b1dad	-0.045682598
224	0x3e97c57d	0.2964286
225	0x3e4b7f48	0.19872773
226	0xbdc851cd	-0.09781227
227	0xbdb11863	-0.086472295
228	0x3cfa8b6f	0.030584065
229	0x3e647988	0.22311985
230	0x3e3eed0e	0.18645117
231	0x3d4f7b00	0.05065441
232	0xbdc4ab27	-0.09602957
233	0xbe8a37ce	-0.269957
234	0xbe8b7808	-0.27240014
235	0x3e2ca34c	0.16859168
236	0xbde9b894	-0.114121586
237	0x3d3dd7c2	0.04634834
238	0x3e2a4f82	0.16631892
239	0xbdead743	-0.11466839
240	0xbb853e68	-0.0040662773
241	0x3d536505	0.05161001
242	0x3d84bbd9	0.064811416
243	0xbe89f010	-0.26940966
244	0x3e22f84f	0.15915035
245	0x3e510e61	0.20415641
246	0x3d48015f	0.048829433
247	0x3d8a03e1	0.06739021
248	0xbc920286	-0.017823469
249	0xbca25d9c	-0.019820027
250	0x3dcf1d71	0.101130374
251	0x3e9a3746	0.30120295
252	0xbd880be6	-0.066428944
253	0x3e2372da	0.15961781
254	0x3e032241	0.12806036
255	0x3e5244bd	0.20534034

encoder.0.bias f4 [16]
0	0x3e204b63	0.15653758
1	0x3d861d66	0.06548576
2	0xbd499008	-0.049209625
3	0x3db7a43c	0.08966872
4	0xbbb716e1	-0.005587444
5	0x3df189aa	0.117938355
6	0x3dd23cfd	0.10265539
7	0x3d0c6b7f	0.034282204
8	0xbd9b0685	-0.07569603
9	0x3d904218	0.070438564
10	0xbd6de3a1	-0.058078412
11	0x3dc921aa	0.09820874
12	0xbd1cb98b	-0.038262885
13	0xbd97643a	-0.073921636
14	0x3d09a23d	0.033601988
15	0x3d9e3263	0.07724454

encoder.3.weight f4 [16, 16]
0	0x3e85b536	0.26114815
1	0x3e9d721e	0.30751127
2	0xbe85a30b	-0.26100954
3	0x3d2b7a21	0.041864518
4	0x3d4a05b5	0.04932185
5	0xbf080d34	-0.53145146
6	0xbed05908	-0.40692925
7	0xbe873b92	-0.26412636
8	0x3e96f021	0.2948008
9	0xbf13deb3	-0.5776169
10	0xbbdcc888	-0.0067377724
11	0x3e905737	0.2819154
12	0x3e0d8d29	0.1382338
13	0x3e361384	0.17780882
14	0xbec9f80f	-0.39447066
15	0x3cdd48af	0.027012197
16	0xbea34738	-0.31890273
17	0xbdf08ab7	-0.11745208
18	0xbe271583	-0.163168
19	0x3e7eb0fb	0.248722
20	0x3eb5496f	0.35407588
21	0x3eb5f886	0.3554117
22	0x3e9ec65d	0.31010714
23	0x3ef2bffa	0.47412091
24	0x3ea542da	0.32277566
25	0x3dd87c03	0.10570528
26	0xbe811100	-0.25208282
27	0xbe4e9dd1	-0.2017739
28	0xbe920472	-0.28519017
29	0xbd66698f	-0.056253012
30	0xbee5736f	-0.4481463
31	0x3e702bb0	0.23454165
32	0x3e8d0e77	0.27550098
33	0x3e9d9131	0.30774835
34	0x3ea46cd0	0.32114267
35	0x3e561c07	0.20909129
36	0x3e70a598	0.23500669
37	0x3dd071b5	0.10177938
38	0x3eef1a24	0.4669963
39	0x3ecdf4a1	0.402257
40	0x3e9106e7	0.2832558
41	0x3f0c436d	0.54790384
42	0xbde7ee5a	-0.11324759
43	0x3e3aa74d	0.18227883
44	0x3d70ac5c	0.058758125
45	0xbe8669b7	-0.2625253
46	0xbec75d55	-0.38938394
47	0xbde891c3	-0.11355927
48	0xbeb7646c	-0.35818803
49	0x3e8f8add	0.28035632
50	0x3eed5aba	0.4635828
51	0xbe962e19	-0.29332045
52	0x3d85d7bd	0.065352894
53	0xbf19cb8a	-0.600762
54	0xbe9d211a	-0.30689317
55	0xbe64b9e0	-0.2233653
56	0xbe878e34	-0.2647568
57	0x3e48e684	0.19619185
58	0x3cee0b59	0.029058145
59	0x3e27e0a2	0.16394284
60	0xbea37af7	-0.31929752
61	0xbec7db1f	-0.39034364
62	0xbf090db9	-0.53536564
63	0xbd9612df	-0.07327818
64	0xbe123c2f	-0.1428077
65	0x3d45710b	0.04820351
66	0xbdc3d3b1	-0.09561861
67	0xbe0148a8	-0.12625372
68	0x3eaa196d	0.33222523
69	0x3ed416fc	0.41423786
70	0xbddf913e	-0.109163746
71	0xbe8fe7da	-0.28106576
72	0xbe1c1536	-0.15242466
73	0xbefcbeca	-0.4936431
74	0xbefe4828	-0.49664426
75	0xbdc52e80	-0.0962801
76	0xbdf197a1	-0.11796499
77	0xbdc8d95e	-0.098070845
78	0x3e4deb4c	0.2010929
79	0xbed3412a	-0.41260654
80	0xbe93b55f	-0.28849313
81	0xbe81fca8	-0.25388074
82	0xbc27f380	-0.010250926
83	0xbdd3ba17	-0.10338228
84	0xbe8e9afa	-0.27852613
85	0xbe582896	-0.21109232
86	0xbe7e9388	-0.24860966
87	0xbe1f36f2	-0.15548304
88	0xbe3d26d2	-0.1847184
89	0xbe92b8b7	-0.2865655
90	0x3e24b354	0.16084033
91	0x3e3856ab	0.18001811
92	0x3e0d0ce3	0.13774447
93	0xbee3f1b7	-0.4452035
94	0xbdd518e7	-0.1040514
95	0xbe203a0b	-0.15647142
96	0xbe47e101	-0.19519426
97	0xbe47d275	-0.19513877
98	0xbd25d1fb	-0.040483456
99	0x3e93bc34	0.28854525
100	0x3e7fd68e	0.2498419
101	0xbe517cef	-0.20457815
102	0xbd888e0f	-0.066677205
103	0xbf065123	-0.52467555
104	0x3e599518	0.21248281
105	0x3f017ebd	0.5058401
106	0x3d470f51	0.04859859
107	0x3e8e332e	0.27773422
108	0xbe61ecb0	-0.22062945
109	0x3e99e670	0.30058622
110	0x3e0486b6	0.12942013
111	0xbe84bfbc	-0.25927532
112	0xbe9b0b17	-0.30281898
113	0x3e8e4bf0	0.2779231
114	0x3e2c1e8b	0.16808526
115	0x3ebade44	0.364977
116	0x3d8cf9d2	0.06883587
117	0x3e750ad5	0.23929913
118	0x3e41b82c	0.18917912
119	0xbea2fb82	-0.3183251
120	0xbde2859f	-0.110606425
121	0xbe39e11f	-0.18152283
122	0x3de3d4bd	0.11124561
123	0xbecd72c1	-0.40126613
124	0x3ec009f2	0.37507588
125	0xbe94cd12	-0.29062706
126	0xbeb08686	-0.34477633
127	0xbe6c1429	-0.23054565
128	0x3e1afc8b	0.151354
129	0x3ec16f45	0.37780204
130	0x3eb10cfb	0.34580216
131	0x3dddacfb	0.10824009
132	0x3e3512fb	0.17683022
133	0x3d2631db	0.04057489
134	0xbe434b15	-0.1907161
135	0xbda992b5	-0.08279935
136	0xbba5c91f	-0.005059376
137	0x3f22c8eb	0.63587826
138	0xbdf8e256	-0.12152545
139	0x3eac9449	0.33706883
140	0xbe53017b	-0.20606034
141	0x3b5f6ca9	0.0034091866
142	0x3e0fd523	0.14046149
143	0xbe151aa0	-0.14560938
144	0x3e1e88c9	0.15481867
145	0xbeae1853	-0.34002933
146	0x3dc59584	0.096476585
147	0x3f1badc0	0.60811996
148	0xbdeaa05a	-0.11456366
149	0xbdd9207a	-0.106018975
150	0x3e2e9c21	0.17051746
151	0xbe354300	-0.1770134
152	0x3ec44faa	0.3834203
153	0x3ee8e502	0.4548722
154	0x3e5ff483	0.21870618
155	0x3ea2fbd4	0.31832755
156	0xbe23997b	-0.15976517
157	0x3c809d3e	0.015699979
158	0xbe46bd67	-0.19408189
159	0xbe9d6d00	-0.30747223
160	0x3ed5c697	0.41753075
161	0xbe9e4e0e	-0.30918926
162	0xbe94d92f	-0.29071948
163	0x3c4f43bf	0.012650429
164	0xbe696730	-0.22793269
165	0x3da618f2	0.08110227
166	0xbe6b1962	-0.22958902
167	0x3e967346	0.29384822
168	0xbdcde0e7	-0.10052662
169	0x3ea49e5b	0.32152066
170	0xbe74dad4	-0.23911601
171	0xbcc69b27	-0.024243904
172	0xbdcaeb9e	-0.09908222
173	0xbf0593f1	-0.52178866
174	0x3e4abc8e	0.1979849
175	0xbe81d2c0	-0.25356102
176	0xbe131e23	-0.14366965
177	0x3c86fabb	0.01647698
178	0x3e059988	0.13046849
179	0x3ed3f41c	0.41397178
180	0x3e8022b2	0.2502647
181	0xbd90d833	-0.07072487
182	0xbe67ccf4	-0.22636777
183	0x3ea180ab	0.31543478
184	0x3ea02311	0.31276754
185	0xbee0f63a	-0.43937856
186	0xbe62e534	-0.22157747
187	0x3dcc112b	0.09964212
188	0xbe96962b	-0.29411444
189	0x3e0854f9	0.13313664
190	0xbc037d9e	-0.008025555
191	0x3d848f72	0.064726725
192	0x3e3bed63	0.18352275
193	0xbe92c42e	-0.28665298
194	0x3eb41fa6	0.35180396
195	0x3ed8751a	0.4227684
196	0x3e989877	0.2980382
197	0xbdce491f	-0.100725405
198	0x3e908f5c	0.28234375
199	0xbeddce00	-0.43321228
200	0x3de2e1c9	0.11078221
201	0x3d8f7bd8	0.07006043
202	0x3eafd836	0.34344643
203	0x3f14fe9e	0.58201015
204	0xbc9df386	-0.01928116
205	0x3e868cc1	0.26279262
206	0x3e830e33	0.2559677
207	0x3e91826e	0.28419822
208	0x3dd8bf87	0.10583406
209	0xbf2e8af1	-0.6818076
210	0xbed343c9	-0.41262653
211	0x3e6a5b00	0.22886276
212	0x3d942fb8	0.07235664
213	0x3e74ef74	0.23919469
214	0x3eacd105	0.3375322
215	0xbdfd5c4e	-0.12371121
216	0x3e51af2d	0.2047698
217	0x3d47ec9c	0.048809633
218	0x3d91cf3a	0.071196035
219	0x3eb34cc0	0.35019493
220	0xbcb77e8a	-0.022399206
221	0xbea1edf6	-0.31626862
222	0x3e617992	0.22019032
223	0xbea9663d	-0.33085814
224	0x3e59b017	0.21258579
225	0xbe2a8bbe	-0.1665487
226	0x3e9c7010	0.30554247
227	0x3dd67664	0.104718
228	0xbdaf2f86	-0.08553986
229	0xbe57b738	-0.21065986
230	0xbe299967	-0.16562425
231	0x3d3bba36	0.04583188
232	0x3e639cd6	0.22227797
233	0x3e8ee25b	0.2790707
234	0x3eb4e06d	0.35327473
235	0x3eaf7064	0.34265435
236	0xbec36a0c	-0.38166845
237	0x3e752d2f	0.23943017
238	0x3e084d8b	0.1331083
239	0x3e06ef60	0.13177252
240	0x3ea36dd2	0.31919724
241	0x3e346209	0.17615522
242	0xbdef9f62	-0.11700322
243	0x3eab4c35	0.3345658
244	0x3d8813d0	0.06644404
245	0xbef1315b	-0.47107968
246	0x3e48fedf	0.19628476
247	0xbcb6eca8	-0.022329643
248	0xbea0d751	-0.31414273
249	0x3e5dc577	0.21657358
250	0x3e3a62eb	0.18201797
251	0xbd90d2e8	-0.07071477
252	0xbf0be237	-0.5464205
253	0xbdff28e1	-0.12458969
254	0x3ecf1ec3	0.40453157
255	0x3dbbaa4f	0.09163343

encoder.3.bias f4 [16]
0	0xbcd2eae0	-0.025746763
1	0x3d8afd5c	0.06786606
2	0x3e320ac6	0.17386922
3	0xbdb123a2	-0.086493745
4	0xbc837c99	-0.016050624
5	0xbdb64c04	-0.089012176
6	0x3c987ba6	0.018613648
7	0xbde6b751	-0.112654336
8	0x3e2b16b0	0.16707873
9	0x3d12ec3b	0.03586982
10	0x3bda7f53	0.0066680103
11	0x3d9e1166	0.07718162
12	0x3e64b1dd	0.22333474
13	0xbd522ab7	-0.051310267
14	0xbce99ee9	-0.028518157
15	0x3d2d61aa	0.042329468

encoder.6.weight f4 [16, 16]
0	0x3e17658a	0.14784828
1	0xbec73d4b	-0.3891395
2	0xbe5ef08f	-0.21771453
3	0xbe1bcde9	-0.15215267
4	0xbea9c52f	-0.33158252
5	0x3ee595be	0.44840807
6	0x3e1c1ec0	0.15246105
7	0xbea00a15	-0.31257692
8	0x3d81d556	0.06339519
9	0xbe2d36fb	-0.16915505
10	0x3c151f5c	0.009101715
11	0x3e23d81e	0.16000411
12	0xbea59cae	-0.323461
13	0x3eb1be23	0.34715375
14	0x3d9a7c15	0.07543198
15	0xbe9aa8c5	-0.30206886
16	0x3e13a92f	0.14420007
17	0x3eb8985e	0.36053747
18	0x3dff5c02	0.12468721
19	0xbc10b70a	-0.008832702
20	0xbdf60270	-0.12012184
21	0xbe35adc4	-0.17742068
22	0xbe4fbb3c	-0.20286268
23	0x3ede86d8	0.43462253
24	0xbe59d104	-0.2127114
25	0xbd3da20b	-0.046297114
26	0xbe4744af	-0.19459794
27	0x3eae4584	0.3403741
28	0xbeaa96cd	-0.33318177
29	0x3e10636e	0.1410043
30	0xbea103ef	-0.31448314
31	0x3e3d2e41	0.18474676
32	0xbe2c0dce	-0.16802141
33	0x3d1dfa69	0.038568888
34	0x3e36efe2	0.17864946
35	0xbdc4a54f	-0.096018426
36	0x3e9e6540	0.30936623
37	0xbdaccd6a	-0.08437617
38	0x3ed51869	0.41620186
39	0xbe88bef3	-0.26708183
40	0x3ec21b3e	0.3791141
41	0x3e47ed73	0.19524173
42	0x3e69138b	0.22761361
43	0x3d3af426	0.045642994
44	0x3e864ed5	0.2623202
45	0x3d810f37	0.0630173
46	0x3eceaa56	0.4036433
47	0x3db8a156	0.090151474
48	0xbe138102	-0.14404681
49	0xbe827813	-0.25482234
50	0x3e16c77d	0.14724536
51	0xbe571252	-0.21003082
52	0xbd9df4e7	-0.07712727
53	0x3c8656cf	0.016398815
54	0xbefed66b	-0.49772963
55	0x3ee87daa	0.45408374
56	0x3e30d134	0.17267305
57	0xbeb79adf	-0.35860345
58	0xbe1b5230	-0.15168071
59	0x3de847ce	0.11341821
60	0x3f09dbb0	0.5385084
61	0x3ee275ef	0.442306
62	0xbd9dfe69	-0.077145405
63	0xbda6ef4b	-0.0815111
64	0x3b8ae775	0.0042390176
65	0x3ee9feab	0.4570211
66	0x3d301abe	0.042994253
67	0x3e8d73fb	0.2762755
68	0x3f0ac1cf	0.5420198
69	0x3837ac5e	4.379113e-05
70	0x3e779813	0.24179105
71	0xbe8a28e8	-0.26984334
72	0xbdb99d2f	-0.090631835
73	0x3eed816b	0.463878
74	0xbe483f97	-0.19555508
75	0x3e07632a	0.13221422
76	0x3eec41f7	0.46144077
77	0xbd97ff38	-0.07421726
78	0xbe82c623	-0.2554179
79	0x3cd30627	0.02575977
80	0x3e898876	0.26861924
81	0x3d953b00	0.07286644
82	0x3df6891f	0.120378725
83	0x3ec671e5	0.3875877
84	0x3e19d56a	0.15022817
85	0xbeb9364f	-0.36174247
86	0x3dc59476	0.09647457
87	0xbe13179a	-0.14364472
88	0x3f0541a6	0.52053297
89	0x3e9c5175	0.30530897
90	0x3e765285	0.24054916
91	0x3ebc93b7	0.36831447
92	0x3aa36714	0.0012466633
93	0xbe9dee05	-0.30845657
94	0xbea01c3f	-0.3127155
95	0x3e1b2e10	0.1515429
96	0xbd9b2cec	-0.075769275
97	0xbe132437	-0.14369284
98	0x3ee760bd	0.45190993
99	0xbe412c50	-0.1886456
100	0xbe75be33	-0.23998336
101	0xbe231f51	-0.15929915
102	0xbe166f35	-0.1469086
103	0x3d58b09b	0.0529028
104	0xbd460b3c	-0.048350558
105	0x3eaa29fe	0.33235162
106	0x3e8960f0	0.2683177
107	0xbe298669	-0.1655518
108	0x3ef23a68	0.47310185
109	0xbdca30b0	-0.09872568
110	0xbe9282e0	-0.28615475
111	0x3e3cd010	0.18438745
112	0xbda910d6	-0.08255164
113	0x3e4fe686	0.20302781
114	0x3e9c7d42	0.30564314
115	0x3dba1574	0.09086123
116	0xbe9a1d6a	-0.30100566
117	0x3e7f6ecb	0.24944608
118	0x3d6e6b55	0.05820783
119	0xbe3e09be	-0.18558404
120	0x3daeef16	0.08541696
121	0x3e20fa89	0.15720572
122	0x3eddf4c1	0.43350795
123	0x3d763b52	0.060115166
124	0x3eb71d35	0.3576447
125	0x3e9b0132	0.3027435
126	0x3d0c3c23	0.03423704
127	0x3ed1a6a1	0.4094744
128	0x3e01f4f5	0.126911
129	0xbe9d3918	-0.30707622
130	0x3eade4bf	0.33963582
131	0x3d301ea4	0.04299797
132	0xbeaca029	-0.33715943
133	0xbe909127	-0.28235742
134	0x3e605871	0.21908738
135	0x3cc62fc8	0.024192706
136	0x3cc2a949	0.023762362
137	0xbc1dec68	-0.009638883
138	0x3ecc16fb	0.39861283
139	0xbe1a251e	-0.15053222
140	0x3e9e4df1	0.3091884
141	0x3e8abbf9	0.27096537
142	0x3da1592a	0.07878335
143	0xbc8f7936	-0.017513853
144	0x3dc01fa6	0.093810365
145	0x3eb90e00	0.36143494
146	0x3e27fe32	0.16405562
147	0x3e0d1618	0.1377796
148	0x3da303ef	0.07959735
149	0xbdfdb87e	-0.12388705
150	0xbe116647	-0.14199172
151	0x3ce2e0a9	0.027695017
152	0x3e0a5b7d	0.13511463
153	0x3f067473	0.5252144
154	0xbe2df121	-0.16986515
155	0x3ee926ea	0.45537502
156	0x3d879343	0.06619885
157	0x3e2a85ca	0.16652599
158	0xbea841a9	-0.32862595
159	0xbda4a3f8	-0.08039087
160	0xbeacd57e	-0.33756632
161	0x3eb936dc	0.36174667
162	0xbe8c5146	-0.27405757
163	0xbed75139	-0.42054155
164	0x3e8079cb	0.2509292
165	0x3ea02e4d	0.31285325
166	0x3d91873c	0.07105872
167	0xbc8e1ae5	-0.017346809
168	0xbeaa2489	-0.33231
169	0xbe45b56d	-0.1930749
170	0xbcd48ff2	-0.025947545
171	0x3df7328f	0.1207019
172	0x3eff1d2f	0.49826953
173	0x3eb863be	0.36013597
174	0xbd014034	-0.03155537
175	0xbea9d733	-0.33171996
176	0xbd425d01	-0.047451977
177	0x3e08edc2	0.13371947
178	0xbed882da	-0.42287332
179	0xbe322669	-0.17397465
180	0xbeb04434	-0.34427035
181	0xbe76b552	-0.24092606
182	0x3ddb06e2	0.10694672
183	0x3e7378fe	0.23776624
184	0xbeb3a834	-0.35089266
185	0xbed92279	-0.42409113
186	0xbe82d853	-0.25555667
187	0xbee3f1de	-0.44520468
188	0xbe7bc72f	-0.24587701
189	0xbe92d9a9	-0.28681687
190	0x3c36721d	0.011135605
191	0x3dfec86d	0.12440572
192	0x3e17b9a4	0.1481691
193	0x3e34f410	0.17671227
194	0x3eb5e788	0.35528207
195	0xbe320004	-0.17382818
196	0xbdda2976	-0.10652439
197	0x3def9aae	0.11699425
198	0x3eb4872b	0.35259375
199	0xbe2e5bc8	-0.170272
200	0x3f21facb	0.63273305
201	0xbcb4b94c	-0.022061013
202	0x3eadcd3c	0.33945644
203	0x3e0d4f5d	0.13799806
204	0x3f267ef1	0.6503745
205	0x3e9a607b	0.30151734
206	0x3f034da0	0.5129032
207	0x3ebe1d0e	0.37131542
208	0x3e37eff8	0.17962635
209	0xbe96ccbf	-0.29453084
210	0xbec2a302	-0.3801499
211	0xbce639f0	-0.028103799
212	0xbe171ad2	-0.14756325
213	0xbe9656e0	-0.29363155
214	0x3d123d87	0.03570321
215	0xbe774e19	-0.24150886
216	0x3b430448	0.002975719
217	0xbe4bb921	-0.1989484
218	0xbdf6fb9a	-0.12059708
219	0x3eee3704	0.4652635
220	0x3f1c99dc	0.6117227
221	0xbdec472d	-0.11537013
222	0x3b98a5fb	0.0046584583
223	0xbdee43dc	-0.11634037
224	0xbe1194a4	-0.14216858
225	0x3d4cf559	0.05003867
226	0xbec6897e	-0.38776773
227	0xbec2a0be	-0.38013262
228	0xbeb0ac92	-0.3450666
229	0xbe0f3ef2	-0.13988855
230	0xbebaa0b5	-0.36450735
231	0x3e7662c7	0.24061118
232	0xbbdca8cf	-0.0067339907
233	0xbddfe55b	-0.10932418
234	0x3eaac39b	0.3335236
235	0xbee1a285	-0.44069305
236	0xbef4b385	-0.47793213
237	0x3eae566f	0.3405032
238	0x3e033312	0.1281245
239	0xbe113c39	-0.1418313
240	0x3ef4de9d	0.4782609
241	0xbedf686a	-0.4363435
242	0xbea05e2d	-0.3132185
243	0x3ec90a96	0.3926589
244	0x3dd8d470	0.10587394
245	0xbe317150	-0.17328382
246	0xbeeec40e	-0.46633953
247	0xbeb92cd6	-0.3616702
248	0x3e1d1911	0.15341593
249	0xbedda2d2	-0.43288285
250	0x3d8ad6b1	0.067792304
251	0xbd6c967b	-0.057760697
252	0x3e4b41a6	0.19849262
253	0xbc00a1f6	-0.0078511145
254	0xbd835c11	-0.06414045
255	0x3d163720	0.036673665

encoder.6.bias f4 [16]
0	0xbd31f9f2	-0.043451257
1	0x3d677c27	0.056514885
2	0x3e10fa7a	0.14158049
3	0x3da65563	0.08121755
4	0x3e53e473	0.20692615
5	0x3e04de0d	0.1297533
6	0x3e05cc7a	0.13066283
7	0x3de47eb4	0.11156979
8	0x3d998b01	0.07497216
9	0x3cf8aacb	0.030354878
10	0x3d4b9a57	0.049707737
11	0xbdb615cb	-0.088908754
12	0x3e45d47f	0.19319342
13	0x3d9b066b	0.075695835
14	0xbc05be70	-0.00816308
15	0x3d924eb0	0.07143915

encoder.9.weight f4 [16, 16]
0	0xbd4db1db	-0.050218444
1	0xbea9b5be	-0.3314647
2	0x3dd3a95b	0.10335036
3	0xbe5b4c12	-0.21415737
4	0x3e6c9040	0.23101902
5	0xbe24eb3d	-0.16105361
6	0x3e7857f9	0.24252309
7	0xbe9ff4ad	-0.3124136
8	0x3dfb3e35	0.122677244
9	0x3eb36c20	0.3504343
10	0x3d480c7b	0.048840027
11	0xbeac6e4e	-0.33677906
12	0xbe5393b9	-0.2066182
13	0x3ddcbb29	0.107778855
14	0x3e338636	0.17531666
15	0x3e09490b	0.1340677
16	0x3e0bc810	0.13650537
17	0xbe129365	-0.14314039
18	0xbecf187e	-0.40448374
19	0xbc8a1d00	-0.016859531
20	0x3dd378da	0.10325785
21	0xbed65d6c	-0.4186815
22	0xbe5f5a76	-0.21811852
23	0xbe34edcf	-0.17668842
24	0xbeb25689	-0.34831646
25	0xbc84b7b8	-0.016200885
26	0xbeb5a666	-0.35478514
27	0x3df5249c	0.11969873
28	0xbd8f47e4	-0.06996134
29	0x3ecdcf49	0.4019721
30	0x3d978738	0.07398838
31	0x3d0f7309	0.035021815
32	0xbe5da0f6	-0.21643433
33	0xbe9622e3	-0.2932349
34	0xbe174f44	-0.14776331
35	0x3d0e65c5	0.034765024
36	0xbebd9443	-0.37027177
37	0xbe07ffcf	-0.13281177
38	0x3e0225d7	0.12709747
39	0xbe87d2dc	-0.2652806
40	0x3c5b2acd	0.013376904
41	0x3e89c737	0.269098
42	0xbdf57486	-0.11985116
43	0x3ec1bc51	0.37838987
44	0xbe0a970e	-0.13534185
45	0xbe3f84ae	-0.18702957
46	0x3cad28ba	0.021137584
47	0xbec602b5	-0.3867394
48	0x3e8f3970	0.2797351
49	0xbe6bb1b7	-0.23017012
50	0x3e38402b	0.17993228
51	0xbe29a6ae	-0.1656749
52	0xbe9096d6	-0.2824008
53	0xbe9cc7d6	-0.30621213
54	0xbe54cfa2	-0.2078233
55	0xbe0e4c79	-0.1389636
56	0xbded57d5	-0.11589018
57	0x3df7cdae	0.12099777
58	0xbe8039e5	-0.2504417
59	0xbe2cd1cd	-0.16876908
60	0xbe4aa1fb	-0.19788353
61	0x3e85751d	0.26065913
62	0xbd2ba4ba	-0.041905142
63	0x3e9a3288	0.30116677
64	0x3d9bcc7b	0.07607361
65	0x3f130e1d	0.5744341
66	0x3e99d678	0.3004644
67	0x3f12bddb	0.57320946
68	0x3ef75462	0.48306566
69	0xbc398f84	-0.011325721
70	0x3ed26c23	0.41098127
71	0x3eb2a4be	0.34891313
72	0x3de8f150	0.11374152
73	0x3ecd561a	0.40104753
74	0x3e47b239	0.1950158
75	0xbe957bee	-0.29196113
76	0x3f183fe9	0.5947252
77	0x3f061c6a	0.52387106
78	0xbe871726	-0.26384848
79	0x3f0df3be	0.55450046
80	0x3ef35386	0.4752466
81	0x3efe8406	0.497101
82	0x3e09834e	0.13428995
83	0x3e905907	0.28192922
84	0x3d3db0fd	0.046311367
85	0x3ddea370	0.10871017
86	0x3e80d2c3	0.25160798
87	0x3ea23e06	0.31687945
88	0x3e3cf1b0	0.18451571
89	0x3ef834a6	0.48477668
90	0x3eff2cf7	0.49838993
91	0x3ede5e4f	0.43431327
92	0x3e7d3901	0.24728777
93	0x3e81d38a	0.25356704
94	0xbed951d2	-0.42445236
95	0x3e2f717f	0.17133139
96	0xbe616ceb	-0.22014205
97	0x3ed1cdb9	0.40977266
98	0x3e8d1895	0.27557817
99	0xbe0d4a7d	-0.13797946
100	0x3f0731d6	0.5281042
101	0x3e1424c6	0.14467153
102	0x3db355b6	0.087565824
103	0xbe2cc6a3	-0.16872649
104	0xbde40f50	-0.11135733
105	0x3e1b87f3	0.1518858
106	0xbce8256e	-0.02833816
107	0xbd3c37c9	-0.04595164
108	0x3e7b91a5	0.24567278
109	0x3d441f6d	0.047881532
110	0xbe0c5311	-0.13703562
111	0x3d808eca	0.06277235
112	0x3e950cc7	0.2911131
113	0xbd8250dc	-0.06363079
114	0x3e2958d1	0.16537787
115	0xbecb0d7e	-0.3965873
116	0x3d99f632	0.07517661
117	0x3ea2dcf1	0.3180919
118	0x3e8c1618	0.27360606
119	0x3ece981a	0.4035042
120	0x3e0c98fc	0.13730234
121	0x3eea4430	0.45755148
122	0xbf0af90f	-0.54286283
123	0x3e39e24b	0.1815273
124	0x3e4524cc	0.19252318
125	0xbf124835	-0.5714143
126	0x3e546c1e	0.20744368
127	0xbef54c2f	-0.47909686
128	0xbe2275e4	-0.15865284
129	0x3d8e332f	0.06943356
130	0x3ea437a8	0.32073712
131	0xbd31b4ef	-0.043385442
132	0x3dfe8999	0.124285884
133	0x3e96874e	0.29400104
134	0x3da3284d	0.07966671
135	0x3eb3a2c3	0.35085115
136	0xbe4de271	-0.20105912
137	0x3dc24aa2	0.09486891
138	0x3dc03435	0.09384958
139	0xbec018cf	-0.37518927
140	0x3ef440c5	0.47705665
141	0xbe421f38	-0.18957222
142	0xbded87f1	-0.115981944
143	0x3e49e211	0.19715144
144	0xbc790f3e	-0.015201388
145	0x3e0aefdb	0.1356806
146	0xbe08467d	-0.13308139
147	0x3c94f2bc	0.018182151
148	0xbed4cefb	-0.41564164
149	0xbec85664	-0.3912841
150	0xbeae2848	-0.34015107
151	0xbe5322a8	-0.20618689
152	0xbda747ee	-0.081680164
153	0x3e947630	0.2899642
154	0xbdbf3369	-0.093359776
155	0x3e625fbb	0.22106831
156	0xbeff2ca4	-0.49838746
157	0xbf0ab95d	-0.5418909
158	0x3e33c8e7	0.17557107
159	0xbe6c0259	-0.2304777
160	0x3e696601	0.22792818
161	0x3dcd024d	0.100102045
162	0xbd8622a9	-0.0654958
163	0x3d92e8ce	0.0717331
164	0x3e9eeff2	0.3104244
165	0xbe9042e5	-0.28176036
166	0xbd97643e	-0.073921666
167	0xbdc7913e	-0.097444996
168	0xbeb1d878	-0.34735465
169	0x3eb68521	0.35648444
170	0xbe960154	-0.29297888
171	0x3eb4c969	0.35309914
172	0x3e281f40	0.16418171
173	0xbdf72f28	-0.12069541
174	0xbeac39f2	-0.3363796
175	0xbe3ba5a7	-0.1832491
176	0xbe509e0f	-0.20372795
177	0x3d4f2f17	0.050582018
178	0x3e25c03a	0.1618661
179	0xbe855e5a	-0.26048547
180	0xbea50e29	-0.32237366
181	0xbd340722	-0.043952115
182	0x3ea81fb8	0.328367
183	0x3eda61fb	0.42652878
184	0xbe6116e0	-0.21981382
185	0xbe606b99	-0.21916045
186	0xbea1fd9b	-0.31638798
187	0x3e9aabce	0.30209202
188	0xbef395d0	-0.47575235
189	0xbb50cd0a	-0.0031860494
190	0x3e21c54e	0.15797922
191	0xbde1928e	-0.11014281
192	0xbddedc38	-0.10881847
193	0x3e8a0b01	0.2696152
194	0x3e66df17	0.2254604
195	0xbd9e4419	-0.07727832
196	0xbdfa30f8	-0.12216371
197	0xbe01f666	-0.1269165
198	0x3df34af1	0.11879528
199	0xbd76141b	-0.060077768
200	0xbe9a9789	-0.30193737
201	0xbe3610a7	-0.1777979
202	0x3d94e949	0.07271058
203	0x3c403414	0.011731166
204	0x3e9e8219	0.30958632
205	0x3d67ef0f	0.05662447
206	0x3ecb3431	0.39688256
207	0x3eb82cae	0.35971588
208	0x3d8863c6	0.06659655
209	0x3ebecad2	0.37264115
210	0xbd3104c8	-0.04321745
211	0xbea2bf54	-0.31786597
212	0x3d5973aa	0.05308882
213	0xbdb4ec69	-0.08834154
214	0xbe9524e7	-0.29129717
215	0xbea5f183	-0.3241082
216	0xbea44de7	-0.32090685
217	0xbea56957	-0.3230693
218	0xbebd439b	-0.3696564
219	0x3e623ca0	0.22093439
220	0xbe739895	-0.23788674
221	0x3e7c11bc	0.2461614
222	0x3e815a3f	0.25264165
223	0xbee12ea6	-0.43980902
224	0x3ea1af0f	0.31578872
225	0xbe66584d	-0.22494622
226	0xbe3b5619	-0.18294562
227	0xbe724fc5	-0.23663242
228	0xbdf84471	-0.12122429
229	0xbeac13f2	-0.33608967
230	0x3e67651e	0.22597167
231	0x3e4e63c5	0.20155247
232	0xbe393336	-0.18085942
233	0x3d9bae67	0.07601624
234	0x3c919c4f	0.017774729
235	0xbc006cc2	-0.00783843
236	0xbdfb21d6	-0.12262313
237	0xbd8b1ced	-0.067926265
238	0x3e9f204f	0.31079337
239	0xbe9de4d0	-0.30838633
240	0xbe7831f3	-0.24237804
241	0x3e1fc16d	0.1560113
242	0x3e14014e	0.14453623
243	0x3e804ddf	0.2505941
244	0xbe95be33	-0.29246673
245	0xbeb9224a	-0.36158973
246	0x3d52567b	0.051352005
247	0xbefe08fe	-0.49616235
248	0xbc7e11dd	-0.015507189
249	0xbccdfaa4	-0.025143929
250	0xbe2f8d74	-0.17143804
251	0x3da3210b	0.07965287
252	0xbebbd385	-0.36684814
253	0x3e7fbf06	0.24975213
254	0x3dee3036	0.11630289
255	0x3d4f1270	0.050554693

encoder.9.bias f4 [16]
0	0xbd1769d2	-0.036966152
1	0xbe01764a	-0.1264278
2	0x3c61f9f8	0.013792507
3	0xbe11a208	-0.14221966
4	0x3e27b16f	0.1637628
5	0x3e0a4011	0.13501002
6	0x3e634c37	0.22197042
7	0x3c9a4cd3	0.01883546
8	0x3d749ae4	0.059718028
9	0xbd240673	-0.040045213
10	0x3cfd713a	0.03093778
11	0x3c824059	0.015899824
12	0xbdbb7b85	-0.09154419
13	0xbd056f6c	-0.032576963
14	0x3cfe81f0	0.031067818
15	0xbe5f0a24	-0.21781212

pretraining_head.0.weight f4 [16, 16]
0	0x3c80c054	0.01571671
1	0xbdcdec0b	-0.10054787
2	0x3e912dc1	0.2835522
3	0x3ec9b080	0.3939247
4	0xbeaac5f5	-0.33354154
5	0x3e602908	0.21890652
6	0x3e5c2a11	0.21500422
7	0xbea89f04	-0.3293382
8	0x3ea25e4b	0.31712565
9	0xbc9be2cf	-0.01902905
10	0xbea0b6a0	-0.31389332
11	0xbe75f340	-0.24018574
12	0x3e86d191	0.2633176
13	0x3e85eee6	0.26158828
14	0xbd107c4f	-0.0352748
15	0x3ed16ea6	0.4090473
16	0x3e9bbc86	0.3041727
17	0xbeb77068	-0.35827947
18	0x3e3daba9	0.18522514
19	0xbe6d4737	-0.23171698
20	0x3d509049	0.05091885
21	0xbea11cf5	-0.31467405
22	0x3e0059b9	0.12534226
23	0xbd1c2cb1	-0.03812856
24	0xbdfc9b02	-0.12334253
25	0x3ebb5e7f	0.36595532
26	0x3d9a91b3	0.07547321
27	0x3eb8a699	0.36064604
28	0x3e8780dd	0.26465502
29	0xbceee29b	-0.029160788
30	0x3e85b443	0.2611409
31	0xbdc6d2b9	-0.09708161
32	0x3e61b954	0.22043353
33	0x3ee7512a	0.4517911
34	0x3e470ef0	0.19439292
35	0xbd38eeef	-0.04514974
36	0x3d9c3b50	0.076285005
37	0xbe91019d	-0.28321543
38	0x3deb41ca	0.11487158
39	0xbdd99d09	-0.10625655
40	0xbd6e8999	-0.058236692
41	0x3dd1c7b2	0.10243167
42	0xbc4c0204	-0.012451652
43	0x3ea33235	0.31874242
44	0x3e9b5f49	0.30346134
45	0x3eba4da4	0.3638736
46	0xbe3bb788	-0.1833173
47	0xbe8a4b00	-0.27010345
48	0xbdaed392	-0.085364476
49	0x3e0412dd	0.12897821
50	0xbb870d4f	-0.0041214596
51	0x3e4eef47	0.20208465
52	0x3e8dead3	0.2771822
53	0xbe9e3b2b	-0.30904517
54	0xbeacd29c	-0.33754432
55	0x3e8910a5	0.2677051
56	0x3e75bbbc	0.23997396
57	0xbcf20a28	-0.029545859
58	0x3e792ea4	0.24334198
59	0xbcea70d4	-0.028618254
60	0x3e861734	0.26189578
61	0xbeef242a	-0.46707278
62	0xbe820b6b	-0.25399336
63	0xbd927a31	-0.071522124
64	0xbea09482	-0.31363302
65	0xbeb6214a	-0.35572273
66	0x3cab7cbd	0.020933503
67	0xbd79e380	-0.061007977
68	0xbe19faea	-0.15037122
69	0xbeb605ef	-0.35551402
70	0xbe8b8b97	-0.27254936
71	0x3d8b7042	0.06808521
72	0x3ea35cf1	0.31906846
73	0xbe98db1b	-0.29854664
74	0xbecff727	-0.4061825
75	0xbea1a23c	-0.31569088
76	0x3d92b418	0.071632564
77	0xbe5dab24	-0.21647316
78	0xbe6e875b	-0.23293822
79	0xbd2fe371	-0.042941514
80	0xbe1ce810	-0.153229
81	0xbf14c2ac	-0.58109546
82	0x3d84ec2a	0.06490357
83	0xbea3340a	-0.3187564
84	0x3ef3c965	0.4761459
85	0x3dead888	0.11467081
86	0x3eccb8af	0.39984652
87	0x3db0e1da	0.08636828
88	0xbe0e16dc	-0.13875908
89	0xbddf1214	-0.1089212
90	0xbe436b92	-0.19084004
91	0xbe039d35	-0.12852938
92	0x3eacd006	0.3375246
93	0xbdafec05	-0.08589939
94	0xbe0228ae	-0.1271083
95	0xbd698847	-0.05701473
96	0xbe6e18d0	-0.23251653
97	0x3e2def76	0.16985878
98	0x3db50c56	0.088402435
99	0xbeb9aafd	-0.36263266
100	0xbe8c1439	-0.2735918
101	0x3dd5d8c6	0.10441737
102	0x3e006bdd	0.12541147
103	0xbe9b5aae	-0.3034262
104	0xbe9aec1e	-0.30258268
105	0x3ebac766	0.36480254
106	0x3e8d07f1	0.2754512
107	0x3e9c23ae	0.3049597
108	0xbea192c1	-0.31557277
109	0x3e1e01fc	0.15430444
110	0xbe4fb27f	-0.20282935
111	0x3e96b02e	0.2943129
112	0x3d1526ae	0.03641384
113	0x3d728324	0.059207097
114	0xbed0a9d2	-0.40754563
115	0x3e83de89	0.25755718
116	0xbebe1960	-0.37128735
117	0x3ca867d4	0.020557322
118	0x3e8af3e8	0.2713921
119	0xbed8694a	-0.4226783
120	0xbea4dc57	-0.32199356
121	0x3dc0610d	0.09393511
122	0xbd44354f	-0.0479024
123	0x3ea551b0	0.32288885
124	0xbe9cf20b	-0.30653414
125	0x3deeb491	0.11655534
126	0x3e746569	0.2386681
127	0xbe8984c9	-0.2685912
128	0xbd8f8272	-0.07007302
129	0x3e858b66	0.26082915
130	0xbd20105f	-0.039078113
131	0xbdd36788	-0.103224814
132	0xbe76c6e1	-0.24099304
133	0xbe7c736f	-0.2465341
134	0x3e701d63	0.2344871
135	0x3ea16276	0.31520432
136	0x3e37137b	0.17878525
137	0xbe018a83	-0.12650494
138	0x3e1482fd	0.14503093
139	0xbe383f1e	-0.17992827
140	0xbdc0501d	-0.093902804
141	0x3e2260f3	0.15857296
142	0xbc800f61	-0.015632333
143	0x3e6aa1d3	0.22913294
144	0xbe861cb9	-0.2619379
145	0xbeb566f2	-0.35430104
146	0x3e045b89	0.12925543
147	0xbdfc8b8f	-0.12331306
148	0x3e1c5169	0.1526543
149	0x3cc18c2e	0.023626413
150	0xbe052920	-0.13003969
151	0x3f046df8	0.517303
152	0x3f228d00	0.634964
153	0xbdc5b2c6	-0.09653239
154	0xbcd00a81	-0.025395634
155	0xbe6adbbb	-0.22935383
156	0x3e0cd44e	0.13752863
157	0x3c9d7f56	0.019225758
158	0xbdeda95d	-0.11604569
159	0xbe4091a3	-0.18805556
160	0x3e724dfc	0.23662561
161	0xbe5795ac	-0.21053189
162	0x3ec73669	0.389087
163	0xbeb70271	-0.3574405
164	0xbe86b4cf	-0.2630982
165	0xbedbb38e	-0.42910427
166	0xbea9b241	-0.3314381
167	0xbeb8f81a	-0.36126786
168	0x3ea08ae2	0.3135596
169	0xbe2dae01	-0.16960908
170	0xbea6c87e	-0.32574838
171	0x3e92f580	0.28702927
172	0x3ecfd8d6	0.4059512
173	0xbe7e896b	-0.24857108
174	0xbe4cb7be	-0.19991967
175	0x3d03b908	0.03215888
176	0xbea582f3	-0.3232647
177	0xbd4aede1	-0.049543265
178	0x3ed6dea0	0.41966724
179	0x3e0b3434	0.13594133
180	0x3e855278	0.2603948
181	0x3e24a6cd	0.16079254
182	0xbf05cb8d	-0.5226372
183	0xbe94b27f	-0.29042432
184	0xbeb7461d	-0.3579568
185	0x3eec2926	0.46125144
186	0xbdfd0b4a	-0.12355669
187	0xbbc2e31d	-0.005947484
188	0x3d05fcb6	0.032711707
189	0x3e1b45f7	0.15163408
190	0xbdee3364	-0.11630896
191	0x3e2d90b2	0.16949728
192	0x3e54535b	0.20734923
193	0xbe47ef0e	-0.19524786
194	0xbed03a01	-0.40669253
195	0x3ccb9dcf	0.024855522
196	0x3eff226b	0.49830946
197	0xbceef5e6	-0.029169988
198	0xbe72e2e4	-0.23719364
199	0x3e69102e	0.22760078
200	0x3eaa9d16	0.33322972
201	0xbec33ab3	-0.3813072
202	0xbb9004a1	-0.004395083
203	0xbe830772	-0.25591618
204	0xbbac9206	-0.005266431
205	0x3e34f750	0.17672467
206	0xbed2df07	-0.4118578
207	0xbeafe177	-0.34351704
208	0xbe924be1	-0.28573516
209	0x3dc0d0fd	0.09414861
210	0x3c9bc74a	0.019015927
211	0x3e27b8d6	0.16379103
212	0x3eb7c50b	0.3589252
213	0x3e858e4a	0.2608512
214	0x3c44f5f4	0.01202153
215	0xbe9b8069	-0.30371407
216	0x3e9ba3cc	0.30398405
217	0xbee49132	-0.44642025
218	0xbd461580	-0.048360348
219	0xbe808bf0	-0.25106764
220	0x3e856c4b	0.26059183
221	0xbf01cc25	-0.50702125
222	0xbd637dc8	-0.055539876
223	0x3e308cc1	0.17241193
224	0xbdc55fff	-0.096374504
225	0x3d9dde56	0.07708423
226	0x3dcd8149	0.10034425
227	0xbd05439c	-0.03253518
228	0xbeb929cb	-0.36164698
229	0xbea996f0	-0.3312297
230	0xbed0cc9d	-0.40781108
231	0x3ea422ed	0.32057896
232	0x3eada65b	0.33915982
233	0xbe2f9908	-0.1714822
234	0x3e7542a3	0.23951201
235	0x3ed85b02	0.42256933
236	0x3d585248	0.052812845
237	0x3de5df99	0.112242885
238	0x3e5eea83	0.21769147
239	0xbdf2b27f	-0.11850452
240	0xbe051cd0	-0.12999272
241	0xbe574aa3	-0.21024565
242	0xbdaf5e99	-0.08562965
243	0xbec3eee9	-0.3826821
244	0x3f21e9b7	0.63247246
245	0x3ef780d2	0.4834047
246	0x3f1e7e81	0.6191178
247	0xbd3588ce	-0.04431992
248	0x3e884191	0.26612523
249	0xbe2b9129	-0.16754593
250	0x3e4b8987	0.19876681
251	0xb9b9e8f4	-0.00035459513
252	0xbe5a7dad	-0.21337004
253	0xbe47f61a	-0.19527474
254	0x3b55fe06	0.003265263
255	0xbefe9b79	-0.4972799

pretraining_head.0.bias f4 [16]
0	0xbbaba908	-0.005238656
1	0xbc7a9c37	-0.015296034
2	0xbcca7b20	-0.024716914
3	0x3d35dbe1	0.044399146
4	0x3cc30f42	0.023810986
5	0x3e3f3dba	0.1867589
6	0xbd028729	-0.03186718
7	0x3c23d70a	0.01
8	0x3c6af6a5	0.014341031
9	0x3ded9ede	0.11602567
10	0xbbccb6d1	-0.0062473794
11	0xbe024976	-0.12723336
12	0x3bbfe45d	0.0058560804
13	0xbc90ac2f	-0.017660229
14	0xbd12b2bd	-0.03581499
15	0x3e953295	0.29140154

pretraining_head.3.weight f4 [16, 16]
0	0x3e6d88fa	0.23196784
1	0x3e6616f6	0.22469696
2	0x3ebd76fe	0.37004846
3	0x3e65c952	0.22440079
4	0x3ec26a6b	0.37971815
5	0xbbd27282	-0.006422342
6	0x3db2b6b1	0.08726252
7	0x3d36cd33	0.044629287
8	0xbdf84b03	-0.12123682
9	0xbebc29fb	-0.3675078
10	0xbe99d820	-0.30047703
11	0x3e30ac93	0.17253332
12	0xbe4b90ce	-0.19879457
13	0x3e3ff15d	0.18744417
14	0x3dbccf94	0.0921928
15	0x3e81ac03	0.25326547
16	0xbe9ba359	-0.30398062
17	0x3e01e03b	0.12683193
18	0x3e1bfe43	0.15233712
19	0x3dca9ce3	0.09893205
20	0x3d25bb40	0.04046178
21	0xbea196c0	-0.31560326
22	0x3d7cda6f	0.061731752
23	0xbdd9323d	-0.10605285
24	0xbc493936	-0.012281707
25	0x3ebfb4c4	0.374426
26	0xbccf13d0	-0.025278002
27	0x3e9e6413	0.30935726
28	0xbe5b8982	-0.21439174
29	0xbe886973	-0.2664295
30	0x3eb6997d	0.35663977
31	0x3cdc8f0c	0.026923679
32	0x3e8a1790	0.26971102
33	0x3d8d937c	0.06912896
34	0x3e757526	0.2397047
35	0xbed36981	-0.4129143
36	0x3e55f247	0.20893203
37	0xbe8c9466	-0.2745697
38	0xbd398de9	-0.04530135
39	0x3e43a0bf	0.19104289
40	0x3edc9a2b	0.4308637
41	0xbee9c11e	-0.4565515
42	0x3ec4335d	0.38320437
43	0x3dfce967	0.123492055
44	0xbcf40ab9	-0.02979027
45	0xbdc4e2ab	-0.09613546
46	0xbe2d51d5	-0.16925748
47	0xbe8ef778	-0.2792318
48	0xbcc77c31	-0.024351211
49	0x3da7cd5d	0.08193467
50	0x3d681f2a	0.056670345
51	0xbe2f9253	-0.17145662
52	0x3ec7db6c	0.39034593
53	0xbebccdc5	-0.3687574
54	0xbe357484	-0.17720228
55	0x3d65d80a	0.056114234
56	0xbe4a1535	-0.19734652
57	0xbcd91f3b	-0.02650415
58	0x3e166989	0.14688696
59	0x3d5493f2	0.051898904
60	0xbec14a27	-0.37751886
61	0xbe31c558	-0.17360437
62	0x3e312032	0.17297438
63	0xbea86a61	-0.3289366
64	0xbe688a8b	-0.227091
65	0xbe05fb17	-0.13084064
66	0xbe59af31	-0.21258236
67	0xbe5fac86	-0.21843156
68	0xbe90225e	-0.2815122
69	0x3e2f0e25	0.1709524
70	0xbdbd35fc	-0.09238812
71	0x3d0d5afb	0.034510594
72	0xbe4a6909	-0.1976663
73	0xbb8a8e2c	-0.004228374
74	0x3ee2216b	0.4416612
75	0xbceb08b7	-0.028690679
76	0x3ede6c1b	0.43441853
77	0x3f000830	0.50012493
78	0xbeb13a24	-0.3461467
79	0x3eecd938	0.46259475
80	0xbe83e3c2	-0.25759703
81	0x3e943b1b	0.28951344
82	0x3e701725	0.23446329
83	0x3ee805a6	0.4531681
84	0xbea2f80b	-0.31829867
85	0x3dbf5f8c	0.09344396
86	0x3e5e6b83	0.217207
87	0x3ecfd1bf	0.4058971
88	0x3db22ca5	0.086999215
89	0x3e1cebce	0.15324327
90	0xbe57c279	-0.21070279
91	0xbc5d1d3e	-0.013495741
92	0x3da54108	0.08069044
93	0xbc4c5db3	-0.0124735115
94	0x3c05bfe3	0.008163425
95	0xbecc13e3	-0.39858922
96	0xbe9d99fb	-0.3078154
97	0x3d8fa926	0.070146844
98	0x3eabca7c	0.3355292
99	0xbe759a1c	-0.2398457
100	0x3e8ef483	0.27920923
101	0xbebd256d	-0.36942616
102	0xbe3fa0b2	-0.18713644
103	0x3ec3b96f	0.38227412
104	0xbec6d9c6	-0.38838023
105	0x3e41e5b6	0.18935284
106	0x3eb9a409	0.3625796
107	0xbec0280e	-0.3753056
108	0xbe512e34	-0.20427781
109	0xbe489539	-0.19588174
110	0xbe556e5f	-0.20842884
111	0xbf179105	-0.5920566
112	0xbdb91300	-0.09036827
113	0xbee4fe44	-0.4472524
114	0x3e78819e	0.24268195
115	0x3e2ac1ae	0.16675445
116	0xbe462ffa	-0.19354239
117	0xbdff6c7f	-0.12471866
118	0x3dbcf76c	0.092268795
119	0x3d184004	0.037170425
120	0xbec365d1	-0.38163617
121	0xbea9e83a	-0.33184987
122	0x3e705d12	0.23473004
123	0xbeccf193	-0.40028057
124	0xbf0decca	-0.55439436
125	0xbec461ef	-0.38355967
126	0x3cdb3e58	0.026763126
127	0xbf267b23	-0.6503164
128	0xbe6b3a49	-0.22971453
129	0xbdada105	-0.08477978
130	0x3dbe11bb	0.092807256
131	0x3e42da29	0.19028534
132	0x3e9bc291	0.3042188
133	0x3dd8c879	0.10585112
134	0xbbc1bcaf	-0.0059123854
135	0xbe60fa88	-0.2197057
136	0x3e496f70	0.19671416
137	0xbe995267	-0.2994568
138	0xbd18a3d7	-0.037265625
139	0xbe3033a8	-0.17207205
140	0x3e0a605e	0.13513324
141	0xbe9ff05e	-0.31238073
142	0xbd818510	-0.06324208
143	0x3c771bb0	0.015082285
144	0xbea6ba33	-0.32563934
145	0xbeaa464d	-0.3325676
146	0x3d60246d	0.05472224
147	0xbdb20606	-0.08692555
148	0x3e6e525b	0.23273604
149	0xbe744f25	-0.23858316
150	0xbe19c3b6	-0.15016064
151	0xbece0929	-0.40241364
152	0xbec20763	-0.3789626
153	0xbf0b1415	-0.5432752
154	0x3e80f907	0.25189993
155	0x3d94abbf	0.072593205
156	0x3e25e605	0.16201027
157	0x3e5f8dd5	0.21831448
158	0xbe52e049	-0.2059337
159	0xbf176756	-0.59142053
160	0xbde35790	-0.111006856
161	0x3d8eb345	0.06967787
162	0xbd4e29bb	-0.050332766
163	0x3e29a0bf	0.16565226
164	0xbe3888ab	-0.18020885
165	0xbebf80c6	-0.37402934
166	0x3ee6de00	0.45091248
167	0x3dc0b6e5	0.09409884
168	0x3ee3d840	0.44500923
169	0xbf00fde9	-0.50387436
170	0xbeb8bcb6	-0.36081475
171	0x3e19e093	0.15027075
172	0xbdb34365	-0.08753089
173	0xbe15bc55	-0.14622624
174	0xbe14bdbf	-0.14525507
175	0xbf0413f6	-0.5159296
176	0xbe6dcf00	-0.23223495
177	0xbec7c355	-0.39016214
178	0xbd31b28a	-0.04338316
179	0xbdb13ddb	-0.08654376
180	0xbdf4c43e	-0.11951493
181	0xbe585363	-0.2112556
182	0xbecf45c3	-0.4048291
183	0x3e92821d	0.28614894
184	0xbe3d4a07	-0.1848527
185	0x3d6566ae	0.056006126
186	0xbe00fcbf	-0.12596415
187	0x3df466ca	0.11933668
188	0xbe827d0d	-0.2548603
189	0xbde4dbfb	-0.111747704
190	0x3e91fe9d	0.28514567
191	0xbd9405d3	-0.072276734
192	0x3e2b34c6	0.1671935
193	0x3bff50e8	0.007791627
194	0xbebd7237	-0.37001202
195	0x3daa924f	0.083286874
196	0xbeee7db5	-0.46580282
197	0xbd94c299	-0.07263679
198	0xbe1fa780	-0.1559124
199	0xbe13f777	-0.14449869
200	0x3e707493	0.2348197
201	0x3e4bee23	0.1991506
202	0xbeb8349d	-0.3597764
203	0x3e9532ab	0.2914022
204	0x3cbe90cb	0.023262402
205	0x3e50e47f	0.20399664
206	0xbe94e9bb	-0.29084572
207	0xbeea7007	-0.45788595
208	0x3e89b542	0.268961
209	0xbe76cd91	-0.24101855
210	0x3d3e93eb	0.046527784
211	0x3efda425	0.49539295
212	0xbe241d35	-0.16026767
213	0x3edfea7e	0.4373359
214	0x3e44d5d8	0.192222
215	0xbecf9d3e	-0.40549654
216	0xbe062670	-0.131006
217	0x3e84ecf9	0.25962046
218	0xbea37b7a	-0.31930143
219	0xbd72641c	-0.059177503
220	0x3ecbb94e	0.39789814
221	0x3ea03987	0.3129389
222	0xbdc5e52b	-0.09662851
223	0x3f14b2ba	0.58085215
224	0x3d00817e	0.031373493
225	0x3e43120e	0.19049856
226	0xbe836436	-0.25662392
227	0xbbf790d8	-0.0075551085
228	0x3ec92fc8	0.39294267
229	0x3e39cf62	0.18145517
230	0x3e8398d1	0.25702527
231	0x3d52a5d5	0.05142768
232	0xbd34b65c	-0.044119224
233	0x3e0e5c8d	0.13902493
234	0xbe7375f4	-0.23775464
235	0x3ec84e18	0.3912208
236	0x3ef9aae0	0.4876318
237	0x3e912b25	0.2835323
238	0x3bd2a649	0.006428514
239	0x3f02432f	0.50883764
240	0x3e3c9f92	0.18420246
241	0xbdda08c8	-0.10646206
242	0xbe4e1d74	-0.20128423
243	0xbe13b87b	-0.14425842
244	0x3da7454b	0.081675135
245	0xbd136e76	-0.035994016
246	0xbd6d635f	-0.057956096
247	0x3c05b423	0.008160624
248	0x3eaf70e2	0.3426581
249	0xbea07b67	-0.3134415
250	0xbe9ab949	-0.30219486
251	0xbe7ecbee	-0.2488248
252	0xbe68669d	-0.22695394
253	0x3e24b465	0.1608444
254	0x3e5c8dfa	0.21538535
255	0xbdff41b9	-0.124637075

pretraining_head.3.bias f4 [16]
0	0x3d660907	0.056160953
1	0x3ddcc620	0.10779977
2	0xbd5004d6	-0.050785862
3	0xbcf6fc80	-0.030149698
4	0xbaf70911	-0.0018847306
5	0xbcb3328d	-0.02187469
6	0xbe5a7faa	-0.21337762
7	0xbd97e57f	-0.0741682
8	0x3e078833	0.1323555
9	0xbe1ddd26	-0.15416393
10	0xbe41e12e	-0.18933555
11	0x3cbfe3a5	0.023423979
12	0xbdf564a5	-0.11982087
13	0x3d832d91	0.064051755
14	0x3d798994	0.06092222
15	0x3db7c96e	0.089739665
