trained_models/cylinder-bands_rand_corr.pt (torch, 19439 bytes, 12 tensors)

encoder.0.weight f4 [16, 148]
0	0xbc909365	-0.017648408
1	0x3d01ec4a	0.031719483
2	0xbdf05259	-0.117344566
3	0xbde479f5	-0.11156074
4	0x3e411d9c	0.18858951
5	0xbe5065c4	-0.2035132
6	0x3c9eb408	0.019372955
7	0x3dae6bbb	0.08516642
8	0x3ddbfa39	0.107410856
9	0x3d3b81f9	0.04577825
10	0x3e1b4095	0.15161355
11	0x3d59134b	0.052996915
12	0xbd1d92ee	-0.0384702
13	0xbdf5e372	-0.120062724
14	0x3e379644	0.17928416
15	0xbd8b533b	-0.06802984
16	0x3cc405f8	0.023928627
17	0xbe041fc7	-0.12902747
18	0x3cdac6b3	0.026706075
19	0xbd122e4e	-0.03568869
20	0x3db8ffc8	0.090331614
21	0xbcabbf42	-0.020965222
22	0x3e5dc9aa	0.2165896
23	0xbd1ff44d	-0.039051343
24	0x3e23736c	0.15961999
25	0x3dc930da	0.09823771
26	0x3c5bade7	0.013408161
27	0xbd044f30	-0.03230208
28	0x3b29693f	0.0025850085
29	0x3da65c65	0.081230916
30	0x3cb60f08	0.022223964
31	0x3defa43f	0.11701249
32	0xbe45fa90	-0.19333863
33	0x3df7417a	0.120730355
34	0xbdee52f4	-0.11636916
35	0xbe41cec6	-0.18926534
36	0xbe1272c0	-0.14301586
37	0xbdb6ed10	-0.08931935
38	0x3e16346f	0.1466844
39	0xbd70065d	-0.05859982
40	0xbd117234	-0.035509303
41	0xbe13643c	-0.14393705
42	0x3e53d773	0.20687656
43	0xbda2f242	-0.07956363
44	0xbd58982d	-0.0528795
45	0x3e21573d	0.15755935
46	0xbe0a4d72	-0.13506106
47	0xbe3992b2	-0.18122366
48	0x3e38173e	0.17977616
49	0x3e280e4b	0.16411702
50	0x3c7504a4	0.01495472
51	0x3d9c9e35	0.07647363
52	0x3d03371c	0.03203498
53	0xbc7c9a76	-0.015417686
54	0x3e202143	0.15637688
55	0x3df400b3	0.11914196
56	0x3d080586	0.033208393
57	0xbe7105c9	-0.23537363
58	0xbdc5b260	-0.09653163
59	0xbd39eb96	-0.045390688
60	0x3de329f1	0.11091984
61	0x3e028147	0.12744628
62	0xbe0e00d0	-0.13867497
63	0xbc8ec302	-0.017426971
64	0x3e0593e7	0.13044702
65	0x3e369736	0.1783112
66	0x3cb50752	0.022098217
67	0x3c39a496	0.011330744
68	0xbe6fc6d7	-0.23415695
69	0x3d47b752	0.048758812
70	0xbd5c910b	-0.05384926
71	0xbd382c8d	-0.044964362
72	0x3c8b375b	0.016994169
73	0xbdd6ed4f	-0.10494482
74	0x3c9d5bea	0.019208867
75	0x3ddc0374	0.10742846
76	0xbe366aae	-0.17814133
77	0xbe26932b	-0.16267078
78	0xbe54893b	-0.20755474
79	0xbc8f217d	-0.017472023
80	0xbe6ad142	-0.22931388
81	0xbe3dbf4f	-0.1853001
82	0xbe1dce35	-0.15410693
83	0x3d41050e	0.04712396
84	0x3def9fe2	0.11700417
85	0xbc66da8a	-0.01409019
86	0x3c2dc23a	0.010605389
87	0xbe186f41	-0.1488619
88	0x3d778989	0.060433898
89	0xbd48156e	-0.048848562
90	0x3da37625	0.07981519
91	0x3dccd5bf	0.10001706
92	0xbbeef5bc	-0.0072924774
93	0x3cab2f46	0.020896565
94	0xbd98e69e	-0.07465862
95	0xbca29fcf	-0.019851593
96	0x3d604695	0.054754812
97	0xbe25783c	-0.16159147
98	0xbd4458e1	-0.047936324
99	0xbcb3f366	-0.021966647
100	0xbd04a5c6	-0.032384656
101	0x3df36ee9	0.11886389
102	0x3d09c91f	0.03363907
103	0x3df8a174	0.1214017
104	0x3c989ac2	0.018628482
105	0xbcebaacf	-0.028767971
106	0xbe1797db	-0.14804022
107	0x3cd18aff	0.025578974
108	0x3e027c87	0.12742816
109	0x3e356832	0.17715529
110	0xbe1eaf6d	-0.15496607
111	0xbe3b3ddc	-0.18285316
112	0x3d917507	0.07102399
113	0x3da39e76	0.079892084
114	0xbd9d633f	-0.07684945
115	0x3e114276	0.14185509
116	0xbdb1f77a	-0.086897805
117	0x3e3d0737	0.18459783
118	0xbe09d5e9	-0.13460506
119	0xbd8a0d59	-0.06740827
120	0x3c44bcfc	0.012007948
121	0xbe10e560	-0.1415
122	0xbe15d904	-0.14633566
123	0xbe428819	-0.1899723
124	0xbd9f6d3c	-0.07784507
125	0x3d019570	0.031636655
126	0x3d76736a	0.06016866
127	0xbe68086b	-0.22659461
128	0x3caf72f4	0.021417119
129	0xbea10fff	-0.31457517
130	0x3d3086c0	0.043097258
131	0x3e02e1c2	0.12781432
132	0xbb8e8158	-0.004348915
133	0xbdb2f22d	-0.087375976
134	0xbd1d4bbb	-0.0384023
135	0x3d90fc7b	0.07079407
136	0xbc8ddbe0	-0.017316759
137	0xbe08843e	-0.13331696
138	0xbe2e8dc7	-0.17046271
139	0x3c5c31c5	0.0134396
140	0x3dbf6865	0.093460836
141	0xbe464348	-0.19361603
142	0x3d75530c	0.059893653
143	0x3e2f91ab	0.17145412
144	0xbd92d569	-0.07169611
145	0xbe1e72e6	-0.15473518
146	0x3d4cf593	0.050038885
147	0x3e48bbf8	0.19602954
148	0x3c8123e9	0.015764194
149	0xbda188d4	-0.07887426
150	0xbdeed66e	-0.11661993
151	0x3c71b641	0.014752925
152	0xbc908e6d	-0.017646039
153	0x3dfab27b	0.12241074
154	0x3e05b536	0.13057408
155	0x3dca653a	0.09882589
156	0x3d7053d1	0.058673684
157	0xbcf6a6db	-0.03010886
158	0x3d8da0c0	0.06915426
159	0xbe186290	-0.14881349
160	0x3d90139c	0.0703499
161	0xbddf20f0	-0.10894954
162	0x3e1ab7f0	0.15109229
163	0xbd07c5f6	-0.033147775
164	0x3cb94e01	0.022620203
165	0x3c20dc66	0.009818172
166	0x3e19d89a	0.15024033
167	0x3df50e14	0.11965576
168	0x3dad3d7e	0.08458994
169	0xbe6e3eec	-0.2326619
170	0xbdd27b4a	-0.10277422
171	0xbd67d99b	-0.05660401
172	0x3d9cbcbb	0.07653185
173	0x3d01f6d6	0.03172954
174	0xbe088d9e	-0.13335273
175	0x3df9c797	0.12196272
176	0x3e1a7ee0	0.15087461
177	0x3daea4b9	0.08527512
178	0xbe20c3ed	-0.1569974
179	0xbe430461	-0.19044639
180	0x3daf6925	0.085649766
181	0xbdde0d72	-0.10842408
182	0xbe15ed22	-0.1464124
183	0xbd51619f	-0.05111849
184	0x3e5b5aa9	0.21421303
185	0x3b526849	0.0032105616
186	0x3e226880	0.15860176
187	0xbd895140	-0.0670495
188	0x3df4c863	0.11952283
189	0x3e1051cd	0.14093705
190	0x3da3c91d	0.07997344
191	0x3e064115	0.13110764
192	0xbe3ff65d	-0.18746324
193	0x3d764e7e	0.06013345
194	0x3e47784b	0.19479482
195	0xbdd04f66	-0.10171394
196	0xbe057509	-0.13032927
197	0x3dec0419	0.11524219
198	0x3e778b97	0.24174343
199	0xbcd46eb1	-0.025931688
200	0x3d056503	0.032567035
201	0x3defa641	0.11701632
202	0x3de487c8	0.11158711
203	0x3e324276	0.17408165
204	0xbcee8ff7	-0.029121382
205	0xbe09ad13	-0.13444929
206	0xbdb3d333	-0.087805174
207	0x3d1a2498	0.037632555
208	0xbafaf1b9	-0.0019145525
209	0xbd6caf83	-0.05778457
210	0x3c5bd947	0.013418502
211	0xbd59fe37	-0.053220954
212	0xbd021597	-0.03175887
213	0x3d292be2	0.041301616
214	0xbb80454b	-0.0039145104
215	0x3d1ec5ab	0.03876273
216	0xbe243642	-0.16036323
217	0x3d1f1dda	0.038846828
218	0xbe22c653	-0.15895967
219	0x3e25fabc	0.16208929
220	0xbe18b904	-0.14914328
221	0xbe20265d	-0.15639634
222	0x3da07329	0.07834465
223	0xbe4588a7	-0.1929041
224	0xbe1580d7	-0.1459993
225	0xbd0410f3	-0.032242727
226	0x3e25921f	0.16169022
227	0x3e424b45	0.18974026
228	0xbe370bf5	-0.17875655
229	0xbd9bcd41	-0.076075085
230	0x3e089679	0.13338651
231	0x3e3a494d	0.18192025
232	0x3bf54949	0.007485543
233	0xbdd504fe	-0.10401343
234	0xbe0e20ad	-0.13879652
235	0xbd5eabb9	-0.054362986
236	0x3e135652	0.14388397
237	0xbd303417	-0.043018427
238	0xbe396a73	-0.18107013
239	0x3e160e60	0.14653921
240	0x3e7a275d	0.24429078
241	0x3d4e8a20	0.050424695
242	0xbddea5f4	-0.10871497
243	0xbe934a7f	-0.28767774
244	0x3dd11300	0.10208702
245	0xbb285abf	-0.0025688855
246	0x3da81776	0.082076
247	0xbe214959	-0.15750636
248	0xbe4dcff6	-0.20098862
249	0xbce66b9a	-0.02812748
250	0x3d80de15	0.06292359
251	0xbe259154	-0.1616872
252	0xbe403e50	-0.1877377
253	0xbd942fd8	-0.07235688
254	0xbdcae80f	-0.09907543
255	0xbe327e6e	-0.17431042

encoder.0.bias f4 [16]
0	0xbd6ffc26	-0.058590077
1	0xbc57f9f0	-0.013182148
2	0xbd43ec49	-0.04783276
3	0x3dfd6945	0.12373594
4	0xbdb515de	-0.088420615
5	0x3e25d2b3	0.16193657
6	0xbdbdb742	-0.09263469
7	0xbd40c1c8	-0.047059804
8	0xbc4360cb	-0.011924933
9	0xbd842da9	-0.064540215
10	0xbcd65c52	-0.026167069
11	0x3c558f8a	0.013034711
12	0x3d3e47ea	0.0464553
13	0x3e225205	0.158516
14	0x3b3fe9a5	0.002928355
15	0x3dc28a82	0.094990745

encoder.3.weight f4 [16, 16]
0	0xbecd6721	-0.40117744
1	0xbedec9b9	-0.43513277
2	0x3dd0da3d	0.10197876
3	0xbed8a1d5	-0.42310968
4	0x3d8fe6b0	0.07026422
5	0xbe07acab	-0.13249461
6	0x3eb1a019	0.34692457
7	0xba03a3a3	-0.0005021637
8	0x3e5bc4b5	0.21461757
9	0x3ec7a695	0.3899428
10	0xbe8f2948	-0.27961183
11	0xbebf633b	-0.37380394
12	0xbe40c612	-0.18825558
13	0xbd86a125	-0.06573705
14	0xbdbdd621	-0.092693575
15	0xbe10480c	-0.14089984
16	0xbe899fda	-0.2687977
17	0x3db7e3e3	0.08979013
18	0xbd38379a	-0.0449749
19	0x3ece2655	0.4026362
20	0x3e726121	0.23669864
21	0x3ee49d23	0.44651136
22	0xbd9b1d1f	-0.07573914
23	0xbd3d82bd	-0.04626726
24	0xbdc71aad	-0.09721885
25	0xbd8ad38a	-0.06778629
26	0x3dcaa610	0.09894955
27	0x3e5ea68a	0.21743217
28	0x3cdf5cd0	0.027265936
29	0x3d22bc0c	0.039730117
30	0x3e40b2f4	0.18818265
31	0x3eebdda8	0.46067548
32	0x3da5cf97	0.08096235
33	0xbe97dd9e	-0.29661268
34	0x3e25cda4	0.16191727
35	0xbe8e8ce3	-0.27841863
36	0x3e75827a	0.23975554
37	0xbe8c93fb	-0.2745665
38	0x3e662f3e	0.22478959
39	0x3e6e1e2a	0.23253694
40	0xbedacead	-0.42735806
41	0x3d699e42	0.057035692
42	0x3b17f0f6	0.0023184395
43	0xbec39d4f	-0.38205954
44	0x3edfbe52	0.4369989
45	0xbda51a76	-0.08061688
46	0xbe0076d3	-0.12545328
47	0x3e0cf9c6	0.13767156
48	0xbe9a59cf	-0.30146644
49	0x3db57cb6	0.08861677
50	0xbe9efb9f	-0.31051347
51	0x3d088c43	0.03333689
52	0x3ecc9ec1	0.3996487
53	0x3e4e2a72	0.20133379
54	0x3c93804b	0.01800551
55	0xbee9fa1b	-0.45698628
56	0x3e7c587c	0.24643129
57	0x3db7a4bb	0.08966967
58	0x3e85b36e	0.26113456
59	0xbe07eedd	-0.13274713
60	0xbd889d75	-0.066706575
61	0xbe1ebfea	-0.15502897
62	0xbeafc4ff	-0.34329984
63	0xbe52b308	-0.20576108
64	0x3e57f4d2	0.21089485
65	0xbe2d373c	-0.16915601
66	0x3db73142	0.08944942
67	0x3ec4b4bb	0.38419136
68	0xbeb6fb4c	-0.357386
69	0x3eb5438f	0.35403106
70	0xbe6f80e0	-0.23389006
71	0x3ea614f1	0.32437852
72	0xbe6e4a6e	-0.2327058
73	0xbe1ad9b2	-0.15122107
74	0xbe81dc25	-0.2536327
75	0x3ebc6347	0.36794493
76	0x3ee4d838	0.44696212
77	0x3f139930	0.5765562
78	0x3eaa3704	0.332451
79	0xbd6b8fb1	-0.05751008
80	0xbd1bcf73	-0.038039636
81	0xbe8500d5	-0.25977197
82	0x3ef88067	0.48535463
83	0x3e207138	0.1566819
84	0x3e34d55f	0.1765952
85	0x3e851c98	0.25998378
86	0x39adf69a	0.00033180864
87	0x3e2a87bd	0.16653343
88	0x3eebb4db	0.4603642
89	0xbe223e2f	-0.15844034
90	0xbe432fb6	-0.19061169
91	0x3ed58e81	0.41710284
92	0xbea7fd5d	-0.32810488
93	0x3d5f97f3	0.05458827
94	0xbea8fe68	-0.33006597
95	0x3edae628	0.4275372
96	0xbec8f00a	-0.39245635
97	0xbee7ed8f	-0.4529843
98	0x3ec5181d	0.3849496
99	0x3d0f9221	0.03505147
100	0xbeab33fb	-0.33438095
101	0xbe39bcef	-0.18138479
102	0x3e16be79	0.14721097
103	0xbbbaa042	-0.0056953738
104	0x3eaee56f	0.3415942
105	0xbd6c2f0c	-0.057662055
106	0xbe25d3a1	-0.16194011
107	0x3ca1cd6d	0.019751275
108	0xbe68f81a	-0.22750893
109	0xbd890469	-0.06690294
110	0xbe288886	-0.1645833
111	0xbec7d107	-0.39026663
112	0xbde61648	-0.112347186
113	0xbe2272ea	-0.15864149
114	0xbe5a5f32	-0.21325377
115	0xbe7467b6	-0.23867688
116	0x3e9c3b0f	0.30513808
117	0x3e238099	0.15967025
118	0xbe5edf71	-0.21764924
119	0xbe7fdf4a	-0.24987522
120	0x3e016c72	0.12639025
121	0xbc9d3b16	-0.019193213
122	0xbe828239	-0.25489977
123	0x3de2e12e	0.11078106
124	0xbe9d81b0	-0.30763006
125	0x3e96e43b	0.29471
126	0x3dcc632e	0.099798545
127	0x3e332464	0.1749435
128	0xbe9dde30	-0.30833578
129	0xbefbe9f0	-0.49201918
130	0xbeca1262	-0.3946715
131	0xbed87dbd	-0.4228343
132	0xbe344791	-0.17605425
133	0x3e8b3709	0.27190426
134	0xbec6ded3	-0.38841876
135	0xbec78ff3	-0.38977012
136	0xbea78453	-0.32718143
137	0xbeb935ed	-0.36173955
138	0x3c6f957e	0.014623044
139	0x3e3e3fcd	0.18579026
140	0x3dd92941	0.10603572
141	0xbed69e0d	-0.41917458
142	0x3f001259	0.50027996
143	0x3e388d51	0.18022658
144	0x3ea73f51	0.32665494
145	0xbecd8fc9	-0.40148762
146	0xbd04950a	-0.032368697
147	0x3eb81d0c	0.3595966
148	0x3e4f1a35	0.20224841
149	0xbf043c71	-0.51654726
150	0x3ebac0f5	0.3647534
151	0xbe8f5c8f	-0.28000304
152	0xbeb2bd4d	-0.3491005
153	0x3eae9ec9	0.34105518
154	0xbed54015	-0.41650453
155	0xbe04464a	-0.12917438
156	0xbecbe9d5	-0.39826837
157	0xbec8001e	-0.3906259
158	0x3d248b6c	0.040172026
159	0xbe5070e6	-0.20355567
160	0x3e217139	0.15765847
161	0xbd0d1e27	-0.034452584
162	0x3d850544	0.06495145
163	0xbee261cd	-0.4421524
164	0x3e84076f	0.2578692
165	0x3c7edcb2	0.015555548
166	0xbd0abbed	-0.033870626
167	0x3ed381be	0.41309923
168	0xbecb0626	-0.39653128
169	0x3eb11a00	0.3459015
170	0x3dd5cd27	0.1043952
171	0xbe42ccd7	-0.19023453
172	0x3e4a354a	0.1974689
173	0xbd0ea2dc	-0.034823284
174	0xbe536b22	-0.20646337
175	0xbd6ef9df	-0.058343764
176	0x3e8ca627	0.27470514
177	0x3a7d91c6	0.0009672906
178	0xbe8812a0	-0.2657671
179	0x3d375cf1	0.04476637
180	0xbe2a1f5d	-0.16613527
181	0xbd131be0	-0.035915256
182	0xbe25be29	-0.16185822
183	0x3e88c7e6	0.2671501
184	0x3eb89f72	0.36059147
185	0xbe359ea0	-0.17736292
186	0x3e6252b7	0.22101866
187	0x3eb25aad	0.34834805
188	0x3e360a07	0.17777263
189	0x3e17f35e	0.14838931
190	0xbca921a8	-0.020645931
191	0xbcd6a61c	-0.026202254
192	0xbe9a29f6	-0.3011014
193	0x3e9c8d37	0.30576488
194	0x3e9d30bb	0.3070124
195	0xbe0baad8	-0.1363939
196	0x3de44477	0.11145871
197	0x3db7e5d9	0.08979387
198	0xbe9f32cb	-0.3109344
199	0xbee64bd6	-0.44979733
200	0x3ebe25ae	0.37138122
201	0x3e652e83	0.22381024
202	0xbe748db9	-0.23882188
203	0xbef0d126	-0.47034568
204	0xbc50fb7b	-0.01275527
205	0xbed9643c	-0.42459285
206	0x3e48fa0a	0.19626632
207	0x3e11c661	0.14235832
208	0xbe593305	-0.21210869
209	0x3da1b603	0.07896044
210	0x3e1b3df5	0.15160353
211	0x3e42603c	0.18982023
212	0xbebe982a	-0.37225467
213	0x3ebe55fb	0.37174973
214	0xbdb2732b	-0.08713373
215	0xbd96c9dc	-0.0736272
216	0xbca5250d	-0.020159269
217	0x3ecc96ec	0.39958894
218	0xbd8938fa	-0.067003205
219	0x3ecc5ae4	0.39913094
220	0x3e4f6365	0.2025276
221	0x3de487b1	0.111586936
222	0x3e2a1705	0.16610344
223	0x3eb9572a	0.36199313
224	0x3ca803fe	0.020509716
225	0x3d9a45c0	0.07532835
226	0x3db00205	0.08594135
227	0xbe5eda9a	-0.21763077
228	0x3c4c9ebc	0.012489017
229	0x3e28a916	0.16470751
230	0x3e34b2c6	0.17646322
231	0x3e65ab94	0.22428733
232	0xbe937f34	-0.28807986
233	0x3ecc1487	0.3985941
234	0xbda84fda	-0.082183555
235	0xbe36770c	-0.1781885
236	0xbe9e0f88	-0.30871224
237	0xbee5efbc	-0.44909465
238	0xbe5039f7	-0.20334612
239	0x3e33e295	0.17566903
240	0xbeb6e898	-0.3572433
241	0xbd83d612	-0.06437315
242	0xbed2c309	-0.41164425
243	0x3e870867	0.26373598
244	0x3da124b2	0.07868327
245	0xbe76e12d	-0.24109335
246	0x3ea42e23	0.3206645
247	0x3e64a3be	0.22328088
248	0xbe63f3b4	-0.22260934
249	0x3eb12cae	0.346044
250	0x3ea8d645	0.32975975
251	0x3d8d600f	0.06903087
252	0xbe9c43d0	-0.30520487
253	0xbe9b2a55	-0.30305734
254	0x3e864d4e	0.26230854
255	0xbec79212	-0.3897863

encoder.3.bias f4 [16]
0	0xbced5702	-0.028972153
1	0x3e1f9ede	0.15587947
2	0xbb93658f	-0.0044981907
3	0xbc49cb34	-0.012316514
4	0x3e2fc7f1	0.17166115
5	0x3d9b896a	0.07594569
6	0xbd511c62	-0.05105246
7	0x3d1ee2ce	0.038790517
8	0xbc0f1471	-0.008732901
9	0xbd463c29	-0.048397217
10	0xbdf41254	-0.11917558
11	0xbde103f4	-0.10987082
12	0xbd8e3648	-0.06943947
13	0x3e12dee5	0.1434284
14	0xbdcce06f	-0.10003745
15	0xbd1be62c	-0.038061306

encoder.6.weight f4 [16, 16]
0	0xbe88eac8	-0.26741624
1	0x3e7331b8	0.23749435
2	0x3ea5f022	0.3240977
3	0x3e803686	0.25041598
4	0xbea646c7	-0.32475874
5	0xbeb69c84	-0.35666287
6	0x3e8f6597	0.28007194
7	0xbc86fb00	-0.016477108
8	0xbeaf8794	-0.34283125
9	0x3d9626dc	0.073316306
10	0xbe4e0ec0	-0.20122814
11	0x3e6fedc8	0.2343055
12	0x3d8001d4	0.06250349
13	0xbef5189b	-0.47870335
14	0xbe76e735	-0.24111636
15	0xbd7034ff	-0.05864429
16	0x3d61f813	0.055168223
17	0xbd9aebca	-0.075645044
18	0xbddb6dcf	-0.10714304
19	0xbe80d3db	-0.25161633
20	0x3e9eda63	0.3102599
21	0x3d86e19c	0.06586
22	0x3e4cf3cd	0.20014878
23	0x3e26000d	0.16210957
24	0x3eae79e8	0.34077382
25	0x3eab9525	0.33512226
26	0xbebfe558	-0.37479663
27	0x3e29bb4e	0.16575357
28	0x3e34c5b1	0.17653538
29	0x3e2d9c30	0.16954112
30	0xbb8bc7d3	-0.0042657643
31	0xbeb51b3d	-0.35372344
32	0xbe7de78f	-0.24795364
33	0x3eb5bac5	0.35494056
34	0xbe118a92	-0.14213017
35	0x3ee86340	0.45388222
36	0x3e823a4d	0.25435105
37	0x3e7a774f	0.24459575
38	0x3e411016	0.18853793
39	0xbdae22ae	-0.085027084
40	0xbe97b202	-0.29627997
41	0x3e8d612c	0.276132
42	0x3e950a7a	0.29109555
43	0xbd9c7ffb	-0.07641598
44	0x3e42a313	0.1900752
45	0xbe8c11ee	-0.2735743
46	0x3dfc5ab4	0.12321988
47	0x3ed50271	0.41603425
48	0x3eae140d	0.33999673
49	0xbeebaf0b	-0.46031985
50	0xbecd85fe	-0.4014129
51	0x3d90c04b	0.07067927
52	0x3e538c79	0.20659055
53	0xbe8f9e7e	-0.28050607
54	0xbd870f3c	-0.065947026
55	0xbe85b387	-0.2611353
56	0xbd3f00c1	-0.04663158
57	0xbeacbe8e	-0.33739132
58	0x3dc3e3e0	0.09564948
59	0xbe57b2d1	-0.21064307
60	0xbea68da0	-0.32529926
61	0x3dea004e	0.11425839
62	0x3e8a4203	0.27003488
63	0xbe37a94a	-0.17935672
64	0x3e2d37ec	0.16915864
65	0x3e6fa110	0.23401284
66	0xbec21a7a	-0.37910825
67	0x3d9e686b	0.0773476
68	0xbe8a57af	-0.27020022
69	0x3e602f88	0.21893132
70	0xbdd60547	-0.10450225
71	0x3de0e4cc	0.109811395
72	0xbe5edace	-0.21763155
73	0x3e864065	0.26221004
74	0xbe61f976	-0.22067818
75	0x3e4dfea4	0.20116669
76	0xbe6d41a7	-0.23169576
77	0x3e2efde5	0.1708904
78	0xbd5f40d9	-0.054505203
79	0x3e08fd7b	0.13377945
80	0xbddee3ef	-0.10883319
81	0xbd17540e	-0.036945395
82	0x3eab9846	0.33514613
83	0x3d0d108c	0.03443961
84	0xbec0d1d7	-0.37660095
85	0xbe97816e	-0.29590935
86	0x3daf98e9	0.08574087
87	0xbeae32fb	-0.3402327
88	0xbed4bd30	-0.4155059
89	0x3c396a9b	0.011316921
90	0x3e1a5ff6	0.15075669
91	0xbea3794d	-0.31928483
92	0x3e5e8f76	0.21734414
93	0x3e3f26a6	0.18667087
94	0x3ea79def	0.3273768
95	0x3eab32d6	0.33437222
96	0xbefe807e	-0.49707407
97	0xbe8d27fb	-0.27569565
98	0x3c16e105	0.009208922
99	0x3dbcc0f3	0.0921649
100	0x3ebaf50f	0.3651509
101	0xbe841ccf	-0.2580323
102	0xbe72dde0	-0.23717451
103	0x3efd4fef	0.49475047
104	0x3e87dbd0	0.2653489
105	0x3d9d16c9	0.076703615
106	0xbdd001b2	-0.10156573
107	0x3cea941c	0.028635077
108	0xbccb4506	-0.024813186
109	0x3eef959e	0.46793836
110	0xbee553a7	-0.44790384
111	0x3cb9b066	0.022667121
112	0xbe6c654a	-0.23085514
113	0x3f06e9dc	0.5270059
114	0x3e56d6d3	0.20980386
115	0xbd33aac2	-0.04386402
116	0x3eaa2f5e	0.33239263
117	0x3e88e316	0.26735753
118	0xbcd4a49e	-0.025957402
119	0xbe3156f0	-0.1731832
120	0xbe0305a6	-0.12795123
121	0xbea523d3	-0.32253894
122	0xbcef7d54	-0.029234566
123	0xbe4ff82a	-0.20309511
124	0xbea9bcff	-0.33152005
125	0x3eda6dc2	0.42661864
126	0x3e84021c	0.2578286
127	0x3e8a4d8a	0.27012283
128	0x3dc5d249	0.09659249
129	0x3de47722	0.11155535
130	0xbee2fea0	-0.44334888
131	0x3e27fd96	0.16405329
132	0x3e06a8eb	0.13150375
133	0xbeb44de9	-0.3521569
134	0x3eac862e	0.3369612
135	0xbe8e80d4	-0.27832663
136	0x3e8985ea	0.2685998
137	0x3dd519ca	0.104053095
138	0xbee7ad45	-0.45249382
139	0xbe19b714	-0.15011245
140	0x3d829b9d	0.06377337
141	0xbdf8349a	-0.12119408
142	0xbcc73117	-0.0243154
143	0xbeb1cb41	-0.34725383
144	0x3e9194f7	0.28433964
145	0xbee6aba8	-0.45052838
146	0xbead1069	-0.33801582
147	0x3d604935	0.054757316
148	0x3d7c50af	0.061600383
149	0x3e8ddd13	0.2770773
150	0xbe807c49	-0.25094822
151	0xbe9fd06f	-0.3121371
152	0x3d74450c	0.05963616
153	0xbe97a3f6	-0.2961728
154	0xbcf73e5a	-0.030181099
155	0xbea77d88	-0.3271296
156	0x3ecff95a	0.40619928
157	0xbecf6af0	-0.40511274
158	0x3e63a4ad	0.22230788
159	0xbe5c7183	-0.21527676
160	0xbdb4513d	-0.088045575
161	0xbe8d3d76	-0.27585953
162	0xbc741d91	-0.014899627
163	0x3dc43de5	0.09582118
164	0x3e3061b8	0.17224777
165	0x3e8538ff	0.26020047
166	0xbe9d7454	-0.30752814
167	0x3e0721c7	0.13196479
168	0x3cea4191	0.028595718
169	0x3ed4cc50	0.41562128
170	0x3e8c7064	0.27429497
171	0x3d84ccef	0.064844005
172	0xbd0b66ae	-0.03403347
173	0x3ed231f3	0.41053733
174	0x3e8e6248	0.27809358
175	0xbeb84e92	-0.35997444
176	0x3e8265ac	0.25468194
177	0x3ebe164d	0.3712639
178	0xbe92d14a	-0.286753
179	0x3c605ec2	0.013694467
180	0x3e3b44fb	0.18288033
181	0x3ec7004f	0.38867423
182	0x3e8c43f6	0.273956
183	0xbe33dbaf	-0.17564271
184	0xbb95b27f	-0.0045683975
185	0x3d6f9102	0.0584879
186	0xbe05bb3c	-0.13059705
187	0x3d7ab4b3	0.061207484
188	0xbdcd656b	-0.100291096
189	0xbe7e668c	-0.24843806
190	0x3e9118e6	0.28339309
191	0xbed8e429	-0.42361572
192	0x3e588b70	0.21146941
193	0x3e51c91d	0.20486875
194	0x3ec22d85	0.37925354
195	0xbeb41ecd	-0.3517975
196	0xbdebf9d6	-0.11522262
197	0xbed86e32	-0.42271572
198	0x3e4fa1d3	0.20276575
199	0xbee80cd0	-0.45322275
200	0xbe4aaa15	-0.19791444
201	0xbdaadb75	-0.08342639
202	0xbeb64c6b	-0.35605177
203	0x3d1f404f	0.03887969
204	0x3e645cf7	0.22301088
205	0x3e9bd2c5	0.30434242
206	0x3e3ea127	0.18616162
207	0x3cf896d8	0.030345365
208	0x3e3ae2be	0.18250558
209	0x3eb4dbb0	0.35323858
210	0x3ecdc9dd	0.40193072
211	0x3ed52b94	0.4163481
212	0x3eec14ea	0.46109706
213	0x3deec672	0.11658944
214	0xbe47a387	-0.19495974
215	0x3e5a964c	0.21346396
216	0x3e8e1d97	0.2775695
217	0xbd6e53ec	-0.058185503
218	0xbe85000f	-0.25976607
219	0xbe438225	-0.19092615
220	0x3d9183ef	0.071052425
221	0x3f0ca5d9	0.54940563
222	0x3d8c0fb4	0.06838933
223	0x3d1cc5d6	0.03827461
224	0x3d78f3ac	0.06077926
225	0x3ec1c5d0	0.3784623
226	0x3eb70931	0.357492
227	0x3e34acb6	0.17644009
228	0x3e5c8525	0.21535166
229	0xbe8ae0e6	-0.2712471
230	0x3ed8db48	0.42354798
231	0xbebc4cdf	-0.36777398
232	0x3e61d69f	0.22054528
233	0xbde96882	-0.113968864
234	0xbdbe02d3	-0.092778824
235	0xbdcab7ae	-0.09898315
236	0x3e6ca50d	0.23109837
237	0x3e8ba2e4	0.27272713
238	0xbec95f49	-0.3933051
239	0xbeafa5be	-0.3430614
240	0x3d47feae	0.048826866
241	0xbe33615c	-0.17517608
242	0x3de8e8e3	0.113725446
243	0x3e3e04ba	0.1855649
244	0x3e9fde48	0.31224275
245	0x3eac00cf	0.33594367
246	0xbdc12cd7	-0.09432381
247	0x3e9476cc	0.28996885
248	0x3e5a6be5	0.21330221
249	0x3e3a4b27	0.18192731
250	0xbe83e834	-0.25763094
251	0x3e71e45a	0.23622265
252	0xbdf134fd	-0.11777685
253	0x3e84b8ca	0.25922233
254	0x3d07569c	0.03304158
255	0xbd869903	-0.065721534

encoder.6.bias f4 [16]
0	0x3b13051f	0.0022433472
1	0x3e0bb890	0.13644624
2	0x3dc600b2	0.09668101
3	0xbcb70255	-0.02233998
4	0xbca89b7d	-0.020581955
5	0xbd6c5e0a	-0.05770687
6	0x3c90b055	0.017662207
7	0x3e3ce234	0.18445665
8	0xbcfcd999	-0.030865477
9	0xbc50886d	-0.012727839
10	0x3d1ebe7d	0.038755883
11	0x3d69d3c4	0.05708672
12	0xbd1a624c	-0.0376914
13	0x3dcf29a5	0.10115365
14	0x3dbeabe9	0.09310133
15	0x3d93d413	0.07218184

encoder.9.weight f4 [16, 16]
0	0x3eb5cfad	0.35510007
1	0xbd706220	-0.05868733
2	0xbe822bf1	-0.2542415
3	0xbe0df959	-0.1386465
4	0xbd9582a4	-0.07300308
5	0x3e8b83f2	0.27249104
6	0x3e80c0ac	0.25146997
7	0x3db4c727	0.08827048
8	0x3e0c25f7	0.13686357
9	0x3d96eed7	0.07369774
10	0x3e4d127c	0.20026582
11	0x3e4572d6	0.19282088
12	0xbe8fd745	-0.28093925
13	0x3d8e597d	0.06950662
14	0xbe477b4c	-0.19480628
15	0x3d69f5ef	0.057119306
16	0x3e3a5430	0.18196177
17	0x3d9a4132	0.07531966
18	0xbf038752	-0.5137836
19	0x3e967ec2	0.29393584
20	0xbe9c5060	-0.3053007
21	0x3e751d4d	0.23936959
22	0x3e1860cd	0.14880677
23	0xbebef820	-0.3729868
24	0xbe4811b4	-0.19538003
25	0x3eb94766	0.36187285
26	0xbb0a40b1	-0.0021095688
27	0xbebcff96	-0.36913747
28	0xbef2f03c	-0.4744891
29	0xbf0935fc	-0.53598
30	0xbe981908	-0.29706597
31	0xbefe6ea6	-0.49693793
32	0x3e2326f8	0.15932834
33	0x3ea495d6	0.32145566
34	0xbd8b4c75	-0.068016924
35	0xbdf6bdae	-0.12047897
36	0x3cddf243	0.027093058
37	0xbea9b449	-0.3314536
38	0xbe830ea0	-0.25597095
39	0x3e5fc742	0.21853355
40	0xbebc7249	-0.36805943
41	0x3e2643b8	0.1623677
42	0x3dce321f	0.100681536
43	0x3e7c454a	0.24635807
44	0x3da31c7f	0.079644196
45	0x3e0bb523	0.13643317
46	0x3f009f9d	0.5024355
47	0x3e4be3a0	0.19911051
48	0xbcb86a2e	-0.022511568
49	0x3eadf742	0.33977705
50	0x3e648890	0.2231772
51	0xbe97251f	-0.2952051
52	0x3d263afc	0.040583596
53	0x3ebd36a6	0.36955756
54	0xbe51ca6c	-0.20487374
55	0x3dbd0437	0.092293195
56	0x3eb23b0b	0.3481067
57	0xbe6607e9	-0.22463955
58	0xbe53dee7	-0.20690499
59	0xbe9fe5bf	-0.3122997
60	0xbe37ead8	-0.1796068
61	0x3ec8f10e	0.3924641
62	0xbea6fdf0	-0.32615614
63	0xbe184ed1	-0.14873816
64	0x3e2f9e6a	0.17150274
65	0x3ed51eb5	0.4162499
66	0x3ec7bf2b	0.39013037
67	0x3ea3c8af	0.31989047
68	0xbcb08066	-0.0215456
69	0xbe87868a	-0.26469833
70	0x3dd8c7a2	0.10584952
71	0x3e70056e	0.23439571
72	0x3e03b668	0.12862551
73	0xbeadaa00	-0.33918762
74	0x3e5abff9	0.21362294
75	0xbeb3a822	-0.35089213
76	0xbdad2860	-0.084549665
77	0xbebbd954	-0.36689246
78	0x3ebe028c	0.37111318
79	0xbda17c20	-0.07885003
80	0x3e734f8e	0.23760816
81	0x3ea00c5c	0.3125943
82	0xbd569705	-0.052390117
83	0x3e9dd2e4	0.3082496
84	0xbc862768	-0.016376212
85	0xbec39b3d	-0.38204375
86	0x3e8db154	0.27674353
87	0xbe54c7c9	-0.20779337
88	0x3eb9502d	0.36193982
89	0xbdf945e1	-0.121715315
90	0x3e0b79ea	0.13620725
91	0x3de383d6	0.1110913
92	0xbe57e56d	-0.21083613
93	0xbec85886	-0.39130038
94	0x3ce033f1	0.027368518
95	0xbd01ee11	-0.03172118
96	0x3d9708c2	0.07374717
97	0xbeaa84be	-0.333044
98	0x3d441eb5	0.047880847
99	0xbce64433	-0.028108692
100	0xbeaa7ac2	-0.33296782
101	0xbd35baa7	-0.04436746
102	0x3e9b9858	0.30389667
103	0xbcd43193	-0.025902545
104	0xbc9c0463	-0.01904506
105	0xbebd2892	-0.36945015
106	0x3ecdc143	0.4018651
107	0x3e1ada6c	0.15122384
108	0x3e6bd919	0.23032035
109	0xbe92d1f0	-0.28675795
110	0xbe130ea2	-0.1436105
111	0x3e7c6c66	0.24650726
112	0xbeb2ee5b	-0.34947476
113	0x3ec4c6f6	0.38433045
114	0xbdf805d5	-0.12110487
115	0xbed9b6d0	-0.42522287
116	0x3defd720	0.11710954
117	0xbdedcf29	-0.11611778
118	0xbdabbce3	-0.08385637
119	0x3e0654ce	0.13118288
120	0x3eb93931	0.36176446
121	0x3e65c4f1	0.22438408
122	0x3eee6dda	0.46568185
123	0xbe0629b5	-0.13101847
124	0x3e03d595	0.12874444
125	0x3ef22e58	0.47300982
126	0x3e6448fd	0.22293468
127	0xbe09a529	-0.1344191
128	0xbc86a0e2	-0.016434137
129	0xbefb048b	-0.49026904
130	0xbe99958c	-0.29996908
131	0x3ecfb43e	0.405672
132	0x3ebfebd4	0.3748461
133	0xbed403b2	-0.4140907
134	0x3e82d454	0.25552619
135	0xbf0f98cc	-0.56092525
136	0xbd44a3b9	-0.0480077
137	0xbebd019b	-0.36915287
138	0x3eb22bb4	0.34798968
139	0xbde59a37	-0.11211055
140	0xbd82c1f2	-0.063846484
141	0xbf02aa58	-0.51041174
142	0x3d920334	0.07129517
143	0xbed21c12	-0.4103704
144	0xbd05dece	-0.032683186
145	0x3e657e7f	0.22411536
146	0xbe374356	-0.1789678
147	0xbe12573d	-0.14291091
148	0xbe4008ba	-0.18753329
149	0xbd44edb1	-0.048078243
150	0xbe94ad16	-0.29038304
151	0x3b929107	0.004472855
152	0x3dc8d7df	0.09806799
153	0xbd77348b	-0.060352843
154	0xbe9851d2	-0.29749924
155	0xbe1a1675	-0.15047629
156	0xbd8ef3a0	-0.069800615
157	0x3dd2830e	0.10278903
158	0xbe53e453	-0.20692568
159	0xbecd01c6	-0.40040416
160	0x3d425deb	0.04745285
161	0xbe80fa06	-0.25190753
162	0x3e4ae4ca	0.19813839
163	0xbd140bc5	-0.036144037
164	0xbed4976c	-0.41521776
165	0x3d80fc3f	0.06298112
166	0xbda61fd2	-0.08111538
167	0x3e7882d8	0.24268663
168	0xbdcaea79	-0.09908003
169	0x3ea9cffc	0.33166492
170	0x3e6736b0	0.22579455
171	0xbe9b0e35	-0.30284277
172	0x3eb0acce	0.3450684
173	0x3c426a2f	0.011866136
174	0xbc487f5c	-0.012237396
175	0x3e8d1d3d	0.2756137
176	0xbe8f27ea	-0.2796014
177	0x3eb62ae9	0.35579613
178	0x3ee6cabd	0.45076552
179	0x3eacbc7a	0.33737546
180	0x3e998468	0.2998383
181	0x3edb45b1	0.42826608
182	0x3ecd0fb1	0.40051034
183	0x3ec1b098	0.37830043
184	0xbe1f5e54	-0.15563327
185	0xbea18a05	-0.31550613
186	0x3e71c4e7	0.23610269
187	0x3f02ad07	0.5104527
188	0xbec3f075	-0.38269392
189	0xbe4a0cd8	-0.19731462
190	0x3db5100e	0.08840953
191	0x3e86462e	0.26225418
192	0xbe66d8a5	-0.22543581
193	0xbde47ff8	-0.111572206
194	0x3e1417a3	0.14462142
195	0xbe15b66c	-0.1462037
196	0x3eb2c361	0.34914687
197	0xbe6e0aaa	-0.23246256
198	0x3e4b3187	0.19843112
199	0x3d51bc61	0.051205043
200	0xbde2f104	-0.11081126
201	0xbe06775b	-0.13131468
202	0xbe9f3d9c	-0.31101692
203	0x3e9b0025	0.30273548
204	0x3ca69697	0.020335479
205	0x3ce19f6c	0.027541839
206	0xbee66d75	-0.45005384
207	0x3ebaeb8a	0.36507827
208	0xbe74e703	-0.23916249
209	0x3e156a51	0.14591338
210	0xbe00ea63	-0.12589411
211	0xbe748eab	-0.23882549
212	0xbe9d3636	-0.30705422
213	0x3eb26a4c	0.34846723
214	0xbee4761f	-0.4462137
215	0x3da4a2b7	0.08038848
216	0xbd53a815	-0.051673967
217	0x3d975a15	0.07390229
218	0x3e0edaf1	0.13950707
219	0x3e0ea649	0.1393062
220	0xbebc4eaa	-0.36778766
221	0xbe52ae0b	-0.20574205
222	0x3e9013e7	0.28140184
223	0x3df8f9e6	0.12157039
224	0x3ee19d4c	0.4406532
225	0x3de7fe4e	0.11327802
226	0x3e264f86	0.16241273
227	0xbecfa9ac	-0.40559137
228	0xbe2986f8	-0.16555393
229	0xbe743a0a	-0.23850265
230	0xbc64015d	-0.013916341
231	0x3ed4d695	0.41569963
232	0x3e26c37c	0.16285509
233	0x3e0b8b49	0.13627352
234	0xbc8a5f4f	-0.01689115
235	0x3e960ae7	0.29305193
236	0x3df3b9ea	0.11900695
237	0x3e8d7a72	0.2763248
238	0x3e901aa1	0.28145316
239	0xbca5bff3	-0.02023313
240	0xbe5fe515	-0.21864732
241	0xbe73403c	-0.23754972
242	0xba9accda	-0.0011810318
243	0xbe66ac39	-0.22526635
244	0x3e6da09a	0.23205796
245	0xbe724be7	-0.23661767
246	0xbe17831c	-0.14796108
247	0x3f05919f	0.52175325
248	0x3ee311bc	0.44349468
249	0xbe17d7ec	-0.14828461
250	0x3edf75cb	0.43644556
251	0xbe88a3b6	-0.26687402
252	0xbd123ef6	-0.035704575
253	0x3e931b11	0.28731588
254	0x3ee02923	0.43781385
255	0xbe94f61a	-0.2909401

encoder.9.bias f4 [16]
0	0x3d38812d	0.045045067
1	0xbdedc119	-0.11609096
2	0x3e00f252	0.12592438
3	0xbd19f24f	-0.0375846
4	0x3d897c56	0.06713168
5	0xbd4c0d8d	-0.04981761
6	0xbcb4c1d8	-0.022065088
7	0x3dc9fb74	0.09862414
8	0xbdcd740c	-0.100319
9	0x3c7415ec	0.014897805
10	0x3d674841	0.05646539
11	0x3dfd77f4	0.12376395
12	0xbd113aff	-0.035456654
13	0x3c4d7224	0.01253942
14	0x3c62c92c	0.013841908
15	0x3e0344a3	0.12819152

pretraining_head.0.weight f4 [16, 16]
0	0xbd8ad54b	-0.06778964
1	0x3e744017	0.23852573
2	0x3e4e88e0	0.20169401
3	0xbd5a971c	-0.053366765
4	0x3e8cb592	0.27482277
5	0x3d4d7cbd	0.050167788
6	0xbe471119	-0.19440116
7	0xbed7ffa9	-0.4218724
8	0x3d2dbe8e	0.042418055
9	0x3ec3ccc5	0.38242164
10	0x3ec29a49	0.38008335
11	0xbe0634d7	-0.13106094
12	0x3ea8cddf	0.32969567
13	0xbe7b08db	-0.24515097
14	0x3e85cb24	0.26131546
15	0xbd912ce3	-0.070886396
16	0x3e752834	0.23941118
17	0xbda4c4bf	-0.08045339
18	0x3ece543a	0.40298635
19	0x3d5ce7b2	0.0539319
20	0xbe5e06ce	-0.21682283
21	0xbeaa4c59	-0.33261374
22	0xbe553dbc	-0.20824331
23	0x3ea65ccc	0.32492673
24	0xbeff18c7	-0.4982359
25	0xbec96872	-0.39337498
26	0x3e218dfa	0.15776816
27	0x3e2db900	0.16965103
28	0x3e61ae2c	0.22039098
29	0xbe499410	-0.19685388
30	0x3e9a0050	0.30078363
31	0x3e0652c6	0.13117513
32	0x3e8c8c86	0.2745096
33	0x39050fdf	0.00012689781
34	0x3ea3aee1	0.3196936
35	0xbe498b6d	-0.19682093
36	0x3e93b195	0.28846422
37	0xbe7a7e8f	-0.24462341
38	0x3e6a8f12	0.2290614
39	0xbea68268	-0.32521367
40	0xbe879239	-0.26478747
41	0x3e921360	0.28530407
42	0x3eadf277	0.33974048
43	0x3e227360	0.15864325
44	0x3ebf1612	0.37321526
45	0xbe747add	-0.23874994
46	0x3eaca0c6	0.3371641
47	0x3e9273c5	0.2860395
48	0xbe984a44	-0.2974416
49	0x3eb42503	0.35184488
50	0x3e61b02b	0.22039859
51	0x3e641b0d	0.22275944
52	0x3ce1efdc	0.027580194
53	0x3edb5379	0.42837122
54	0x3eb271f4	0.34852564
55	0x3ec98dd6	0.39366025
56	0x3ebc1c74	0.36740458
57	0xbd01f348	-0.03172615
58	0x3e59ccb8	0.212695
59	0xbe72ce2d	-0.23711462
60	0x3dc09087	0.094025664
61	0x3ec3b4f2	0.38223988
62	0xbebb7b52	-0.36617523
63	0xbe6a8d45	-0.22905453
64	0x3e1d3969	0.15353931
65	0x3e208e5a	0.15679303
66	0xbed8f050	-0.42370844
67	0xbe1f0aea	-0.15531507
68	0xbea70c96	-0.3262679
69	0xbb8b4c74	-0.0042510573
70	0xbdfccf0e	-0.1234418
71	0x3d861618	0.06547183
72	0xbe2d546e	-0.16926739
73	0x3eb4365a	0.35197717
74	0x3e8c6891	0.27423528
75	0xbdd3644d	-0.10321865
76	0xbeac1d90	-0.33616304
77	0x3ceb871b	0.028750947
78	0xbe9ded1a	-0.30844957
79	0x3eb27cbc	0.3486079
80	0xbe268589	-0.16261877
81	0x3ed8137e	0.4220237
82	0xbe957583	-0.29191217
83	0x3e723708	0.23653805
84	0x3dfe4994	0.12416378
85	0xbeae5d16	-0.34055394
86	0x3ec6785e	0.38763708
87	0x3de69b3f	0.112600796
88	0xbe22a3dc	-0.1588282
89	0xbdfec656	-0.12440173
90	0x3e44fcb5	0.19237025
91	0xbe231367	-0.1592537
92	0x3ec284db	0.37991986
93	0x3dbaf2ac	0.09128317
94	0x3ebb0c33	0.36532745
95	0xbe8f04da	-0.2793339
96	0x3d5339af	0.051568683
97	0xbeb4edf0	-0.35337782
98	0xbec82c45	-0.39096275
99	0xbe334952	-0.17508438
100	0x3dc4788f	0.09593307
101	0xbe6a405a	-0.2287611
102	0x3d92d298	0.07169074
103	0xbda3aa6d	-0.079914905
104	0x3e097a74	0.13425618
105	0x3ee028cc	0.43781126
106	0x3c543d39	0.01295405
107	0xbe9ea362	-0.30984026
108	0x3eb133e5	0.34609905
109	0x3dc92fb6	0.09823553
110	0x3dd6aff1	0.10482777
111	0xbe3e93a4	-0.18611008
112	0xbda12746	-0.07868819
113	0x3e54fb1f	0.2079892
114	0xbda7a1b2	-0.08185138
115	0x3d33a33d	0.043856848
116	0xbcfe815b	-0.03106754
117	0x3bf69281	0.007524789
118	0x3de28d0f	0.11062061
119	0xbeb2ee17	-0.34947273
120	0x3ec2fbde	0.38082784
121	0xbbd5a942	-0.0065204212
122	0xbed4c254	-0.4155451
123	0x3b9c96b1	0.004778706
124	0x3e2aa88e	0.16665861
125	0xbe7f0596	-0.24904475
126	0xbddc47fc	-0.107559174
127	0x3cf55442	0.029947404
128	0x3e53997e	0.20664021
129	0xbb18b616	-0.002330189
130	0xbebc5991	-0.36787084
131	0xbd8216a0	-0.063519716
132	0x3ec6779c	0.3876313
133	0x3eda3e9d	0.42625895
134	0x3e2874cc	0.16450804
135	0xbe429a81	-0.19004251
136	0x3e89855c	0.26859558
137	0xbcbeca62	-0.023289863
138	0xbe9d7822	-0.30755717
139	0xbe93bf5b	-0.2885693
140	0x3df5cf6b	0.120024525
141	0xbec891af	-0.39173648
142	0xbd0fb021	-0.03508008
143	0x3e52c4e1	0.20582916
144	0x3d99b329	0.07504875
145	0xbf175474	-0.5911324
146	0xbe63bef1	-0.22240807
147	0x3eac6bb4	0.3367592
148	0x3e010cbc	0.12602514
149	0xbe9c2943	-0.3050023
150	0x3e642a36	0.22281727
151	0x3edf4442	0.43606764
152	0x3d41202d	0.047149826
153	0xbeaebec4	-0.34129918
154	0xbe6b9bf9	-0.23008718
155	0x3ef1df40	0.4724064
156	0xbc8298ca	-0.015941996
157	0xbe270306	-0.16309747
158	0x3e87677f	0.2644615
159	0xbe55b9cb	-0.20871656
160	0xbd6476c4	-0.055777326
161	0x3eb05c4f	0.34445426
162	0xbe6330c9	-0.22186579
163	0xbe84d3ca	-0.25942832
164	0x3e190735	0.14944156
165	0xbe785685	-0.24251755
166	0x3e9b92a5	0.30385318
167	0x3e3b21c8	0.18274605
168	0xbe27135d	-0.1631598
169	0xbe338d44	-0.17534357
170	0x3da422d4	0.080144554
171	0xbe0d2c3f	-0.1378641
172	0x3e7a45be	0.24440667
173	0xbe0de6a6	-0.13857517
174	0x3ea0ccc6	0.3140623
175	0xbeb797b1	-0.3585792
176	0xbe19b934	-0.15012056
177	0xbd57f06c	-0.05271952
178	0xbe8c4645	-0.2739736
179	0xbd881fc7	-0.06646686
180	0xbe9bfed8	-0.30467868
181	0x3de10352	0.109869614
182	0xbea35261	-0.31898788
183	0x3ec4530e	0.38344616
184	0x3ec681d5	0.3877093
185	0x3e96a4c2	0.29422575
186	0x3e928e4b	0.28624186
187	0xbe9e557a	-0.30924588
188	0xbc6e9997	-0.014562986
189	0xbd9108f0	-0.07081783
190	0x3eadaf0a	0.33922607
191	0xbc633d95	-0.013869663
192	0x3e43280e	0.19058248
193	0x3e275a13	0.16342954
194	0xbd10596f	-0.03524154
195	0x3e4a2d59	0.19743861
196	0x3e9710a8	0.29504895
197	0xbd81a3ae	-0.063300475
198	0x3ead54f1	0.33853868
199	0x3ea4fdff	0.32225034
200	0x3e5a5693	0.21322088
201	0xbc32e681	-0.010919214
202	0xbe0fc9c5	-0.14041813
203	0xbd3abf80	-0.045592785
204	0xbdca6d0b	-0.098840795
205	0xbe8c8bf2	-0.2745052
206	0xbe2f538b	-0.17121713
207	0xbea09227	-0.31361505
208	0xbe480af4	-0.19535428
209	0xbef142ad	-0.47121182
210	0x3edc4498	0.43021083
211	0xbe9c76cf	-0.30559394
212	0x3eecd8ac	0.46259058
213	0xbda5f31a	-0.081030086
214	0xbe2fc577	-0.1716517
215	0x3e8d2388	0.2756617
216	0xbf0bae5f	-0.54562944
217	0x3e346842	0.17617896
218	0x3ec8d2fd	0.3922347
219	0x3e8d13d4	0.2755419
220	0xbe843ce6	-0.25827712
221	0x3e531641	0.20613958
222	0xbcf6d85b	-0.030132463
223	0x3f10cfd9	0.5656715
224	0x3d7e1130	0.06202811
225	0x3e92a894	0.2864424
226	0xbe285ad5	-0.164409
227	0xbe46344b	-0.19355886
228	0xbebf2e54	-0.37340033
229	0xbcdef131	-0.027214618
230	0x3e7d999a	0.24765626
231	0xbd184213	-0.03717239
232	0xbecb2c5b	-0.39682278
233	0xbe5c73aa	-0.21528497
234	0xbcef2a2c	-0.029194914
235	0xbed18897	-0.40924522
236	0x3bd871a2	0.006605343
237	0xbe952114	-0.291268
238	0xbe55c1d1	-0.20874716
239	0xbeb3a79b	-0.3508881
240	0x3e81b874	0.2533604
241	0xbe2a1139	-0.16608132
242	0x3ecc3605	0.39884964
243	0x3d7e1b2b	0.06203763
244	0xbe8788bb	-0.26471505
245	0x3e2e0037	0.1699227
246	0x3d8ca9e3	0.06868341
247	0x3d8ad05c	0.06778023
248	0xbe9a553e	-0.3014316
249	0x3e844cf3	0.25839958
250	0xbd9b8bdf	-0.07595038
251	0x3d9806ad	0.07423148
252	0x3ec03316	0.37538975
253	0xbe9cda14	-0.3063513
254	0x3e356113	0.17712812
255	0x3dfd26b6	0.12360899

pretraining_head.0.bias f4 [16]
0	0xbce29dcf	-0.02766314
1	0x3dd62602	0.10456468
2	0x3d8e13e8	0.069373906
3	0x3cc274df	0.02373737
4	0xbbedffcf	-0.007263161
5	0xbc9ec6d2	-0.019381914
6	0xbc605b83	-0.013693693
7	0xbcb5467c	-0.022128336
8	0x3cb4d97c	0.02207636
9	0x3da6c5b3	0.08143177
10	0xbcaf3e52	-0.021392021
11	0x3b6c395e	0.0036044936
12	0xbcb3937d	-0.021920914
13	0x3defbee3	0.117063306
14	0x3c975b9d	0.018476302
15	0x3d74f8da	0.059807636

pretraining_head.3.weight f4 [16, 16]
0	0x3d5a1aed	0.053248335
1	0x3e71ab68	0.23600543
2	0x3e187ea7	0.14892064
3	0x3e683b56	0.22678885
4	0x3e3d1a03	0.18466954
5	0xbdb8d7e4	-0.09025553
6	0x3bda4ffc	0.006662367
7	0x3a1513a9	0.00056868285
8	0xbeaf2389	-0.342068
9	0x3e162e3a	0.14666072
10	0xbec72cdb	-0.3890141
11	0xbe885604	-0.26628125
12	0xbd21c036	-0.039489947
13	0xbdbf2c95	-0.09334675
14	0xbec0f31e	-0.37685484
15	0x3e2b4764	0.16726452
16	0x3e073b7f	0.1320629
17	0xbeef293e	-0.46711153
18	0xbda2b029	-0.07943756
19	0x3db93107	0.09042554
20	0xbe8b8e9f	-0.2725725
21	0x3eb1adf5	0.3470303
22	0xbe4d5955	-0.20053609
23	0xbe2f6c0d	-0.17131062
24	0xbe4690c6	-0.19391164
25	0xbec26180	-0.37965012
26	0xbe90503b	-0.2818621
27	0xbe03f015	-0.12884553
28	0xbefe2fca	-0.49645835
29	0xbf0c9b08	-0.5492406
30	0xbe2dd3e0	-0.16975355
31	0xbc8aad79	-0.016928421
32	0xbdac580f	-0.08415233
33	0x3ea1ea4e	0.31624073
34	0x3e88eba9	0.26742294
35	0x3e612262	0.21985772
36	0xbec803fd	-0.39065543
37	0xbcd8d6c0	-0.026469588
38	0x3e3b589f	0.18295525
39	0xbe785643	-0.24251656
40	0x3e16bef4	0.1472128
41	0x3e9f0bed	0.31063786
42	0xbe8fb9f5	-0.2807156
43	0xbde273f0	-0.110572696
44	0x3eb28fc6	0.34875315
45	0x3e08ac45	0.13346966
46	0x3d94b9a0	0.07261968
47	0x3c07b337	0.008282474
48	0xbe92c2cc	-0.28664243
49	0x3ee279ec	0.44233644
50	0x3e4da2ad	0.20081587
51	0x3e20e493	0.15712194
52	0x3e9f2df1	0.31089738
53	0x3e4661a7	0.19373189
54	0x3e8b5c99	0.27219084
55	0xbe78789c	-0.24264759
56	0x3ed7bcf7	0.42136356
57	0x3ed29747	0.4113104
58	0xbead899c	-0.3389405
59	0x3e5f193a	0.21786967
60	0xbe45acb7	-0.19304167
61	0x3f085f67	0.5327057
62	0x3b3325e7	0.0027335824
63	0x3e6a780f	0.22897361
64	0x3ebf53f0	0.37368727
65	0x3e7421a4	0.23840958
66	0x3c250281	0.010071398
67	0x3e9abca9	0.3022206
68	0x3ed755db	0.4205769
69	0xbe0b548b	-0.1360647
70	0x3e8604e0	0.26175594
71	0x3e3bd634	0.18343431
72	0xbe8ba826	-0.27276725
73	0x3ec70b02	0.38875586
74	0x3e478df3	0.19487743
75	0xbdd324f7	-0.10309785
76	0x3e191b59	0.14951839
77	0x3e319faa	0.17346063
78	0x3bbce1ed	0.005764237
79	0x3e197733	0.14986877
80	0xbdc891ac	-0.0979341
81	0xbe7e6ae4	-0.24845463
82	0x3dc49201	0.095981605
83	0xbd9335b9	-0.07187981
84	0x3e4b192b	0.1983382
85	0xbe84afa7	-0.25915262
86	0xbe959bd9	-0.29220465
87	0x3db89565	0.0901287
88	0x3e8d4170	0.27588987
89	0x3d1e3ecb	0.038634103
90	0x3e3032eb	0.17206924
91	0xbe4524ad	-0.19252272
92	0xbf06cdb2	-0.52657616
93	0xbdf165bc	-0.117869824
94	0xbca4e779	-0.020129906
95	0xbc141446	-0.009038037
96	0x3ea5f81c	0.32415855
97	0x3dbf3db4	0.09337941
98	0x3e04fed4	0.12987834
99	0x3d71072d	0.058844734
100	0xbda628f5	-0.08113281
101	0xbe557871	-0.20846726
102	0xbd943dcb	-0.072383486
103	0xbd43e6ce	-0.047827534
104	0xbde504a2	-0.11182524
105	0x3dbcd87c	0.092209786
106	0x3e90c385	0.2827417
107	0xbdad7792	-0.08470072
108	0xbec1c701	-0.3784714
109	0x3e8abf65	0.27099147
110	0x3eb668e6	0.35626906
111	0xbb659b14	-0.003503506
112	0xbeb7abd6	-0.35873288
113	0x3e9ee29d	0.31032267
114	0x3dd8ca66	0.105854794
115	0x3e72662e	0.23671791
116	0xbd783c13	-0.060604166
117	0x3e04c94c	0.12967414
118	0xbc9dadc2	-0.019247893
119	0xbe4a4ee3	-0.19756655
120	0xbb8f25bb	-0.0043685115
121	0x3e7688a3	0.2407556
122	0x3eb66e2f	0.35630938
123	0x3e2c70df	0.16839932
124	0x3ec43f2b	0.38329443
125	0xbe3ee09b	-0.18640368
126	0xbd2ebe02	-0.042661674
127	0x3d17947f	0.03700685
128	0x3d867a7a	0.06566329
129	0xbe23f47b	-0.1601123
130	0xbe008a86	-0.12552842
131	0x3e7ba138	0.24573219
132	0xbe9e2707	-0.3088915
133	0xbed67a18	-0.41890025
134	0x3eaae23b	0.33375725
135	0xbd2dbe2c	-0.04241769
136	0xbe85f61c	-0.2616433
137	0xbe15e7a6	-0.14639148
138	0x3ea2ec7c	0.31821048
139	0xbeb3b9dc	-0.35102737
140	0xbe587051	-0.21136595
141	0xbe6ffca1	-0.23436214
142	0xbe8adbbb	-0.27120766
143	0xbe809dcf	-0.25120398
144	0xbd38099f	-0.04493105
145	0xbe641c2c	-0.22276372
146	0xbd40c663	-0.047064196
147	0xbdd2d27f	-0.10294055
148	0xbe5dfbac	-0.21678036
149	0x3e9efb71	0.3105121
150	0x3e486c97	0.19572674
151	0xbe39582d	-0.18100043
152	0xbe1cb0b4	-0.15301782
153	0x3e8e44dc	0.2778691
154	0x3e884b2b	0.2661985
155	0x3e9eec73	0.3103977
156	0x3ea600c1	0.3242245
157	0x3ec31ce4	0.3810798
158	0x3eb6d88e	0.35712093
159	0x3e869bc6	0.2629072
160	0xbe871a4e	-0.26387256
161	0x3ee6610d	0.4499592
162	0x3ec2f43f	0.3807697
163	0xbe2acf40	-0.16680622
164	0xbeaf60d3	-0.3425356
165	0x3e1d6b47	0.15372954
166	0xbea27573	-0.31730232
167	0xbe6a4eef	-0.22881673
168	0x3cba0b8b	0.022710582
169	0x3f1fb8c5	0.6239131
170	0x3e9b2869	0.30304268
171	0x3e86e0ab	0.26343283
172	0x3e95c6fd	0.2925338
173	0x3ef7e352	0.4841562
174	0x3e171aba	0.14756289
175	0x3ef436ae	0.47697967
176	0xbe4c0c07	-0.19926463
177	0x3ed45653	0.4147211
178	0x3ea040fc	0.3129958
179	0x3eb24b00	0.34822845
180	0x3ecea581	0.40360644
181	0x3e9cecbe	0.3064937
182	0xbe9ea252	-0.30983216
183	0x3e4e9fad	0.20178099
184	0xbde4cd70	-0.111719966
185	0xbdde1f80	-0.10845852
186	0x3e07cbf0	0.1326139
187	0x3e0dd18f	0.13849472
188	0xbe40f2bd	-0.18842597
189	0x3e936106	0.2878496
190	0x3e405836	0.1878365
191	0x3d8b3c77	0.06798642
192	0x3e2c711c	0.16840023
193	0xbe2c89c9	-0.16849436
194	0x3e7e5106	0.24835595
195	0x3c97362b	0.018458446
196	0xbe9b4319	-0.3032463
197	0xbcda6a2e	-0.026661959
198	0xbe7a3db6	-0.24437603
199	0x3e734217	0.2375568
200	0x3a143771	0.00056540134
201	0xbe5f483d	-0.218049
202	0x3c815ecc	0.015792273
203	0x3e2a64b0	0.16639972
204	0xbd1b7abc	-0.037958845
205	0xbe22eb76	-0.15910134
206	0x3ddfeba3	0.10933616
207	0x3d52c973	0.05146165
208	0x3e39d58f	0.18147872
209	0x3ead9aae	0.33907074
210	0x3eb40d72	0.35166508
211	0xbec456b6	-0.38347405
212	0xbd6f8903	-0.058480274
213	0xbe8a9d5a	-0.27073175
214	0x3e3a9255	0.18219884
215	0xbd454a88	-0.04816678
216	0xbec55044	-0.385378
217	0x3eefd2ee	0.46840614
218	0x3e07a32a	0.13245836
219	0xbe9eb191	-0.30994847
220	0x3e28d337	0.16486822
221	0x3ecafe59	0.39647177
222	0x3ea5e75f	0.32403085
223	0x3e9e0d70	0.30869627
224	0xbe3ecd9d	-0.18633123
225	0x3d72b7f5	0.059257466
226	0xbe7e244b	-0.24818532
227	0xbd1fc400	-0.03900528
228	0x3ecf2ae6	0.40462416
229	0xbd36b89b	-0.044609647
230	0xbda97edc	-0.0827615
231	0x3e7e5abd	0.24839301
232	0xbe18acea	-0.14909711
233	0xbe97e2f8	-0.2966535
234	0x3e5cbe43	0.21556954
235	0xbede961b	-0.43473896
236	0xbe0f0f07	-0.13970576
237	0x3de287e6	0.11061077
238	0x3dea09b8	0.11427635
239	0x3e685d14	0.22691756
240	0xbd37e948	-0.04490021
241	0xbdc33303	-0.09531214
242	0x3e11073e	0.14162919
243	0xbea2e9f2	-0.3181911
244	0xbe36ca2d	-0.17850561
245	0x3ebcb2e4	0.36855233
246	0xbe03554e	-0.1282551
247	0x3ea8281f	0.3284311
248	0x3de30ecf	0.11086809
249	0xbe9bcc41	-0.3042927
250	0xbd834bc7	-0.06410938
251	0x3e951b1c	0.29122245
252	0x3ed134e7	0.40860674
253	0xbdb528b9	-0.08845658
254	0x3e9a745a	0.30166894
255	0x3dd0e77d	0.10200403

pretraining_head.3.bias f4 [16]
0	0x3d04d989	0.03243402
1	0xbda1438e	-0.07874213
2	0x3d5cfb35	0.053950507
3	0x3ddbc45e	0.107308134
4	0x3d4891e0	0.048967242
5	0xbcee66a0	-0.02910167
6	0x3db7049e	0.089364275
7	0xbc792810	-0.015207306
8	0xbd79358e	-0.06084209
9	0x3d385da8	0.045011193
10	0x3da43c7d	0.0801935
11	0x3d85e512	0.06537832
12	0xba49667a	-0.00076828117
13	0x3dc50a1d	0.096210696
14	0xbcb36c62	-0.021902267
15	0xbb35f051	-0.0027761648
