trained_models/cylinder-bands_cls_corr.pt (torch, 19425 bytes, 12 tensors)

encoder.0.weight f4 [16, 148]
000000 57 56 0d be 41 b9 a5 3d c6 04 6d 3c eb 6d a4 bd
       -0.13802467 0.08091975 0.01446647 -0.08028778
000010 cd dd e6 3e c7 b1 15 be e7 f1 42 3d a9 1c bc bc
       0.45091096 -0.14618598 0.047593977 -0.022962885
000020 0d 5b a4 3e e3 a1 ae 3c 66 6d b9 bd 8b 21 39 be
       0.32100716 0.021317428 -0.09054069 -0.18079202
000030 b4 9d 0d be 36 f6 f4 bd 22 97 a2 3c 5d 2a 3b be
       -0.1382969 -0.119610235 0.019847456 -0.18277879
000040 df 1d 2c be 3e db ae 3b b2 37 b2 bd 7e 63 6a bd
       -0.1680827 0.0053361943 -0.08702029 -0.05722379
000050 b8 c6 c4 bd 87 e5 e4 bd c2 95 1c be 11 cb 7c 3e
       -0.09608215 -0.11176591 -0.15291503 0.24686839
000060 9d 13 9f 3d d5 ec 89 3d 70 da bb 3c aa 5b 24 3d
       0.07767413 0.06734625 0.022931308 0.04012648
000070 e9 95 f5 3c ff b7 42 3d 66 54 73 3e 8c cc ff 3d
       0.02997871 0.047538754 0.23762664 0.12490186
000080 5f 82 63 bd 1a 15 dd 3d 5b 0a fe bd f2 5c 1a be
       -0.055544253 0.107950404 -0.12404319 -0.15074518
000090 96 75 29 be 9b 2a 8d 3e a9 7f ca 3d db ad e7 bd
       -0.16548762 0.27571568 0.098876305 -0.11312457
0000a0 c9 a9 91 bd 08 4d 1f be 54 73 70 3d 9e 8f 34 3e
       -0.07112462 -0.15556729 0.058703735 0.1763291
0000b0 a7 a7 88 be 77 4b 35 3e 66 a6 f3 3d d9 61 25 3e
       -0.2669041 0.17704569 0.11896972 0.16150607
0000c0 9e e3 e4 bd 5b 1b 01 bd af fc 13 bc 76 9f dd 39
       -0.11176227 -0.03152023 -0.009032412 0.00042271212
0000d0 7b 45 c4 bd d3 3d 0f be 54 1d 3e 3e d0 ad 0f be
       -0.09583565 -0.13988428 0.18565875 -0.14031148
0000e0 ad c7 c5 3d 15 b2 02 3d 58 b5 c7 bc 8d b3 15 3d
       0.09657226 0.031908114 -0.024378464 0.036548186
0000f0 52 64 4e 3e 17 51 b3 3d 8b 5e 5e bd be 53 38 3b
       0.20155457 0.08755701 -0.054289382 0.0028126086
000100 e5 87 64 3d 55 77 57 3d dc 03 a4 3c 96 81 9d bc
       0.05579366 0.05260404 0.020021372 -0.01922683
000110 54 2a b2 bc 5f ba 0d 3e a3 03 20 be 09 7f 25 be
       -0.0217487 0.13840626 -0.15626387 -0.16161741
000120 56 04 87 bd 56 ff 07 bc c0 28 35 3d 4a 47 58 bc
       -0.06592624 -0.008300623 0.044228315 -0.01320059
000130 02 08 a4 3a 27 96 88 3d 12 1d d9 3d 14 cc 74 3e
       0.0012514594 0.06669264 0.10601248 0.23905975
000140 21 42 09 3e 76 6b a5 bd a7 6a a4 bd 64 02 a2 bd
       0.13404132 -0.08077137 -0.08028155 -0.07910612
000150 1b c7 a9 3d d2 3d a0 be 3d e7 07 3d 56 cd 7f be
       0.082899295 -0.31297165 0.03317951 -0.24980673
000160 d1 58 44 be 3f 5b 7f 3d 87 fa aa 3d 60 77 bb 3d
       -0.19174506 0.06234288 0.083485655 0.09153628
000170 31 12 71 bd 39 2f f7 bd 5d 01 28 bb f7 e3 4b 3d
       -0.05885524 -0.12069554 -0.0025635578 0.04977795
000180 8d 51 6c bc 37 6f 42 3d 8e d1 d8 bd 15 8a 97 3d
       -0.01442374 0.047469344 -0.105868444 0.07399384
000190 0d 5e 6c 3d 67 0a 34 be 0b 8a 5f bc cc 44 80 3d
       0.05770688 -0.17582093 -0.013643752 0.06263122
0001a0 f8 2a 25 3e c6 90 ff bd 3a ec 49 be bf 03 f7 bd
       0.16129673 -0.12478785 -0.1971902 -0.120612614
0001b0 23 62 84 3d 5b 24 79 3e cf 17 ae bd 0b 45 1e bc
       0.064640306 0.24330275 -0.08500635 -0.009660016
0001c0 87 c7 18 bc 86 bb 49 bd 08 9d 6b 3e da db 65 be
       -0.009324915 -0.049251102 0.23009121 -0.22447148
0001d0 ef a9 12 bd f2 bb a9 3d 79 80 f5 3b af 4c 2f 3e
       -0.035806593 0.08287801 0.007492122 0.17119096
0001e0 fd d8 49 be 57 c6 a9 3e 36 69 79 3e 56 87 c8 3c
       -0.1971168 0.33159134 0.24356541 0.024478596
0001f0 69 14 91 be 88 00 25 3e 16 84 78 bd 89 97 4f bd
       -0.28335884 0.16113484 -0.060672842 -0.050681625
000200 4b 32 06 be 55 34 97 3c a3 f6 b3 3d a6 4e e9 3d
       -0.13105123 0.018457571 0.087872766 0.11391954
000210 a6 ff ee 3d a6 37 56 3d d5 ae 46 be 70 ba 27 be
       0.11669855 0.052299164 -0.1940263 -0.16379714
000220 76 5d b9 3b 52 99 c8 bd 5d 04 d4 bc dc a3 3f 3e
       0.0056568934 -0.097948685 -0.025880987 0.18714851
000230 7c 2e fb 3d 4e 74 5d 3e c2 aa 88 bd b2 13 92 3c
       0.122647256 0.21626398 -0.066731945 0.017831657
000240 05 65 26 3e dc f5 89 be 36 33 31 be 36 75 48 bc
       0.16249473 -0.26945388 -0.17304692 -0.0122349765
000250 21 ce 32 be 7d 76 71 3d 2b 49 45 bd e6 d5 f7 3b
       -0.17461444 0.05895089 -0.04816548 0.0075633405
000260 3d 1a 37 be 72 54 0e bd 0b 26 d6 3d bc 66 9d 3c
       -0.17881103 -0.034748502 0.10456475 0.019214027
000270 09 68 50 3e f1 ee e3 bc 60 68 87 bd 1c c5 23 be
       0.20352186 -0.027823897 -0.06611705 -0.1599316
000280 2c 85 fa 3d 72 c8 59 be cc 39 dc 3b 5c e8 1f 3d
       0.12232432 -0.2126787 0.006720757 0.039039955
000290 a6 04 5e be 39 1e 96 3d 06 fc e2 3d 06 1c 37 be
       -0.2168146 0.07329983 0.11083226 -0.17881784
0002a0 15 d6 4f 3e da 1a b2 3c 7b ff f3 3d 63 02 cd bd
       0.2029651 0.02174132 0.119139634 -0.10010221
0002b0 0a b7 a9 bd 93 0c 7f be 51 be ed 3d 8b 83 70 3d
       -0.08286865 -0.2490714 0.116085656 0.0587192
0002c0 03 84 50 bd 80 0a ac bd bc 88 3b bd f5 cd 9d bd
       -0.050907146 -0.0840044 -0.045784697 -0.07705299
0002d0 7a d5 82 bd ba b2 61 be f3 ee d6 3d f6 98 0a be
       -0.06388374 -0.22040835 0.10494795 -0.13534912
0002e0 65 2a 06 be 7a 57 25 bd ad cf c9 bc b2 ec 03 be
       -0.1310211 -0.040366627 -0.02463516 -0.12883261
0002f0 0a 65 60 3b 84 6a dc bb 29 8b 61 bd 47 fa ff bd
       0.0034239911 -0.006726565 -0.055064354 -0.124989085
000300 96 5c 27 be 37 2f a4 3d 09 ed 9f 3d 08 e4 81 bd
       -0.16343912 0.08016818 0.07808883 -0.06342322
000310 98 6c 5c 3d 19 ad e0 3d 9f 2c 04 be c0 f1 91 bd
       0.0538145 0.10970516 -0.12907647 -0.07126188
000320 d7 da 07 be 25 72 f5 bd 56 a8 d8 bd 0b d4 91 bc
       -0.13267075 -0.11984662 -0.105789825 -0.017801305
000330 e7 15 13 be 1f 1d a8 3d e7 bb b3 3b ab d2 9f bd
       -0.14363824 0.082086794 0.005485046 -0.078038536
000340 d6 8a ad 3e a1 55 90 bd f8 4d 7a be 9a b2 50 3d
       0.33894986 -0.070475824 -0.24443805 0.050951578
000350 e2 6b 63 3e fe 9b 36 bd 94 51 bd 3b 5e 63 11 be
       0.22209123 -0.04458236 0.005777547 -0.14198062
000360 84 43 66 3d 66 8b 01 be 66 10 a0 3d 60 fb 73 3d
       0.05621673 -0.12650833 0.07815628 0.0595659
000370 07 03 90 be 34 a5 be 3d 9d 02 3a bd 33 f8 fa 3d
       -0.2812731 0.09308854 -0.04541265 0.122543715
000380 4f f0 de 3d 56 d6 de bd 91 a7 8f 3b 5f 57 54 3e
       0.10885679 -0.10880725 0.004383989 0.20736454
000390 26 24 0a be 59 2e 0b 3d ea 77 7c 3b ec 5c df 3d
       -0.13490352 0.033979747 0.0038523623 0.10906395
0003a0 66 87 4d be ee b1 60 bd 37 b9 40 be 7e a1 f0 3d
       -0.20071182 -0.054857187 -0.18820654 0.11749552
0003b0 f1 cd e1 bd 78 9f 27 bd 7e a5 66 3d 18 f7 dc bd
       -0.11025608 -0.040923566 0.05631017 -0.10789317
0003c0 01 ad 34 be 11 c4 14 be f3 2d 1b be 7a c2 5e 3c
       -0.17644121 -0.14527918 -0.15154247 0.0135961715
0003d0 d0 d8 03 3e 5a e5 2c 3d 2e 6f cb 3d e3 a3 98 3c
       0.12875676 0.042210914 0.09933315 0.018632835
0003e0 f8 2b 9f bd 25 59 ab bd 5a 4c 84 3e 4d 61 25 3e
       -0.07772058 -0.08366612 0.25839502 0.16150399
0003f0 99 cf d6 bb 4d 45 77 3d 8e e3 55 3c a2 86 23 be
       -0.0065555093 0.060368825 0.013054742 -0.15969327

encoder.0.bias f4 [16]
000000 53 85 5a ba 04 89 0c bc 97 8c 89 bc e1 24 ab bb
       -0.0008335907 -0.008577589 -0.016790671 -0.005222902
000010 c5 a5 1c 3d 66 20 81 3c 16 51 90 3c c0 5e b1 3c
       0.038244028 0.01576252 0.01761679 0.021651626
000020 b3 98 eb bb e1 05 05 3c 9f 5d 0f 3d f7 43 e6 bb
       -0.007189834 0.008119077 0.035001393 -0.007027145
000030 d8 91 8e 3a f3 38 15 3c 31 a6 88 bc e8 d2 ae bc
       0.0010877205 0.009107816 -0.016680809 -0.021340802

encoder.3.weight f4 [16, 16]
000000 fb 49 a6 be ed f7 21 3d fb c0 34 3e 3f b4 9d 3e
       -0.32478318 0.03954308 0.17651741 0.3080158
000010 e9 e8 39 bd a7 05 95 3d cc 35 41 be e2 3c 8d 3e
       -0.045388136 0.07276469 -0.18868178 0.27585512
000020 ce 44 66 3c 02 30 6c be 74 fa c9 3e e2 0e b5 3e
       0.01405449 -0.23065189 0.39448893 0.35362917
000030 ec 5d 91 bc 33 e3 b6 ba d8 92 52 be 40 9d 8a 3e
       -0.01774498 -0.0013953209 -0.20563829 0.27073097
000040 27 f2 80 be 7d 9a 23 3e de d9 7f 3e b2 71 53 be
       -0.25184748 0.15976901 0.24985453 -0.2064884
000050 6f c3 af 3d d6 fa 2d 3e 09 e8 1a be a9 65 ce 3d
       0.08582198 0.16990218 -0.15127577 0.10077984
000060 c1 e0 a4 3e 3f 3b a7 be 3e 54 bf 3e cb 34 db be
       0.32202724 -0.3266239 0.3736896 -0.42813715
000070 98 cf 3d 3e a3 bc 93 3e 54 20 f5 3d d2 87 4f 3e
       0.18536222 0.28854856 0.11969057 0.20266655
000080 5c 00 eb 3e 77 c9 b3 3d 1b 9e 2e 3d 25 29 05 3e
       0.45898712 0.08778661 0.04263125 0.13003977
000090 d1 c3 04 bf 92 a9 9e be 27 79 af 3e e7 c6 43 3d
       -0.5186129 -0.30988747 0.3427212 0.04779711
0000a0 dd 84 4b 3d 49 c4 df 3e 05 56 2e be 52 e6 b5 be
       0.049687255 0.4370444 -0.17025001 -0.35527283
0000b0 58 5c 54 3e de eb 39 3e 15 df 83 3e 9c 28 bd 3d
       0.20738351 0.18156382 0.25756136 0.09236261
0000c0 c6 95 cd 3e 99 40 72 be 5e e9 2c 3e 90 42 92 bd
       0.4015333 -0.23657455 0.16885898 -0.07141602
0000d0 f4 59 f4 3d b2 5b 05 3d a6 1b 97 be 50 7f c9 3e
       0.1193122 0.03255815 -0.29513282 0.39354944
0000e0 d7 eb af 3e 62 c0 91 bd e3 53 9f be 14 62 83 bd
       0.3435962 -0.07116772 -0.31118688 -0.06415191
0000f0 9e 11 90 be 5b 30 d1 be 2a 1f d2 be eb aa 81 be
       -0.2813844 -0.40857205 -0.410394 -0.25325713
000100 4e df b2 3d 3f 78 9e 3e 3b 40 bb be ad 11 51 3e
       0.08733998 0.30951115 -0.3657244 0.20416899
000110 f6 db c1 3d 02 19 fe bb 00 14 38 be ba 32 8d 3d
       0.09465782 -0.007754446 -0.1797638 0.06894441
000120 2e ad bc 3e 0b 7d a7 3e 54 ae 8b be 1e cf af 3d
       0.36850876 0.32712588 -0.2728144 0.08584426
000130 8c 1b 01 bf 2c 49 32 3c 5d c0 9d 3d 1e 00 d9 3e
       -0.5043266 0.010881703 0.07702706 0.42382902
000140 3e 3c 12 3e 22 86 9d 3e fa b7 5e bd fa a9 85 3e
       0.14280793 0.30766398 -0.054374672 0.26106244
000150 19 f5 2f bd a1 d5 5b be fd ea 4c 3d 64 06 ec be
       -0.042958353 -0.21468212 0.05002879 -0.46098626
000160 f3 d3 0f 3e 86 17 24 be 41 85 d8 bd 1a 8f 58 be
       0.14045696 -0.16024598 -0.10572291 -0.21148339
000170 23 5b 56 bc 0e 40 05 3e ad 96 d4 be a7 8d 74 be
       -0.013083252 0.13012716 -0.41521206 -0.23882161
000180 9a e8 86 3e 85 2b 26 be c2 80 61 3e 35 92 24 3b
       0.26349336 -0.16227539 0.22021773 0.002511156
000190 21 80 3e be ec 24 b9 be 94 3d 49 3e a9 d5 4f 3e
       -0.18603565 -0.36160982 0.19652396 0.20296349
0001a0 07 11 96 be 07 ab ad 3e 37 23 52 be 68 df 80 be
       -0.29309866 0.33919546 -0.20521246 -0.25170445
0001b0 6e 95 86 3e bf dd 1d be f1 44 c3 3d e1 bb 4a be
       0.2628588 -0.1541662 0.09534634 -0.19798233
0001c0 79 77 9d be 17 78 8d be 32 9a cc be 21 67 26 3d
       -0.30755213 -0.27630684 -0.39961392 0.040625695
0001d0 35 41 a3 be eb ae 0d 3d 7b d1 b2 be 78 1b 8d 3e
       -0.31885687 0.034590643 -0.34925446 0.2756002
0001e0 e7 7c 3f 3e 2c 0c c4 3e 0b 91 ac be ab 90 c2 3e
       0.1869999 0.38290536 -0.3370441 0.38000998
0001f0 6d 87 32 bd 95 ef 61 be e7 91 bc 3d d9 af 56 3e
       -0.043586183 -0.2206405 0.09207516 0.20965518
000200 a5 b1 29 3e f1 d0 79 3e 54 8c 45 be 7c df 19 be
       0.16571672 0.24396111 -0.19291812 -0.15026659
000210 3e be 5b be aa 2b 7b be 3a 40 90 3e 57 d1 fd be
       -0.2145929 -0.24528375 0.28174 -0.49573776
000220 19 e7 cc be 45 ce 20 bd 7d 54 00 3c a2 6d 1b 3d
       -0.40020064 -0.039259214 0.007832644 0.03794635
000230 8b 0f 47 3e c8 78 b1 3e 92 25 16 be 0d 41 71 be
       0.19439523 0.3466246 -0.1466277 -0.23559971
000240 e9 e5 ca 3d 70 a0 01 3e 6b ad 32 3e 10 17 bf be
       0.09907133 0.12658858 0.17448966 -0.37322283
000250 2e ef 6f bc 5a 61 cf be 36 85 b0 3e 9b ea d7 3e
       -0.014644427 -0.4050396 0.34476632 0.42171177
000260 f4 8d c3 3e ae 4a 2f 3d b3 cc c1 be 98 38 38 3c
       0.3819424 0.04279583 -0.37851486 0.011243962
000270 1b 06 fd be 84 f5 a3 bd a7 6a 31 3e e9 d5 40 be
       -0.4941872 -0.08005813 0.17325841 -0.188316
000280 7d 34 c2 3d c9 5d 32 bd 5a 07 72 be 72 1b b8 3e
       0.094826676 -0.04354647 -0.23635617 0.3595844
000290 f1 40 97 be b4 98 80 be 4f de 32 3e d7 4a 76 3e
       -0.29541734 -0.25116503 0.17467616 0.24051987
0002a0 7b 46 bb be ad ed 2c 3d a8 e4 27 3e 87 d1 8c be
       -0.3657721 0.042218853 0.16395819 -0.27503607
0002b0 f6 78 8c 3e a9 25 a6 be 16 0b e3 bc d5 e8 f7 3e
       0.27436036 -0.32450607 -0.027715247 0.48419824
0002c0 49 d7 2f bd d4 29 9c bb 69 85 99 be 18 66 ad bd
       -0.04292992 -0.0047657285 -0.29984596 -0.084667385
0002d0 9c 57 4e 3e 92 7d b7 3e 3d bb e2 3e 29 ff c4 bd
       0.20150608 0.3583799 0.44283476 -0.096189804
0002e0 ce 81 b2 be 49 fb e0 be 96 bf 77 3e b8 5e 85 3e
       -0.34864658 -0.43941715 0.24194178 0.26048827
0002f0 95 ca 42 3e 06 4f 5a be 33 60 90 bd a2 51 88 3c
       0.19022591 -0.21319208 -0.070495985 0.016640488
000300 f3 ad 0a be c9 27 31 be 2b 6b 39 3e db 93 e0 be
       -0.13542919 -0.17300333 0.18107288 -0.43862805
000310 c4 4d cf 3e 5d 1f 5f 3e b9 4d 63 bd 44 ee 15 be
       0.40489018 0.21789308 -0.055494044 -0.14641672
000320 74 5c d8 3e ce 3c 7f be cb eb bf 3e 4b aa 52 be
       0.42258036 -0.24925539 0.37484583 -0.20572774
000330 f1 05 c1 3e 6e e7 82 be 03 e8 0f 3e 9e 86 3f be
       0.37699845 -0.25567192 0.14053349 -0.18703696
000340 80 bc 3b be e4 c4 87 be 9f b1 d5 3b 5f 49 9a bd
       -0.18333626 -0.26517403 0.006521418 -0.07533526
000350 e9 ea 1b 3e 92 e5 01 bd 76 c4 9b bd 62 1e 6d be
       0.1522633 -0.031713076 -0.07605831 -0.23156121
000360 b0 48 37 3e b1 9d 41 be 75 69 5c 3e 74 4a a8 3e
       0.17898822 -0.18907811 0.21524604 0.32869303
000370 bd 0b 82 3e f8 2b 76 bc 74 1b 84 3e 2a 79 ba be
       0.2539958 -0.015025131 0.25802195 -0.36420566
000380 66 ca 78 3e ef c4 92 be 83 5a b0 be 59 36 b3 bc
       0.24295959 -0.28665873 -0.34444055 -0.0218765
000390 72 7c 16 bc 11 09 a0 be e5 9f 9c be 57 f6 9f 3e
       -0.0091849435 -0.31256917 -0.3059074 0.3124263
0003a0 38 ac 3b 3e 6a 51 b4 be 37 2e 70 3d ff a7 17 bf
       0.18327415 -0.35218364 0.058637824 -0.59240717
0003b0 82 5b 78 be 08 5f 0f bf 1a ff 7d 3e 50 54 06 bd
       -0.24253657 -0.5600438 0.24804345 -0.03279525
0003c0 f3 05 68 3e 87 9d 94 3e 61 63 92 be ce e5 40 be
       0.2265852 0.29026434 -0.28591445 -0.18837664
0003d0 7d d9 72 3e d1 33 95 bd 65 05 87 3e 80 8d ff 3d
       0.23715778 -0.07285274 0.26371303 0.12478161
0003e0 21 ec b4 bb db f6 89 be e5 f7 8a be df b9 16 3e
       -0.005521313 -0.26946148 -0.27142254 0.14719342
0003f0 93 6e 19 be c1 9a 78 3e 05 9f fc be ee 50 c0 be
       -0.14983587 0.24277784 -0.49340072 -0.37561744

encoder.3.bias f4 [16]
000000 0e 95 2b bc ea 8d cf bb b7 35 77 3c 5a bc 09 be
       -0.010472549 -0.006334056 0.01508849 -0.13450757
000010 ba ed 96 bc 03 20 4a bd dd f0 0e 3d 27 9d c6 bc
       -0.018423904 -0.049346935 0.034897674 -0.024244858
000020 e2 29 88 3d 02 25 96 bd 43 29 8a bd 13 5c 24 bd
       0.066486135 -0.073312774 -0.06746151 -0.04012687
000030 ca bc e5 3b a5 e1 b7 bd 34 cc 0d 3d 70 f0 74 bb
       0.007011031 -0.08978585 0.03461857 -0.0037374757

encoder.6.weight f4 [16, 16]
000000 53 11 5a be f3 e9 cd bc ed 0d 33 be 48 0e 19 3e
       -0.21295671 -0.02513597 -0.17485781 0.14946854
000010 a8 17 d2 3e 6b cb 57 3e 32 6e 39 3e 8a 77 8e 3e
       0.41033673 0.21073692 0.18108442 0.27825576
000020 ff 73 a1 be 0e eb a8 3e ce ee a1 3e 8a d9 c9 3e
       -0.3153381 0.32991832 0.31627506 0.39423782
000030 3c 8e d1 3e 9d 66 c0 bd d7 7b c5 be 84 8a b3 be
       0.4092883 -0.09394572 -0.38571045 -0.35066617
000040 d2 3f 66 3e 1e 4e f9 3d d2 9e b1 be 53 db da bd
       0.22485283 0.12173103 -0.34691483 -0.10686364
000050 15 f3 7d bc 7b 41 80 3d 30 7a 87 be 75 e5 5f 3e
       -0.01549985 0.062624894 -0.2646041 0.21864875
000060 52 8b 9e 3d ce f6 73 3e bb 26 f4 be 6c 29 f3 be
       0.07741417 0.23824617 -0.476858 -0.4749254
000070 3e 35 ba 3e cf a3 67 be 48 94 18 bf 9e 47 8c 3e
       0.36368746 -0.22621082 -0.5960126 0.2739839
000080 7e 4e d1 be 1b 38 ff bd 4b 26 89 be 15 ce 91 be
       -0.40880197 -0.12461873 -0.26787028 -0.2847754
000090 67 b9 02 3c 77 5d b7 be a7 2a 5e be 53 10 3b be
       0.007978774 -0.35813496 -0.21695958 -0.18267946
0000a0 e4 13 1d 3d 83 15 bb 3e 5d 77 c2 be 61 64 22 be
       0.038349047 0.3653985 -0.37981692 -0.15858604
0000b0 59 5e 60 bd f7 4a d5 3c 57 c3 97 be c1 57 ea 3e
       -0.054777477 0.026036723 -0.2964122 0.45770076
0000c0 20 47 8f be 66 7e 81 3e 61 57 9d 3e a8 f6 25 3e
       -0.27983952 0.25291747 0.30730727 0.16207373
0000d0 43 23 a6 bd 67 20 9c 3c 77 8e cd 3d 4c 49 8b 3e
       -0.081121944 0.01905842 0.10036939 0.2720436
0000e0 20 0d 91 3e 75 06 85 bd 17 0e 5a be 78 22 8a 3e
       0.28330326 -0.06495372 -0.21294437 0.26979423
0000f0 cf a9 27 be 37 25 05 bf fc a3 05 bf c4 e4 92 be
       -0.1637337 -0.5200991 -0.52203345 -0.2869016
000100 82 af 9f 3c 76 21 35 be 2f 8c d6 3d 11 80 3c 3d
       0.019492868 -0.17688546 0.10475957 0.04602057
000110 38 62 a8 3e 55 81 e2 be e8 6d 00 bd 7b eb 9b be
       0.32887435 -0.44239298 -0.031354815 -0.30453095
000120 fb de 3e 3e 06 88 83 be e4 ee 82 be 38 e7 2d be
       0.18639748 -0.25689715 -0.25572884 -0.16982734
000130 ba 67 28 be f3 8d df bd ac 44 9f be e7 bb 58 bc
       -0.16445819 -0.109157465 -0.3110708 -0.013228393
000140 93 90 b2 be 17 62 84 be cc 1b e4 3e 73 92 5f bd
       -0.34875926 -0.25856087 0.44552457 -0.054583024
000150 a0 44 b6 3b c2 c0 a9 3d 3c 5a 76 3e ff 26 49 bc
       0.00556238 0.08288719 0.24057859 -0.012277364
000160 26 14 e6 3e ee 92 bd 3c 4c 54 cd be b7 ac 60 3e
       0.44937247 0.02314135 -0.40103376 0.21940885
000170 81 c9 a6 be 3c 72 8a 3a ff 83 6d 3e d9 5d d3 3e
       -0.3257561 0.0010562609 0.23194884 0.41282538
000180 25 9d c9 3e 8f 76 2f be d8 83 18 be f0 5b e7 3e
       0.39377704 -0.1713507 -0.14894044 0.4518733
000190 27 32 29 be 3a 18 60 3d 69 ca 2a 3c 1c 6b 87 be
       -0.16523038 0.054710604 0.010424235 -0.26448905
0001a0 c5 4d c4 3b 03 04 b2 3e ed b3 f7 3c de a7 c2 3b
       0.005990716 0.34768686 0.030237162 0.0059404215
0001b0 82 29 8a 3d ac a5 b6 3d b4 b9 ec 3e 60 62 d2 3e
       0.06746198 0.08918318 0.4623543 0.4109068
0001c0 5e 01 1e be 89 45 92 be 96 61 e3 3e 7e 92 13 be
       -0.15430209 -0.28568676 0.4441039 -0.14411351
0001d0 ce 62 43 bd 6c a6 bc 3e be 74 d8 3e 5f 3c ac be
       -0.04770165 0.3684572 0.42276567 -0.3363981
0001e0 3b 95 c6 3e cd 95 e2 bc ad 3b f9 3d 39 2f ad bc
       0.3878573 -0.027659321 0.121695854 -0.021140682
0001f0 d1 0e 7e be 44 35 a4 bc 66 29 9b be e8 9c f1 3e
       -0.2481034 -0.02004493 -0.30305022 0.47190022
000200 b8 4b 63 3e 68 9e aa 3e b6 65 ae 3e 38 e9 9c 3e
       0.22196853 0.3332398 0.34061974 0.30646682
000210 05 37 8d 3e 88 3c 14 3e 55 30 11 be 99 6c 3d 3e
       0.2758104 0.14476216 -0.14178593 0.18498458
000220 62 23 27 3d df 18 b2 bd 96 f6 26 be 57 7c 3d 3e
       0.040805228 -0.0869615 -0.16305003 0.18504463
000230 e5 6e 6b bd cc 89 9d 3e b4 14 00 bf ab 63 8c be
       -0.057478804 0.30769193 -0.5003159 -0.2741979
000240 d9 ee 6d 3e a0 a3 3e 3e ed a9 b5 be f4 20 b2 be
       0.23235644 0.18617105 -0.35481206 -0.34790766
000250 3a be be 3e 67 ce 9b be b3 ad 46 3e 2f d1 62 3d
       0.37254506 -0.3043091 0.19402198 0.055375274
000260 81 12 1c 3e 15 11 a0 3e d7 0d 92 be 13 a2 ea bd
       0.15241434 0.31263033 -0.28526184 -0.114566945
000270 dd 7b 86 3e 11 93 33 be 51 18 fa 3e 3e 0e 4b be
       0.26266375 -0.1753657 0.48846677 -0.19829652
000280 db 06 bc bd 5a 17 78 be 3e 85 a0 3e 10 13 a3 be
       -0.09180995 -0.24227658 0.31351656 -0.3185048
000290 f9 07 87 3e 34 af 88 3e 4a 94 5e 3e f7 78 5b 3e
       0.2637327 0.2669617 0.21736255 0.21432863
0002a0 77 17 51 bc 2f f5 cc 3d 65 f3 f7 bc 6b b5 b0 3e
       -0.012761942 0.100077026 -0.030267427 0.3451341
0002b0 16 38 91 3e 10 48 59 be 6a bb 02 bf ba 59 a4 3b
       0.28363103 -0.21218896 -0.5106722 0.005015579
0002c0 0b 70 8a be 3e 33 75 be 66 70 c4 3c e8 04 e4 bd
       -0.27038607 -0.23945329 0.023979377 -0.11133748
0002d0 76 02 70 3e 13 93 94 3e f0 8a c4 3c 77 73 22 bd
       0.23438439 0.2901846 0.023992032 -0.039660897
0002e0 16 a6 3d be 41 d3 38 bd 58 74 ba 3c 24 95 ac 3e
       -0.18520388 -0.045123342 0.022760555 0.33707535
0002f0 05 97 c1 3d e6 02 a5 3e ca c4 75 be 6e 30 a2 3d
       0.09452633 0.32228774 -0.2400085 0.079193935
000300 f9 fa 24 3e 3f 7e 81 be f1 76 c2 3e 7a c6 38 be
       0.16111363 -0.2529163 0.3798137 -0.18044463
000310 67 e1 02 3d 13 ab 26 bd 71 b1 ad be 87 75 18 bf
       0.03195324 -0.040690493 -0.3392444 -0.5955433
000320 85 e1 5b 3e 23 a8 5f be 4d b9 ca 3d da 77 ae 3d
       0.21472748 -0.21841483 0.098986246 0.085189536
000330 43 16 5c bd d2 3e c3 3d 41 40 1c be e4 7f 80 bd
       -0.053732168 0.095334664 -0.15258886 -0.06274393
000340 09 e6 8a be 2b 1d 14 be ab 5d 00 3f 44 11 82 3e
       -0.27128628 -0.14464252 0.50142926 0.25403798
000350 b0 7b f5 bd b0 fa ba 3d 46 5c c0 3e c5 c9 9a be
       -0.11986482 0.09129846 0.375704 -0.30232063
000360 89 24 2f 3f 60 ed 3f bb d5 97 85 3b d7 25 88 bd
       0.68415123 -0.0029285774 0.0040769377 -0.066478424
000370 54 ce f2 be ca 68 d0 be 2f e7 19 be 2d b5 b1 3e
       -0.4742304 -0.40704948 -0.15029596 0.3470854
000380 19 ea b9 3e 60 2f a6 bd de df 68 3e cd bd 88 be
       0.36311415 -0.08114505 0.22741649 -0.26707307
000390 58 70 5b 3e 2a fd a9 be ec 51 ef 3b 20 90 08 bf
       0.21429574 -0.3320096 0.007303467 -0.5334492
0003a0 26 3f 86 3e 10 34 96 be c2 bc ba bd 58 0d 13 be
       0.26220053 -0.29336596 -0.09118034 -0.14360559
0003b0 a0 c7 d1 be f4 ad 47 3e 48 43 9b be 3c 21 c5 bd
       -0.40972614 0.19499952 -0.3032477 -0.096254796
0003c0 d4 ff d9 3e 52 2c d0 bd a4 8b e2 be 85 db 8f 3d
       0.42577994 -0.101647034 -0.44247162 0.07024292
0003d0 b9 03 6c be 49 60 6a 3e 11 7a 63 3e 0d 11 de 3d
       -0.23048295 0.22888292 0.22214533 0.10843096
0003e0 8c f0 de 3d 8a 2e d2 bd ca c0 a5 3e 28 3e d5 be
       0.108857244 -0.10262783 0.3237365 -0.41648984
0003f0 1b 4a 8a be 87 d9 c6 3e 44 e9 e8 3e 50 95 4b be
       -0.27009663 0.38837835 0.45490468 -0.19881177

encoder.6.bias f4 [16]
000000 ca 9a 19 3c 53 0a 89 ba 92 15 ca 3d 9a 7d 92 3c
       0.0093752835 -0.0010455347 0.098673955 0.017882157
000010 df 2a c2 3c 00 58 d5 3c a6 1b a1 3c b1 88 af 3c
       0.023702083 0.026042938 0.019666504 0.021427484
000020 6b 71 5c bd 64 88 c4 3c fe f3 62 3b aa b0 d0 3b
       -0.0538191 0.023990817 0.0034630294 0.0063687162
000030 c0 1f 9d 3d c0 74 82 3d 6a c7 03 3d 1a 7f 84 bd
       0.076720715 0.063699245 0.032172598 -0.06469555

encoder.9.weight f4 [16, 16]
000000 56 03 de 3e 80 45 73 3e e3 51 4b 3e b1 07 af 3d
       0.4336192 0.23756981 0.19855456 0.08546389
000010 1e 7f b8 be 9e 84 dc 3d dc a6 40 be df 44 a0 be
       -0.36034483 0.10767482 -0.18813652 -0.31302544
000020 12 00 8e be 83 66 15 3e 05 50 ae 3d 46 14 56 3d
       -0.2773443 0.14589886 0.08511356 0.052265428
000030 f7 f2 45 be 15 44 aa be 05 98 a8 bd 60 56 cd 3e
       -0.19330965 -0.33255067 -0.082321204 0.4010496
000040 32 1b ee bd 1a 0e dd bd 7e be 58 3e 10 6b 1f 3d
       -0.11626281 -0.10793705 0.21166417 0.038920462
000050 6e 13 d4 be 84 5c 8d be 68 4a 14 be f2 39 20 be
       -0.41421074 -0.27609646 -0.14481509 -0.15647104
000060 ad f9 8a 3d 46 1d 79 bc df db ae 3d b7 c9 2e be
       0.06785903 -0.015204733 0.08538031 -0.17069136
000070 d7 a3 c7 be b3 fd ce be 78 52 ca 3d 4c 2b c1 be
       -0.38992187 -0.40427932 0.09879011 -0.37728345
000080 ba 25 c7 be 69 70 86 be 12 de f5 be 10 00 b7 3e
       -0.3889597 -0.26257637 -0.4802099 0.35742235
000090 1e 88 5f bd 39 3e 4e bd fd c2 7b 3e a4 0d e8 3e
       -0.05457317 -0.05035231 0.24586101 0.45322907
0000a0 19 d7 9d bd 02 9d 5a 3e 73 68 40 be 94 71 ef 3e
       -0.07707042 0.21348956 -0.18789844 0.4676634
0000b0 35 d5 5a be 7d 3c 22 be 8a d5 3f 3e f8 2d c0 be
       -0.21370395 -0.15843387 0.18733802 -0.3753507
0000c0 09 36 a0 3e a6 c3 2b 3e 41 b5 71 be 8b 0f 79 3e
       0.31291226 0.16773853 -0.23604299 0.24322335
0000d0 42 89 39 3e ea 27 3a bd f1 4a a2 bd a0 65 20 be
       0.18118766 -0.04544822 -0.0792445 -0.15663767
0000e0 01 c2 99 3e 41 f0 b6 3c 9b e0 12 be 2f f9 f6 3d
       0.30030826 0.022331359 -0.14343493 0.12059247
0000f0 f8 55 05 bf 90 8b 8f 3e ff 6f cb 3d 01 4d 90 3d
       -0.520843 0.28036165 0.09933471 0.07045937
000100 17 51 3e be 6e 54 ac be 2a e0 f0 bd ee f6 02 3e
       -0.18585621 -0.33658165 -0.11761506 0.12789509
000110 b7 74 50 bd db 98 87 3e ae f1 47 3e d8 d2 3b 3e
       -0.050892558 0.26483807 0.19525787 0.1834215
000120 8a 35 34 be 6a 78 d5 bd 80 41 37 be ed 18 99 be
       -0.17598549 -0.10423358 -0.1789608 -0.2990183
000130 48 f5 00 3c f1 0f a2 be 45 ba 95 3d a0 95 37 be
       0.00787098 -0.31652787 0.07310919 -0.17928171
000140 b4 38 79 3e d4 c3 40 3e 57 27 ac be be c7 30 be
       0.24338037 0.18824703 -0.33623764 -0.17263696
000150 62 e3 37 3e 6c 14 7e 3e 8d 12 8d 3e 40 12 03 be
       0.17957833 0.24812478 0.27553216 -0.1279993
000160 de 0b a7 3e a0 62 6a bd a2 01 40 bd b8 af 01 3e
       0.3262624 -0.057222962 -0.046876557 0.12664688
000170 03 2c ec 3d 07 9e 11 3f 84 04 32 3e 85 71 4b 3e
       0.11531832 0.56881756 0.17384535 0.19867523
000180 37 59 8b 3d a5 7a e8 be 92 03 16 3e 61 2c 2c be
       0.06804126 -0.4540607 0.146498 -0.16813804
000190 7a 48 ac 3e 05 d4 c5 be 03 7b 4f 3d 9f cf b4 be
       0.33649045 -0.3863832 0.050654422 -0.35314652
0001a0 16 61 26 bd 7d 66 96 3e 86 f4 4a be f8 40 0b be
       -0.040619932 0.29375067 -0.19819841 -0.13599002
0001b0 19 a8 99 be 10 62 11 bf 6e 1b b8 be 4c 23 57 3e
       -0.3001106 -0.56790257 -0.35958427 0.21009558
0001c0 43 2d 78 3e 3c 70 f9 3d 5f fb f0 bc 73 0c 87 be
       0.24236016 0.1217961 -0.029416738 -0.26376686
0001d0 34 4e 4f 3e 45 bc 8b be e8 ff e8 be db 2b e9 be
       0.20244676 -0.27292076 -0.4550774 -0.45541272
0001e0 6f 94 b8 3e 50 11 c0 3e a2 bd c9 3e 23 f0 fc bd
       0.36050746 0.37513208 0.3940249 -0.1235049
0001f0 65 1f 92 3e 17 f5 ab bd ff 2b a0 be 0a eb 40 be
       0.28539577 -0.083963566 -0.31283566 -0.1883966
000200 c2 b4 08 bf 62 cb 57 be e3 08 d9 be e1 bd c1 3e
       -0.53400815 -0.21073678 -0.42389593 0.3784018
000210 d5 f6 9d be 1e cd 9c 3e 2a 1e 44 be 90 fe b3 3d
       -0.3085238 0.30625242 -0.19152132 0.08788788
000220 bc 8e a8 3e 82 3a 97 3e 62 1e 03 3e 03 10 d8 bc
       0.32921398 0.29536825 0.12804559 -0.026374822
000230 c3 33 e4 bd a3 2a 39 3f 5c 7e d2 3e dd 43 de bd
       -0.11142685 0.72330683 0.4111203 -0.10852788
000240 98 9e f5 3d 38 87 13 3f 76 57 60 3d 00 08 89 3e
       0.1199314 0.576282 0.05477091 0.26763916
000250 49 5c d2 3e 9d 7f dd be 75 20 13 be b3 f5 7b be
       0.41086033 -0.43261424 -0.1436785 -0.24605446
000260 f6 42 92 3e 07 40 6f be b8 8d cd 3e a8 07 fa 3e
       0.28566712 -0.23364268 0.40147185 0.48833966
000270 be 42 ed bd 1a b3 7c 3e 73 85 cb be 46 4d eb be
       -0.11584996 0.24677697 -0.3975025 -0.45957392
000280 7c 0a 85 3e db ea 21 3f b7 90 80 3e bb 02 e3 be
       0.2598456 0.63248986 0.2511041 -0.4433802
000290 79 d4 32 3e 6a 5d b0 be d8 6a 01 bf 24 a6 56 be
       0.17463864 -0.3444627 -0.50553656 -0.20961815
0002a0 9d 35 55 be 64 21 af 3d c8 32 ea 3e 20 65 56 3e
       -0.20821233 0.08551291 0.45741868 0.20937014
0002b0 5f 8e 96 3e 2a 9e 28 3e e3 a6 dd be 05 c6 ec be
       0.29405496 0.16466585 -0.43291387 -0.46244827
0002c0 bf b5 23 3d 04 42 55 bd 74 99 f3 3e 02 d5 a1 bd
       0.03996825 -0.05206491 0.47578013 -0.07901956
0002d0 6c a0 a9 be 2f 8c 92 3e ba 0a 04 bf 85 13 72 be
       -0.33130205 0.28622577 -0.5157887 -0.23640259
0002e0 b8 0e 80 3c 61 0e 74 3e 0f 47 cf bb 04 90 43 3e
       0.015632018 0.2383361 -0.0063256095 0.19097906
0002f0 74 cb b5 be fb 9b 94 be 00 a3 27 3e 75 f3 44 bd
       -0.35506785 -0.29025254 0.16370773 -0.04808374
000300 13 4a ce be ab d7 4c 3e 29 f6 ce be 50 dc 4c be
       -0.4029089 0.20004146 -0.4042218 -0.20005918
000310 d7 6c b3 3e 9d b2 fb bc a9 c9 10 bc c5 30 07 3f
       0.35043976 -0.030724818 -0.008837142 0.5280879
000320 ae 9b c5 be a7 ec 84 bd 11 0a c7 bd 09 de 15 3e
       -0.38595337 -0.0649045 -0.09718717 0.14635481
000330 b0 22 80 3e 99 9a 09 3f 9d 0e 19 be 18 84 97 3e
       0.25026464 0.5375152 -0.14946981 0.29592967
000340 5f 3b 70 bd a5 8e e4 bd 2b cf 78 3e 74 d5 84 be
       -0.05865037 -0.1116002 0.24297778 -0.25944102
000350 35 d3 80 3e 37 e5 0d 3e c4 99 66 3c 54 c2 00 bf
       0.25161138 0.1385697 0.0140747465 -0.5029652
000360 fb d5 fe bc 86 92 73 be 1c 00 51 bd 90 2d 47 be
       -0.031107893 -0.23786363 -0.051025495 -0.19450974
000370 cf 2e d1 be 92 8a 2f bf 6b 17 b7 be d5 64 54 3e
       -0.40856025 -0.68570817 -0.35760054 0.2074159
000380 a5 9f 45 be be 68 dd be 0b 39 22 3f ca 14 5f be
       -0.19299181 -0.43243974 0.6336829 -0.21785274
000390 ae d8 ca bd a2 ad 9e be 7b b4 88 be 3c 91 02 bd
       -0.099046096 -0.30991846 -0.26700196 -0.031876788
0003a0 cf 47 2b be b8 27 73 3d d4 cb a9 be e1 e8 79 3e
       -0.16726612 0.05936405 -0.3316332 0.24405243
0003b0 f2 fc 6c 3e c7 be 8e 3d 8b 72 16 be e7 f0 e8 3c
       0.23143366 0.06969982 -0.14692132 0.028435184
0003c0 a4 a9 c6 be e2 ee 6e bc 2d 93 a2 3d 7b b9 f7 bb
       -0.388013 -0.014583321 0.07938228 -0.007559953
0003d0 ec 4a 81 bc 59 d9 2d 3e 95 d1 bc be b9 70 d4 3e
       -0.015782796 0.16977443 -0.36878648 0.4149225
0003e0 e7 18 af be 37 4d 88 be 43 e3 0e be 13 ff 94 bc
       -0.34198686 -0.2662141 -0.13953881 -0.018188035
0003f0 31 3b c8 3e 3e 7c 89 3d 4c ac 5e 3c da 26 00 be
       0.3910766 0.067131504 0.013590883 -0.1251482

encoder.9.bias f4 [16]
000000 50 b4 e9 bb 4f 22 c8 3b 91 d9 65 3b d8 b5 14 bc
       -0.0071320906 0.0061076055 0.0035072307 -0.009076558
000010 bf d8 cb 3c b3 4f 10 bd e2 2f 6f bc e6 c6 36 bb
       0.024883626 -0.035232257 -0.0145988185 -0.0027889549
000020 a4 3c 59 bc f0 f6 44 3c 0e aa 5e 3d af 00 5d 3c
       -0.013259087 0.012021765 0.054361396 0.0134889325
000030 5c fb 88 ba c1 20 96 3b 4e c9 d2 3b 21 34 36 3d
       -0.0010450887 0.0045815413 0.006432689 0.044483308

pretraining_head.0.weight f4 [16, 16]
000000 84 d0 1e bc c5 ce 25 be 83 12 79 3e 69 e5 7c bb
       -0.009693269 -0.16192158 0.24323468 -0.0038588888
000010 1e 64 e9 3e 2a 8c c7 3d 32 d2 a6 bd 3c 28 8f bd
       0.45584196 0.09743531 -0.0814556 -0.06990096
000020 a8 90 12 3d 53 71 85 3e 62 82 68 be 00 1c 39 be
       0.035782486 0.26063022 -0.22705987 -0.18077087
000030 59 54 02 3f af b9 92 be 8c de f3 3d f5 a6 cd 3a
       0.50909954 -0.2865729 0.11907682 0.0015690016
000040 84 ca b7 3e fa ce 67 be 2f dd a2 3e 9f e0 04 3d
       0.35896695 -0.22637549 0.31809375 0.032440778
000050 f5 ec 8e 3e 70 09 1a be e8 09 22 3f ca bd 1b 3d
       0.2791516 -0.15042663 0.63296366 0.038022794
000060 f9 6e 82 3d 95 81 20 bf e2 82 17 bf d7 2d cb bd
       0.063688226 -0.62697726 -0.59184086 -0.09920853
000070 44 36 8f 3d 84 10 d9 3d c3 24 21 bd 0f 80 5a be
       0.06992772 0.10598853 -0.0393417 -0.21337913
000080 d0 4c 37 be 9c 83 85 3e d1 17 2b 3e bd 4b c6 3e
       -0.17900395 0.26076972 0.16708304 0.3872966
000090 4b 41 6b be fb d6 3d 3e 83 4d 8e bd f5 2b 42 be
       -0.22974126 0.1853904 -0.06948378 -0.18962081
0000a0 7b 2f 27 be 8c 98 1a be e5 aa b0 3e 85 90 a9 3e
       -0.16326706 -0.15097255 0.34505382 0.33118072
0000b0 5e c8 c6 be 7e 0f 29 3e b1 b4 0c be 42 c3 3d 3e
       -0.38824743 0.16509816 -0.13740803 0.18531516
0000c0 fd a7 76 3d 84 00 97 be fe 2a 21 3e 23 27 0f 3e
       0.0602188 -0.2949258 0.15739056 0.13979773
0000d0 6d 33 e4 3e 8e bd 2f 3e 12 6f f3 3d a0 22 8d be
       0.44570485 0.17162153 0.11886419 -0.2756548
0000e0 2f 3a 4c 3e 6f bf 94 3e 7f 79 40 bd 05 d4 f2 be
       0.1994407 0.29052302 -0.046990868 -0.47427383
0000f0 69 fd 99 3e 07 5b 84 be 4f 0c af 3e 84 2e 79 bc
       0.3007615 -0.25850698 0.34189078 -0.015208844
000100 37 e4 8e be 22 cf a8 bc 2f 96 4b bd ea 44 ef be
       -0.2790849 -0.020606581 -0.049703773 -0.46732265
000110 7c 98 13 bd 80 1f 34 be 33 93 2a 3d a4 0e 2e be
       -0.036034092 -0.17590141 0.041644286 -0.16997772
000120 cf 81 1f 3b 1e c7 56 3e df 19 93 be 5f b4 ea 3e
       0.0024338847 0.20974395 -0.28730676 0.45840737
000130 0e e5 89 3e f8 f9 b8 be 08 5c b4 be 43 6e 95 3d
       0.26932567 -0.3612821 -0.35226464 0.072964214
000140 06 75 d6 3d 17 cd ec 3e b1 d3 5d 3e 24 5e 8b 3e
       0.10471539 0.4625022 0.21662785 0.2722026
000150 48 e9 82 be 98 9f 22 be 4a 89 ce 3e c7 ad a2 be
       -0.25568604 -0.15881193 0.40339118 -0.31773207
000160 01 f8 50 3e 1e c7 b5 3e 6e be ed bd 27 7c 95 be
       0.20407106 0.35503477 -0.11608587 -0.29196283
000170 29 d5 d6 3e 24 a8 10 3b cb c7 b7 3e 10 f1 67 be
       0.41959503 0.0022072876 0.35894617 -0.22650552
000180 49 a4 42 be 2f 10 2b 3e 5d ec 41 3e db c6 c2 bd
       -0.19007982 0.16705392 0.18937822 -0.09510585
000190 97 d8 00 3e 67 07 01 3e b0 f5 43 be 02 4b be bc
       0.12582622 0.1260048 -0.19136691 -0.023229126
0001a0 ac 54 52 3e cb f4 ac be a2 69 b6 3b 57 79 d5 3d
       0.20540112 -0.33780512 0.0055667916 0.10423534
0001b0 89 0f 62 3e 5c 37 96 be a9 70 32 be b4 fc 00 3e
       0.22076239 -0.2933911 -0.17425789 0.12596399
0001c0 77 fc bc 3d 5e 73 03 3e a3 07 a2 3e 66 a0 62 3e
       0.09227841 0.12836978 0.3164645 0.221315
0001d0 f5 23 ec 3d 68 ee 84 3e af 34 14 3f 70 91 a8 bc
       0.11530296 0.2596314 0.5789289 -0.020577163
0001e0 f2 e3 9b be 6a 66 41 be 38 6f 26 bf 98 82 97 be
       -0.30447346 -0.18886724 -0.65013456 -0.29591823
0001f0 dd ab 18 3e 0a 76 7c 3d 07 02 bb 3e 81 6d 3e be
       0.1490931 0.06163601 0.36524984 -0.1859646
000200 74 6f 70 3e 13 d5 52 3e bd ed 0f 3d 5c 09 18 be
       0.23480016 0.20589094 0.035138834 -0.1484732
000210 5f 58 90 be b9 ad d8 3d 54 11 83 3e 2b 2b bf 3e
       -0.28192422 0.1058001 0.25599158 0.37337622
000220 28 73 8d bd 57 0a 8a 3e 3b 90 13 be e7 d6 cc 3e
       -0.0690673 0.26961014 -0.14410488 0.40007707
000230 dd 09 22 3e 44 41 91 be fa ef 9d bd f4 03 95 3c
       0.15824075 -0.28370106 -0.077117875 0.018190362
000240 16 68 73 be 63 47 5f 3d cc bf 13 3e 85 3c 70 3d
       -0.23770174 0.05451144 0.14428633 0.058651466
000250 2d 98 93 be 71 28 69 be f2 0a 71 be 1e c3 d8 3d
       -0.28827038 -0.22769333 -0.23539332 0.10584091
000260 67 d7 6f be 00 32 0d bd 17 b5 76 bd 11 3f 4d bc
       -0.23422013 -0.03447151 -0.060231294 -0.012527243
000270 8e a1 b5 3e 11 0a c6 3d 85 fb d8 3e 42 ef 1f be
       0.3547482 0.09669889 0.42379394 -0.15618613
000280 98 df 8d bd 9e 80 52 be 68 a4 dc 3d fb b3 ab 3d
       -0.06927413 -0.20556876 0.107735455 0.08383938
000290 6f a7 47 be 34 63 89 be 5d dc f6 bd 58 92 5e be
       -0.19497465 -0.26833498 -0.1205375 -0.21735513
0002a0 29 2b be 3e 16 72 9c bd 7d f3 5a 3c 9a 58 90 bd
       0.37142304 -0.07638948 0.013363716 -0.070481494
0002b0 f4 04 cf 3d 75 7e 45 be a9 46 99 3e c9 4a 78 be
       0.101083666 -0.19286521 0.29936722 -0.24247278
0002c0 e0 a0 90 bc d7 fa f9 bd bf 12 07 bf 09 52 3a 3e
       -0.017654836 -0.12206047 -0.5276298 0.18195356
0002d0 36 ee a0 3e 64 f5 f2 3c 5d 34 9e 3e 56 d0 db 3e
       0.3143174 0.029658027 0.30899325 0.42932385
0002e0 d5 a7 70 be 82 97 37 3e de 39 53 3e 7f 9d 04 3f
       -0.23501523 0.1792889 0.20627543 0.5180282
0002f0 1d 92 4f bd e6 f7 7c bd ed 3f 4c be aa 92 af be
       -0.050676454 -0.061759852 -0.19946261 -0.34291583
000300 c1 ea 2e 3d bc d0 29 3e 54 01 ad bd ae 5a 3b 3d
       0.042704348 0.16583532 -0.08447519 0.045740776
000310 04 e9 64 be e9 5e 98 3e 7d 66 db be 14 42 95 be
       -0.22354513 0.2975991 -0.4285163 -0.29151976
000320 e7 7b 35 3e 54 44 d1 be e9 55 05 bf ec 61 a3 bc
       0.17723046 -0.40872443 -0.52084213 -0.019944154
000330 b9 bb e8 3e aa 01 a1 be 44 d3 cf bb 3e 5c 8e 3e
       0.4545572 -0.31446582 -0.0063423235 0.2780475
000340 fa 05 79 3e 65 88 82 bb 49 8f 41 bd 08 00 90 3e
       0.24318686 -0.0039835447 -0.047255788 0.28125024
000350 be 89 db be a8 40 2e be 82 b8 31 bd 29 71 ed 3e
       -0.42878526 -0.17016852 -0.04338885 0.46375397
000360 9f 6a ab 3d 0f db b4 b9 57 a0 b5 3e 5d 84 a0 3e
       0.08369946 -0.00034495487 0.35473892 0.31350985
000370 7a af a5 bd 29 ce 84 bd 86 50 71 3e 28 91 e3 be
       -0.0809011 -0.064846344 0.23565874 -0.44446683
000380 1d ac f0 be eb 01 db be cf 02 0f 3f 59 4f 70 3d
       -0.47006312 -0.427749 0.5586366 0.05866942
000390 43 50 ce 3d 8f 26 b4 be 2e 23 d7 be a6 d0 97 bc
       0.100739025 -0.35185668 -0.42019027 -0.018532109
0003a0 e8 86 47 bc b4 61 2a be 54 37 cf 3c 82 6b bf be
       -0.01217816 -0.16638833 0.025294937 -0.3738671
0003b0 3b 3f 54 3e 3b 31 d0 3d f4 74 6f be 3e b3 13 3e
       0.20727246 0.1016564 -0.23384458 0.14423844
0003c0 89 09 97 bd 69 fa 3d 3b af b3 35 3e 5d e1 ab be
       -0.073748656 0.0028988367 0.17744325 -0.33570376
0003d0 18 0f a1 be 71 a6 2a 3d 3e d6 26 3f 6a 50 81 3e
       -0.31456828 0.041662637 0.6517066 0.25256664
0003e0 84 59 61 bc 31 2b ff be c5 40 bb be 03 c0 c7 be
       -0.013754252 -0.4983764 -0.36572853 -0.3901368
0003f0 97 a3 bc 3d 6a 26 34 3e ed 7d ad 3e 75 f7 7f be
       0.0921089 0.17592779 0.33885136 -0.24996741

pretraining_head.0.bias f4 [16]
000000 19 c9 14 3d ec be 3c ba df a8 81 3d e0 7e ce 3c
       0.036324594 -0.00072000804 0.06331038 0.025206983
000010 cc bc c3 3c 3e ee 00 be 57 16 4d 3c 26 31 97 3d
       0.023893736 -0.12590882 0.012517533 0.07382421
000020 51 80 6b 3c 19 70 32 bd ac 08 a9 3c 82 4c 56 bc
       0.014373855 -0.043563936 0.020634018 -0.013079764
000030 64 05 87 3d 7a 04 c6 3b ca 86 08 3d ca 81 13 3c
       0.06592825 0.006043014 0.03333167 0.009003112

pretraining_head.3.weight f4 [16, 16]
000000 fc 27 28 3e 3e 0e ff be 34 a8 d9 bc 81 ad 17 3e
       0.16421503 -0.49815553 -0.026569463 0.1481228
000010 6b 51 3d bb e7 1d 70 be af 83 20 bd d0 33 1c 3f
       -0.002888764 -0.23448907 -0.039188083 0.6101656
000020 69 d8 28 3e 7e 75 81 3e 57 dd 3b 3e ce 7f 80 bd
       0.16488804 0.25284952 0.18346153 -0.06274377
000030 31 e5 03 3d f7 29 38 be 82 19 92 bd a4 16 e9 3d
       0.032200996 -0.17984758 -0.071337715 0.113812715
000040 28 61 c2 bd 11 58 43 3f 7d 38 12 be c2 72 32 bc
       -0.09491187 0.76306254 -0.14279361 -0.010891618
000050 76 65 dd 3d 57 45 c3 3e a4 7b 52 3d 67 63 91 bd
       0.10810368 0.3813884 0.051387444 -0.070990376
000060 a0 9a a4 be 69 b4 99 3e 6e 8a 28 3d 0e 30 82 3d
       -0.3214922 0.30020455 0.04114764 0.06356822
000070 a6 f5 bd 3e 3c 19 a4 be 67 bb ce 3e bc 7f 54 be
       0.37101477 -0.32050502 0.40377352 -0.20751852
000080 88 49 fa be a4 80 5f bf 91 bc 8d 3e 03 20 28 3d
       -0.48884225 -0.87305665 0.27682927 0.041046154
000090 d0 98 b6 be 68 33 ef bb 64 3f bf be 12 02 23 3e
       -0.35663462 -0.0072998293 -0.3735305 0.15918759
0000a0 5d 01 76 3e b5 f0 c4 bd e9 c3 f2 3d 6e c3 40 3e
       0.24023958 -0.09616224 0.11853773 0.1882455
0000b0 48 29 e6 be 28 52 db 3e aa 8c fa bd f0 2a a6 be
       -0.4495337 0.42836118 -0.12233861 -0.32454634
0000c0 ad e5 51 3d 89 09 2f be 43 df 18 3d 7b a4 23 bc
       0.051244427 -0.17093481 0.037322294 -0.009987946
0000d0 29 e5 94 bd fb d6 92 be 7d 35 8f bd c7 5d ab 3e
       -0.07270271 -0.28679642 -0.06992624 0.33469984
0000e0 82 c7 ac bd cf b1 e8 bd 7b 07 b4 3d 18 26 00 3e
       -0.084364906 -0.11362039 0.08790489 0.12514532
0000f0 61 50 15 bd 18 af 1e bc 23 0a 91 bd c4 c3 ad be
       -0.03645361 -0.0096853 -0.070820116 -0.3393842
000100 6d e3 6b 3e 45 8a 96 be cb 0e f0 3d aa bb 6c be
       0.23035975 -0.29402366 0.117215715 -0.23118463
000110 97 2c ac 3c 1d 31 ba 3e 6e b3 c9 bd 6d 69 ad be
       0.021017356 0.36365595 -0.098486766 -0.33869496
000120 a5 38 0b 3e d5 79 91 3e f2 5e 1a be 78 3f 06 be
       0.13595827 0.28413263 -0.15075281 -0.13110149
000130 5c e3 9d be 3f 71 fc 3e 1b 22 d0 be 9b 15 ad 3d
       -0.30837524 0.4930515 -0.4065102 0.084513865
000140 29 38 e5 be dc 3f 9b be 8d 25 9f 3e 04 9f 75 bc
       -0.4476941 -0.30322158 0.31083336 -0.014991526
000150 b7 7b 67 bd c8 8d c3 bc db 53 df bd e1 9b f9 bd
       -0.056514468 -0.023871318 -0.10904666 -0.12187935
000160 62 d0 52 3d a4 13 5a bd 67 a3 8a be f3 8f f2 3e
       0.05146826 -0.053241387 -0.2707779 0.4737545
000170 a6 67 06 bf c7 9e c1 3e 5a f0 c0 be ba 65 58 bf
       -0.52501905 0.3781645 -0.37683374 -0.8453022
000180 88 03 06 3e 6e 01 0d 3f e3 b4 0b 3b 1d 33 c8 be
       0.13087285 0.55080307 0.0021317534 -0.39101496
000190 ce ae 0b be 7a ef 36 3e f8 a3 33 bd 3e 2f b0 be
       -0.13640901 0.1786479 -0.043857545 -0.34411043
0001a0 b2 a3 49 bd 5c 6b 66 be ec 30 cc 3c a7 c6 9d 3d
       -0.049228378 -0.22501892 0.024925672 0.077039056
0001b0 f6 e4 db 3d b9 5f 89 bd c6 3f 51 3e 84 fe 92 be
       0.1073703 -0.06707711 0.20434484 -0.28709805
0001c0 49 aa 02 be 9c c1 bd 3e ce bb c6 3d 35 ea 7e be
       -0.12760271 0.37061775 0.0970379 -0.2489403
0001d0 f1 d2 5b bd d1 5f 5f 3e f8 cc fa bd 50 01 1d bf
       -0.053667966 0.21813895 -0.12246126 -0.6133013
0001e0 56 8c dc bd cf 3e 01 be a2 39 76 bd 1c e9 5b 3e
       -0.107689545 -0.12621616 -0.060113557 0.21475643
0001f0 b6 df 23 bd 14 93 cf 3d 21 1a cf 3c 79 99 d3 bd
       -0.04000827 0.10135475 0.025281014 -0.10332007
000200 58 fc 55 be 5a 89 fb 3d ae df 72 be 05 4f 06 3f
       -0.20897043 0.12282057 -0.2371814 0.52464324
000210 a6 bc 9c 3e 31 57 4f bd b6 55 99 3e 6c 30 98 3e
       0.30612677 -0.05062026 0.29948205 0.29724443
000220 d6 3d 2a 3d 23 f2 35 be 87 98 12 bd 98 39 ac be
       0.041562878 -0.17768149 -0.035789993 -0.3363769
000230 d2 e5 87 3e ef 25 93 be f8 97 73 3e c2 b8 eb 3e
       0.26542526 -0.2873988 0.2378844 0.46039397
000240 e9 e7 f4 be 52 f6 04 bf ad f4 65 3e 33 24 67 3d
       -0.47833183 -0.51938355 0.22456618 0.056431007
000250 96 a3 22 be 40 19 e7 3d 91 d4 45 be be a0 94 be
       -0.15882716 0.11284113 -0.19319369 -0.29028887
000260 26 4b 5e 3e 59 1d 80 3e 5b ad 96 bd 05 42 08 3e
       0.21708354 0.2502239 -0.07357284 0.13306434
000270 55 82 db be ed df dc 3e 53 56 37 be c8 1c 6f bd
       -0.42872873 0.43139592 -0.17904024 -0.058377057
000280 3b 3d 66 3d 4f 24 9e bd 1c e6 17 be 08 38 2f 3e
       0.056210738 -0.07721769 -0.14833874 0.17111218
000290 75 8e fd 3c c4 b8 89 3e 03 e8 19 3d 6a 66 c7 3e
       0.030951718 0.26898777 0.03757478 0.38945323
0002a0 d9 86 c3 bb c5 99 3a 3d 8a 0c 1f 3e a8 12 6a be
       -0.005967003 0.045556802 0.15532127 -0.2285868
0002b0 b8 c0 71 3e f5 2a 54 be 23 02 78 3e 85 c2 97 3e
       0.23608673 -0.20719512 0.24219565 0.29640594
0002c0 41 16 86 be b6 5a 01 be 0d 78 8b 3d bb 56 2d 3c
       -0.26188853 -0.1263226 0.06810007 0.01057976
0002d0 72 09 10 be f8 bd 18 3e fb c0 62 be 97 9d a9 3e
       -0.14066103 0.14916217 -0.22143929 0.33128044
0002e0 f8 45 e1 bd f6 8c 75 3e 9e fd 41 3e ff 5b 5a 3e
       -0.109996736 0.23979554 0.18944404 0.21324156
0002f0 fb 76 8e 3c e7 de 57 bd c0 84 2d 3e 71 f8 eb be
       0.017390719 -0.05270281 0.16945171 -0.46087983
000300 44 f3 8b 3c 7a 82 c1 3e 53 d6 3f 3e 21 96 ef be
       0.017083772 0.37794858 0.18734102 -0.46794227
000310 c3 2b cc bc f6 97 82 3e 22 8d 0a bd 35 96 51 bf
       -0.024923211 0.25506562 -0.033826 -0.8186982
000320 95 c4 8c bd 61 1d 22 be 65 06 ad be 52 4b 88 3e
       -0.068734325 -0.1583152 -0.3379394 0.26619965
000330 4c 12 aa be ba 9b de 3e d9 0f 99 be e4 02 02 bf
       -0.33217084 0.43478185 -0.29894903 -0.5078566
000340 77 31 20 3e 04 e8 76 3e fe 2a df bd de b1 18 be
       0.1564387 0.24111944 -0.10896872 -0.14911601
000350 f2 89 cf bd 10 1d 7b 3e d0 87 a8 bd ae 51 41 3e
       -0.10133733 0.24522805 -0.08229029 0.18878815
000360 3a a5 02 be b0 a3 cd 3e 43 e8 5a 3e cc 2d 6c bd
       -0.12758341 0.40163946 0.21377663 -0.057660863
000370 11 7d 94 3e 42 0f 6f be 55 d5 ae 3e 81 e7 33 bc
       0.29001668 -0.23345664 0.34147134 -0.010980488
000380 5d 95 84 be 9f 02 e5 be 6b 87 d6 3e a5 9d 88 be
       -0.25895205 -0.44728562 0.4190019 -0.26682773
000390 6a 78 8a be 34 b9 0f 3d 0e 7a 88 be f7 b1 1a bf
       -0.27044994 0.035088733 -0.2665562 -0.604278
0003a0 bb 46 d0 3e 7c 73 e1 be c7 32 70 be 7a b0 e6 3e
       0.40678963 -0.4403342 -0.2345687 0.45056516
0003b0 91 4d 31 bf 7f 63 f9 3e 1e 59 f8 be 6c d8 f9 be
       -0.6925898 0.48708722 -0.4850549 -0.4879793
0003c0 7d 16 06 3f 96 9c 36 3f 7d ea 95 be 01 6a 8a 3d
       0.52378064 0.7133268 -0.29280463 0.067585
0003d0 d0 73 d0 3e 16 13 ca bd 40 0a e2 3e 53 f0 b2 bd
       0.40713358 -0.098669216 0.44148445 -0.087372445
0003e0 e1 4e 6f be 31 14 1f bd 66 05 56 be 16 45 a3 be
       -0.23369934 -0.038837615 -0.20900497 -0.31888646
0003f0 70 7f b7 3e 52 87 83 be 72 97 c8 bc c4 26 b8 3e
       0.35839415 -0.2568918 -0.024486277 0.35967076

pretraining_head.3.bias f4 [16]
000000 58 7f 80 3b 83 93 6c 3c 03 25 d5 bc 0d 40 2c bb
       0.0039214306 0.014439466 -0.026018625 -0.0026283294
000010 b0 87 6b bc c0 14 e6 bc ef b9 c2 39 55 b1 0c bc
       -0.014375612 -0.028086066 0.00037141095 -0.008587201
000020 d9 bb ae 3c 87 4c b4 bc ee c3 5f 3c 68 cd 98 bb
       0.021329807 -0.022009147 0.013657553 -0.004663158
000030 6e 78 9e bc f4 88 31 3c f4 d5 1a bd 36 0b d1 3c
       -0.019344535 0.010835875 -0.037801698 0.025518041
