trained_models/cylinder-bands_rand_corr.pt (torch, 19311 bytes, 12 tensors)

encoder.0.weight f4 [16, 146]
00000000: ac66 693e a355 5c3e 5044 cebd d2c9 09be
00000010: 1f18 013e c0c2 1f3e 06c5 993d 5e15 25bc
00000020: 8ede 11be ee17 60be 1b08 97bc a66e b5bd
00000030: 77a5 a1bd b6fa f0bb 715c 933d 290e 843d
00000040: 13ab 0b3e 1458 523e 25a8 e1bd 3f75 1b3e
00000050: ed0b 283e 8a3e 25ba d8d2 07be b148 f63d
00000060: 40ed 093e 5ec4 093d e134 613e 412b fd3d
00000070: 9a44 90bd ed88 56be 3617 99bd 1ff7 b83d
00000080: ea6a 88bd 4c9d eb3d 1000 6fbe 6dc1 4cbe
00000090: b22d 10be 0682 17be 9ade 513c 7977 123e
000000a0: 7940 f63c 0372 863e 612a ccbd fcc9 373e
000000b0: 94b6 44be 40f2 363e 5684 4bbe 235c 32be
000000c0: 8762 e2bd 447d f8bc df8d 843d 1be9 773e
000000d0: bca6 c3bd 1468 193e e49e 203d b9ed f5bc
000000e0: 3904 ad3e 833f 43be fcfd 303d d9a3 373e
000000f0: 826e ecbd 4a7c 213e 4e8b 0abf b736 38be
00000100: 10ce fabd 0aa2 d8bd f956 863e bd57 32bb
00000110: d435 e83d 03e1 b93d cb54 49bc 3669 33bc
00000120: 6ad9 a13d cb2a b13d b99b da3c 051a b6bd
00000130: 7214 423c df94 433d 0316 22be 05bb 8abd
00000140: 26bd 653e 56b2 a43d 253e 4d3d d28d a33c
00000150: 85c6 263d 99e5 503e cfd6 86be bdb8 903d
00000160: ed9d 7a3d f14f 363e 5e3d 75be 90bf d83c
00000170: 4163 323d 46af 57bd dbaf 6a3e 5eb5 f43d
00000180: ed30 84bd 9938 67be 2618 133e ba4b 9fbd
00000190: 3bea ecbd 4b5e 39be 6d20 213e 4007 3fbe
000001a0: ec31 d4bc bd47 8b3a e0e3 1d3e 1d1b 29be
000001b0: b1c0 3c3e d47f 7bbe 223a 96bd 3be3 10be
000001c0: 5e72 e2bd fe02 283d b3d7 4f3d f423 bd3d
000001d0: 8eaf 5e3d 1d90 cb38 d30c f53d 5f4d 713e
000001e0: 3db4 71be a542 8f3e d833 4b3e e0e7 f6bb
000001f0: c15b 0a3c b284 2e3e eec2 333e e512 91be
00000200: ae38 f53d 5920 83bc 9046 363e 3cdf 833e
00000210: d660 74bd 5dfa 88be 6821 90be d403 0a3e
00000220: a867 8d3e 37b6 e73d ea19 f53d 3402 64be
00000230: 57be 53bd 3422 3f3e d12a 323e 2896 9e3d
00000240: 00d2 d93d 621c 823e 7c77 bcbd 9a8f 793c
00000250: 3f25 21be 1f8b ccbd c673 36be dd19 423d
00000260: af12 c6bd ddca 16bd 6acf 30be 9908 47be
00000270: 2844 573d a6a2 0f3e 1c2d d23c eaf2 34be
00000280: 3fbd adbd 5d10 7e3d 68da 923e a41d bb3c
00000290: 0bad 203d 1b2e 22bd b6c1 36bd eab5 27be
000002a0: 9fce 6b3e e454 023d 6f18 7e3d 33ef 863e
000002b0: ff6d b0bd 9ef1 513d c5cd bfbc 8174 63be
000002c0: fe9d 54be 17d6 7d3d aac8 343e 7632 f23b
000002d0: fa5d c5bd 75f8 18be 3ba8 683d b985 513c
000002e0: 6788 ca3c c980 02be 628d 583a 7eff 13be
000002f0: bdc7 1f3c 1059 dbbd da5a 8d3a b8cd 46be
00000300: b387 3b3c 9818 e13d 6bf8 1d3e cebd ed3d
00000310: b21d 473e a060 113e 6672 04be b925 00bd
00000320: 5370 463e acf2 a1bd cc0c 11be b398 823e
00000330: 0676 5b3e 5987 1abe 02cd 8dbe 01b8 1dbd
00000340: bfa9 473c 476f 4a3d 2cda 89be b5ca d53c
00000350: 2adc d43d 4e89 853e 15b5 4f3d 5a7c 1abc
00000360: 63b6 f73c d6b4 58bd d77a 4c3d 9a6a ad3d
00000370: 405a 593d 495e 573d a7b9 b53d 1380 c93d
00000380: 49ac 053e cfe6 9b3e 9366 193e c680 b8bd
00000390: c460 4ebe d4d8 8c3e be08 853e 13b8 27be
000003a0: bcec 84be a60c fdbd bc6d 2d3d edc9 aa3d
000003b0: f0ea 833d 4b3b b33e 6991 18bd 1064 10bd
000003c0: 7584 3abe 41ca a73c 3493 c7bb 3139 173e
000003d0: ca45 523e 5b8a 9ebd 55e0 49be 4139 fa3c
000003e0: 25f5 013e 1cfd 133e 7e14 fcbd e86e 87be
000003f0: 7afd 0a3e 8d17 d73d 8501 28be 3bac 0bbe
0.22793072 0.21517043 -0.10071623 -0.13455895 0.12606858 0.15601635 0.07508282 -0.010075895
-0.14245054 -0.21884128 -0.018436482 -0.08858995 -0.07892888 -0.007354106 0.07195366 0.06448013
0.13639478 0.20541412 -0.11018399 0.15181445 0.164108 -0.00063035695 -0.13264024 0.120255835
0.1346941 0.033634536 0.21992828 0.12361766 -0.07044335 -0.2095067 -0.0747513 0.090315096
-0.06661017 0.115046114 -0.23339868 -0.19995661 -0.14079931 -0.14795694 0.01280942 0.14303388
0.03006004 0.2625886 -0.09969021 0.17948145 -0.19210273 0.17865849 -0.19874701 -0.1741796
-0.11053949 -0.030333169 0.06472372 0.24210016 -0.095532864 0.14981109 0.03921403 -0.030020582
0.33792284 -0.19067197 0.04321097 0.17933597 -0.11544515 0.15770069 -0.5411881 -0.17989622
-0.122463346 -0.105777815 0.2623823 -0.002721294 0.11338392 0.09076121 -0.012288283 -0.010950377
0.079027966 0.0865074 0.026685582 -0.088916816 0.011845695 0.047749396 -0.1582871 -0.067739524
0.22435436 0.080418274 0.050108094 0.019965086 0.040716667 0.20400085 -0.2633576 0.07066486
0.061185766 0.17803933 -0.23949191 0.026458532 0.043551687 -0.05265739 0.22918646 0.119486555
-0.06454644 -0.22580184 0.1436468 -0.077781156 -0.115681134 -0.18102376 0.15735026 -0.1865511
-0.02590271 0.0010626238 0.15418959 -0.16514249 0.18432881 -0.24560481 -0.07335307 -0.14149182
-0.1105697 0.04101848 0.050742816 0.09235373 0.05436664 9.7066375e-05 0.11965337 0.23564671
-0.23603912 0.27980533 0.19843996 -0.007534966 0.008444727 0.17042807 0.17554829 -0.28334728
0.119737014 -0.016006636 0.17800355 0.25756252 -0.059662662 -0.26753512 -0.28150487 0.13478023
0.27618146 0.113140516 0.11967833 -0.22266465 -0.051695194 0.18665391 0.17399146 0.07743484
0.106357574 0.2541228 -0.09202477 0.015231991 -0.15736865 -0.09987473 -0.17817602 0.047387946
-0.09671532 -0.03681456 -0.17266622 -0.19436873 0.052555233 0.14026889 0.025656275 -0.1767079
-0.084833615 0.062027324 0.28682256 0.022841282 0.039227527 -0.03959475 -0.04461833 -0.16377988
0.23028038 0.03181924 0.06203502 0.2635437 -0.0861473 0.051255815 -0.023413548 -0.22212411
-0.20763394 0.06197175 0.17654672 0.0073912693 -0.09637065 -0.14938529 0.056801062 0.01278823
0.024723245 -0.1274444 0.0008260814 -0.14452931 0.009752211 -0.10710347 0.0010784522 -0.19414413
0.011445927 0.10991019 0.15426795 0.11608468 0.19444922 0.14197016 -0.12934265 -0.031285975
0.19378786 -0.07907614 -0.14165038 0.25507125 0.21431741 -0.15090694 -0.2769547 -0.038505558
0.012186467 0.04942253 -0.26924264 0.026097635 0.103935555 0.26081318 0.050709803 -0.009429062
0.030238336 -0.052906834 0.049921837 0.08467598 0.053064585 0.05258015 0.08873301 0.09838881
0.13054003 0.3044953 0.14980535 -0.090089366 -0.201541 0.27509177 0.25983232 -0.16378812
-0.25961864 -0.12355928 0.04234098 0.083392955 0.06441295 0.35006174 -0.03724805 -0.035251677
-0.18214591 0.020482184 -0.006090546 0.1476791 0.20534435 -0.07741233 -0.19714482 0.030544879
0.12691171 0.14452022 -0.12308596 -0.26451802 0.13573256 0.10502539 -0.1640683 -0.1363992

encoder.0.bias f4 [16]
00000000: 0841 423a 7542 ca3d 011c a23d ccc5 f9bd
00000010: 8fae 1dbc 3f0f f03d c93e f13d bc88 12be
00000020: cebf 57bb 6dc0 ecbc fe47 373d 7e8f dbbd
00000030: 0534 83bd 4bfb 09be b8e0 af3d 9f50 eb3d
0.0007410203 0.09875957 0.079154976 -0.1219593 -0.009624138 0.11721658 0.117795534 -0.14309973
-0.003292072 -0.02890035 0.04474639 -0.10720728 -0.06406406 -0.13474767 0.085877836 0.11489987

encoder.3.weight f4 [16, 16]
00000000: df81 e2be 3aec b7be dd43 68be 15eb 6c3e
00000010: da79 19be 9ba9 17be 2664 4cbd 6570 203e
00000020: 4541 4ebe ad9f 70be 7f24 3b3e 8a4e 05bf
00000030: b57f ec3e 3f0d 95be 3777 16bc 4c55 bfbd
00000040: ee8b 06be df1d 80be 8e83 6ebe cc3a 95bc
00000050: 8ffa 8a3d 73f8 b73d 9730 533d aaa3 6ebe
00000060: 45e5 01bf 5a20 9e3c 28ff 31bf 9959 b53d
00000070: 4e32 863e 4120 1fbe cf3a 05be 111b 33be
00000080: 6e7d 203e 81fb 15bf bcee 79bd e3c1 383e
00000090: b5f3 803e 17f7 613e 72ba e73d 985f aabe
000000a0: e24e 89bd ce86 803d a48b d0bd 8b2a ee3d
000000b0: cd03 6f3e 82cb b03e 96d1 11be f1cf 193c
000000c0: 9585 ccbe 7d00 55be e1d2 36be 70fa aebe
000000d0: aafc 70be 7133 dbbd 29de 54bd 8522 04be
000000e0: 63cb 68be 4222 453e ce51 83be 9441 b6be
000000f0: 2fb5 5dbe 7dc3 3c3e 8bef d3be 208a 45be
00000100: ae42 93be 0145 903e 4c16 90be 7563 e63e
00000110: b5ed 033c 7fcc 84be 6591 64bb ca7c ecbd
00000120: d059 26be dde5 e0be 4d02 943e 20a0 823e
00000130: d7fc 45be 500f c33e 2e24 c4be d0ff a53e
00000140: de2b 53be d80f bdbc 858d 0dbf 522e f4bc
00000150: 2874 8abd 93fe 9dbe ec23 d83e e28a b8bd
00000160: 4bd1 79be e891 cabe 6ba5 26be 56ef 1abf
00000170: 960a 943d 5d37 993e 7b3a 973e b66e 6f3b
00000180: bfed 463e ea1b e03e 77a2 a73e 1577 48be
00000190: f403 e13d 8b5c a73e 3448 013f d258 be3e
000001a0: 689a 8b3e c663 01be 31a7 3fbe 620c 883e
000001b0: 800a ac3e 61c0 b33c 6b5a 6d3d e749 0b3e
000001c0: 6608 e6be d522 b5be 04c4 d1bd 1bf8 783e
000001d0: dfcd eebe 3e81 75bd 0216 c93c 37e7 2abe
000001e0: 166d 08bd de0f cabc a316 2a3c 74d1 8e3e
000001f0: 9c0e 213e ef0b 843e 6457 f93d 51fd e7be
00000200: 74e0 d9bc 2553 9d3d 1c1e a53c f1fe fbbe
00000210: 3304 25be 3394 a6be 0114 2dbe 3071 74be
00000220: 09df 35bc e4b8 4b3b 49be 07bf 7936 c83d
00000230: 7d35 c23e 7956 bd3e 3746 6cbe a691 77be
00000240: f393 91be c18c eabe a7bc 2a3e 2ab9 c7be
00000250: 0faf 10be 39e1 e4be 6c0e 173c 354d c23e
00000260: 3793 16bd e35e 79bd 7288 8a3e 0ac0 623e
00000270: ab06 6b3d 991c 083e ec4b 0dbe 98e2 8dbe
00000280: 3441 a93c d6f8 c7bd f1e6 42be b10a be3d
00000290: 388b d6bd db68 d0be 08bc 943e eaf2 b03e
000002a0: 87b3 873e 31fa ddbe b64b 103e 92f2 713d
000002b0: c92d ec3e f0d4 3c3e 9ac2 56be 0940 19be
000002c0: fc67 3e3e 1fb0 fa3d efc5 933e a730 12bc
000002d0: 27eb 15be 4abf 1c3e 7f70 d83e 4fb7 48be
000002e0: f356 3f3e 2e91 56be a422 8b3d 1936 d83e
000002f0: 3ad0 523e 7b15 17bd fd38 983e d97b 4d3e
00000300: 6b80 a23e aa42 81be 96c3 283e f2d5 db3d
00000310: 2d2e d0be f0fc f3be 73ff 03be 8363 54be
00000320: 5cbb 83be 51da f7bd 64e6 c1be cea7 9fbe
00000330: 32e2 053d 2794 a83e 3d66 44be e64d 80be
00000340: 9fca 943d 0459 983c 1d02 5bbe ca1e 8c3e
00000350: 0863 b83e 7b0b d1be 7a23 22be a440 b7be
00000360: d577 aa3d 0efa 8bbe 0531 f6bc 3920 c33d
00000370: f655 a9be f5fe 753e 464f 873e 6f2f 3d3e
00000380: c5d6 b63e 816a 8ebd d9b1 b8be 8866 df3c
00000390: c082 90bd 343d 953e e057 003e c10a 15be
000003a0: 82b2 4c3d 0810 093e bd2b 5b3e b309 333e
000003b0: acd4 5c3e 4fd6 cabd 9df8 5bbe ae9f 093e
000003c0: 8112 fdba 83ea 51be 0465 d8be 1cfa 77be
000003d0: d823 8d3e 9b12 1d3e 481b be3e 746b 59be
000003e0: d887 a1be e328 dcbe 5e45 963d 8a3a d33a
000003f0: 18a0 283e 78e5 dcbe 89fc 81be 45d7 113e
-0.4423971 -0.35922414 -0.22682138 0.23136552 -0.14987889 -0.14810793 -0.049900196 0.15667875
-0.20142086 -0.23498411 0.18275641 -0.52072966 0.46191183 -0.29111668 -0.0091836965 -0.09342441
-0.13139316 -0.2502279 -0.23292372 -0.018216513 0.067860715 0.08982935 0.05156001 -0.2330462
-0.5074046 0.019302536 -0.6952996 0.0885498 0.26210254 -0.15539648 -0.13010715 -0.17490794
0.15672848 -0.5858689 -0.06101869 0.18042712 0.25185934 0.22066914 0.113148585 -0.33276057
-0.06704499 0.06275712 -0.10182884 0.11629208 0.23341294 0.34530264 -0.14240107 0.009387956
-0.39945665 -0.20800968 -0.17853881 -0.34175444 -0.23533884 -0.10703171 -0.05196968 -0.12903793
-0.22733836 0.1925135 -0.2564835 -0.35596907 -0.21651147 0.18433948 -0.41393694 -0.19290972
-0.2876181 0.28177646 -0.2814201 0.44997755 0.008052279 -0.25937268 -0.00348767 -0.11547239
-0.16245198 -0.43925372 0.28908005 0.2551279 -0.19334732 0.3809762 -0.38308853 0.32421732
-0.20622203 -0.023078844 -0.55294067 -0.029807243 -0.06760436 -0.30858287 0.42214906 -0.09010865
-0.24396245 -0.39564443 -0.1627404 -0.6052145 0.072285816 0.2992505 0.29536805 0.0036534495
0.1942663 0.43771297 0.32741138 -0.19576676 0.10987082 0.32687792 0.505008 0.3717714
0.2726624 -0.12635717 -0.18716122 0.26571947 0.3360176 0.02194232 0.057947557 0.1360241
-0.44928282 -0.35378137 -0.10242465 0.24313395 -0.46641442 -0.059937708 0.024546627 -0.16689764
-0.033307157 -0.02466577 0.010381374 0.27894175 0.1572823 0.25790355 0.121748716 -0.45310453
-0.026596285 0.07681874 0.020155959 -0.49217942 -0.16114883 -0.32534942 -0.16902162 -0.23871303
-0.011100539 0.0031085545 -0.5302473 0.09776015 0.37931433 0.36980036 -0.2307366 -0.24176654
-0.2843319 -0.45810512 0.16673528 -0.39008456 -0.1412928 -0.4470308 0.009219747 0.3794953
-0.03676149 -0.060881507 0.27057225 0.2214357 0.057379406 0.13292159 -0.13798493 -0.2771194
0.020660974 -0.097642586 -0.1903341 0.09279383 -0.104757726 -0.40704998 0.29049706 0.3456033
0.26504156 -0.43354943 0.14091381 0.059069224 0.4612868 0.18440604 -0.20972672 -0.14965834
0.18594354 0.12240624 0.2886195 -0.008922732 -0.14640485 0.15307346 0.42273328 -0.19601177
0.18685512 -0.20953819 0.067937165 0.42228773 0.20587245 -0.03688572 0.2973098 0.20066775
0.317386 -0.25246173 0.1648086 0.10734166 -0.4066023 -0.47653913 -0.12890415 -0.20741086
-0.2572888 -0.121021874 -0.37871087 -0.31182712 0.03268642 0.3292553 -0.19179626 -0.25059432
0.072652094 0.018597133 -0.21387525 0.2736724 0.36013055 -0.4082907 -0.15833846 -0.35791504
0.083236374 -0.27339214 -0.030052671 0.0952763 -0.33073395 0.2402304 0.26427668 0.18475126
0.3571073 -0.06953908 -0.36073187 0.02727057 -0.070561886 0.29148257 0.12533522 -0.14554884
0.049974926 0.13385022 0.21403404 0.17484169 0.21565503 -0.09904157 -0.21481557 0.13439819
-0.0019307883 -0.20499615 -0.4226457 -0.24216503 0.2756641 0.15339129 0.3713019 -0.21232396
-0.31548953 -0.42999944 0.073374495 0.0016115468 0.16467321 -0.4314382 -0.25387982 0.14242275

encoder.3.bias f4 [16]
00000000: 5240 51bc 5207 cbbd a2d3 373d 31e2 693b
00000010: 8838 54bd b4cc 74bc fecd 003e 76f1 46be
00000020: 76d6 c6bd 979b cfbd d3c6 03be 7980 443e
00000030: c983 10be 85e4 c23c 74aa 19bd 15f6 7f3d
-0.012771683 -0.099135056 0.044879563 0.00356878 -0.051811725 -0.014941383 0.1257858 -0.19428048
-0.09708874 -0.10137098 -0.12868814 0.19189633 -0.14112772 0.023790607 -0.037516072 0.06249054

encoder.6.weight f4 [16, 16]
00000000: 4981 ddbe ae6e fe3e 21dc 5bbe d998 8d3d
00000010: e54e 4fbe 4798 6e3e ebab 5f3e e78f dc3b
00000020: 5a7d c63d 9c65 51be 962a 373e 7bc7 d93d
00000030: 65c8 0cbe 54e0 a73d 4726 a03e cc05 88be
00000040: 1019 58be 1292 d3be 28f7 92be f12f bc3d
00000050: 621f b73d 4bff 87be 20e5 6ebd 6976 663b
00000060: 582e 623e 30c8 ec3d 5416 d73b 82d0 fb3e
00000070: ff67 ba3e 4a2c 563c beb3 cfbe 0541 083e
00000080: 1d3f 3f3e a8e9 46be 6b0e f73e d638 bbbd
00000090: bd46 9abe abdf 433d 0e64 923d 9111 bd3e
000000a0: be1f f23d 3886 4ebe f154 fd3e a9fa 3e3e
000000b0: fd8e 553e 0f51 56be 59c3 fb3e b7b5 b73d
000000c0: 366b 7bbe b6d1 cbbe 65fe 78be a478 1a3e
000000d0: a7f9 e6bd 14ef 643e 9852 1b3e 27cb 74be
000000e0: 975a e0bd e508 303e c5f9 07be 9687 d73e
000000f0: e9d9 a73e b616 243e d9ee c63e f81f f83d
00000100: 0aa2 b63e 2d90 19be 7937 d83d e825 d2bd
00000110: 0ddc 693d 63c0 3cbc 0e20 913e 2792 b5be
00000120: a5e6 e5bc ccf0 85be 0504 9d3e 047c 0e3e
00000130: 078c 8b3e 7cdb 063f efdf 08bb 85f0 8ebd
00000140: cb32 d0bd 2448 68be 9b66 50be 2941 fbbd
00000150: ed57 c23e 663a eb3c e7a2 ea3e 8060 9e3d
00000160: 7150 283d 6fe1 04be e3fa c2be adc2 523e
00000170: a7ce a83e 38ae 313e 6ab0 c13d a879 9c3e
00000180: 3182 7bbd 0749 45be 029d 59bd e285 5b3e
00000190: 3f11 4e3e 1606 063d 49e5 b6be c8f2 a9be
000001a0: 1e1a 843e 0ace a63e 3b08 8cbe 8fb8 84be
000001b0: e6f0 9b3e a754 c2be 9836 a4be 61d7 debe
000001c0: 5862 f03e 02b8 043f 7f0c c43e 5848 533d
000001d0: 5af0 f03e 1bd3 c43d e143 6f3e 7b34 113e
000001e0: 75bf 213e ce55 e63d f73c 473e ee5a ce3e
000001f0: 285e 8ebe 8925 993e 9df0 b6be 2c81 cc3e
00000200: e48b 1fbe 1697 c5bd 2840 4d3e f178 12be
00000210: 92ae 6b3e 9bb1 b83d 2f87 4abe f0da a03d
00000220: 4e1e 953e 33f3 873e 59ce a43e 248b 8d3d
00000230: ddcd 6bbd 1d33 003e 3eb2 a53e 557f 8d3e
00000240: 77d2 81be 77b8 033e ed11 4dbe 0ad8 5b3e
00000250: ae6a 453e 4ae7 14bf 9b3c 38be 3771 3fbe
00000260: ebad 95be 3cb9 65be dfb5 29be 1f50 8bbe
00000270: 0618 ff3c 97c0 c83e bfd0 45be ad4b 623e
00000280: 1769 e2ba 911f ad3e 65b7 a9bd b8c8 d4bc
00000290: 777f 553e a111 d63b f132 323e fe9c 82bd
000002a0: 0e78 b03e 7abb 263e dcae 17be e21e 043f
000002b0: e319 343e b2dc 553e a2e0 89bd a8a2 4c3e
000002c0: caeb e5be abba d53e f6e3 ae3d 30c7 aebe
000002d0: bc84 afbe b328 91be 0c63 e7be 295c d2be
000002e0: 39a6 aa3d 2a56 9f3e 60cb 88bd 103d 763e
000002f0: 22e5 9dbe 4080 de3d 73ca a4be e587 82be
00000300: 5a2c 143e 99e4 94be 01fc 993e 6bde 19bd
00000310: 4757 223e 6b50 0c3e aee9 b13e 44e0 a03d
00000320: 67bb bf3d dcc0 063e b7e0 49be 129b a23c
00000330: fdae 1fbe 75ad 203e 2a06 ea3e 029e cb3e
00000340: 914d 96bc e808 643e ba28 b23e c7de bbbe
00000350: 0552 59be 47b0 6c3e b3e7 9d3e e05f 453e
00000360: 576e b93e fc99 03be abf0 04be 0077 df3e
00000370: c242 043e 141f ce3e c24f d33e 717b 0f3f
00000380: 0fb7 123e 35a4 c83c 3f15 0fbe fc3c ccbc
00000390: 86fe b3be 796e b0be 4337 453e ce26 353e
000003a0: f053 583e df64 b1be d290 863d f322 1bbf
000003b0: 5146 97be 7da7 16be 4279 8d3e f4af ebbe
000003c0: 65d5 1d3e a7a3 d2bc aee7 a33b 2b0c bc3e
000003d0: 0060 c93e 64fa ac3e 6282 79bd be11 a3be
000003e0: 5667 77be 76b6 c9be 9a8c 07be 5767 f1be
000003f0: f94b 563d 566b f8be 4a61 903e d860 a4be
-0.432627 0.49693817 -0.21470691 0.06913919 -0.2024494 0.23300277 0.21842925 0.0067310217
0.09691878 -0.20448917 0.17887339 0.10633751 -0.1374832 0.08197084 0.31279203 -0.26566923
-0.2110331 -0.4132238 -0.2870419 0.091888316 0.08941533 -0.2656196 -0.05832398 0.0035165793
0.22087991 0.1156162 0.006563941 0.49182516 0.36407468 0.013072083 -0.4056682 0.13306053
0.1867642 -0.1942507 0.48253188 -0.091417 -0.30132094 0.04782073 0.0714799 0.36927465
0.118224606 -0.20168388 0.49478868 0.18650307 0.20855327 -0.20929359 0.49172476 0.08970206
-0.24552616 -0.39808434 -0.24315794 0.15085083 -0.11278086 0.22356826 0.15168226 -0.23905621
-0.10954779 0.17190893 -0.13278873 0.4209563 0.3278344 0.16024289 0.388541 0.121154726
0.356705 -0.14996405 0.105574556 -0.10261136 0.057094622 -0.011520478 0.28344768 -0.35463068
-0.028064081 -0.26160276 0.3066713 0.13914496 0.2725527 0.52678657 -0.0020885428 -0.06979469
-0.10165938 -0.2268377 -0.20351641 -0.12268288 0.37957707 0.02871437 0.4582741 0.0773325
0.04109234 -0.12976621 -0.38082036 0.20582075 0.32970163 0.17351615 0.094574764 0.30561566
-0.061403457 -0.19266139 -0.05312825 0.21437791 0.20123766 0.032720648 -0.35721806 -0.3319304
0.25801176 0.3257907 -0.2735003 -0.25922057 0.30457228 -0.3795521 -0.32072902 -0.43523696
0.4695003 0.51843274 0.38290784 0.051582664 0.47058374 0.09610578 0.23365737 0.14180176
0.15795691 0.11246835 0.1945685 0.4030375 -0.2780621 0.2991145 -0.35730448 0.399423
-0.15580708 -0.09647958 0.20044005 -0.14303948 0.23015812 0.090182506 -0.19778131 0.07854259
0.29124683 0.26552734 0.3218868 0.069113046 -0.057569373 0.12519498 0.3236255 0.2763621
-0.25355884 0.12863337 -0.2002637 0.21469131 0.19278976 -0.5816542 -0.17991869 -0.18695532
-0.2923425 -0.22433943 -0.16573285 -0.27209565 0.031139385 0.39209434 -0.19317912 0.2209918
-0.0017273751 0.33813146 -0.08286933 -0.025974616 0.20849405 0.0065328632 0.17402245 -0.063776
0.34466594 0.16282454 -0.14812797 0.51609623 0.17588 0.2088497 -0.067322984 0.19983923
-0.44906455 0.4174398 0.08539574 -0.34136343 -0.34280956 -0.28351364 -0.45192754 -0.41085938
0.08332486 0.31120425 -0.06679416 0.24046731 -0.30838877 0.108643055 -0.32185706 -0.25494304
0.14470044 -0.29080656 0.30075076 -0.03756563 0.15853606 0.13702552 0.34748596 0.07855275
0.09361916 0.13159508 -0.19714628 0.019849334 -0.15594096 0.15691169 0.45707828 0.39768988
-0.018347533 0.22269022 0.34796697 -0.36693403 -0.21222694 0.2311412 0.30840835 0.19274855
0.36216995 -0.12851709 -0.12982433 0.43645477 0.12916091 0.40258086 0.41271788 0.5604773
0.14327644 0.024492363 -0.13972948 -0.024931423 -0.35155123 -0.34459284 0.19259362 0.17690584
0.2112577 -0.3464727 0.06570591 -0.60600203 -0.29545835 -0.14712329 0.27631575 -0.4603268
0.15413435 -0.025712801 0.0050019836 0.36728033 0.39331055 0.33784783 -0.06091536 -0.31849474
-0.24160513 -0.3939702 -0.13237229 -0.47149155 0.052318547 -0.4851939 0.28199226 -0.32105136

encoder.6.bias f4 [16]
00000000: cfb3 c63d e90a ca3c 59f9 04be eab3 97bd
00000010: f9b1 373e 9842 8b3e 3fd0 e4bb 582f 6f3e
00000020: 010d 00be e2b4 47bd c13d 4a3e b250 9ebd
00000030: b66a 103e a31d 413e 173c 63be 64a8 87bd
0.097022645 0.024663405 -0.12985744 -0.07407363 0.17938985 0.27199244 -0.0069828327 0.23357904
-0.1250496 -0.048756488 0.1975012 -0.07730235 0.14103207 0.18858962 -0.22190891 -0.06623915

encoder.9.weight f4 [16, 16]
00000000: 4be8 833d 79c9 cabe 4344 27be c3ab d1be
00000010: f202 eabe a29a 06bf a86b d03e a942 abbe
00000020: d65c a23e 6f36 513e b345 03be 6d06 a6bc
00000030: b593 2f3e 92f0 183e 001f a03e 3450 4dbe
00000040: 345c cc3d 39d5 a8bd 9ebb 6cbe 05b8 34bc
00000050: b591 e33d 91a3 c13d 5878 a1be 4837 21bd
00000060: 868a 81be 3790 bb3d 3c84 193e d217 443e
00000070: 4dea 8e3e 82ef 553e 753a b93d b66f cdbe
00000080: ca18 e2be fe3a e4be 4253 15be 27e3 0cbe
00000090: a156 b1bd 4f12 053d 84cb 9ebe 3190 19bd
000000a0: 04ea bb3d 5faa 7abe b645 793b c9d2 3cbe
000000b0: 4029 0a3e 7d16 193e c6bc 9a3e 8a29 e93e
000000c0: 8902 cf3e 9e74 673d 0858 f1bc d19c 13be
000000d0: 8469 73be e0a6 c23c b4f1 f3bd 98d6 ee3d
000000e0: cbef c03d 341f 94be bafb 4abe 104d 27be
000000f0: 1804 9ebe b34c 8f3e 5de3 11be b513 b9be
00000100: f9d9 9fbe 10c8 e8be 8751 fcbe 275b 053c
00000110: 2a65 f8be 7063 08bf c4e2 353e 86f4 1abf
00000120: ab45 0d3d 7415 b6be df19 00bf d30d 75be
00000130: 684e 1abe de1a 15bd 654f 05be 5227 15bf
00000140: 21ce 983e 4aa6 763e 130d 9b3d 582d 463e
00000150: ac8c 85be 1efe 173e 9b82 86be eb28 8cbd
00000160: fa3a 1cbe 6dc3 c7bd 95b8 983e 76dc 813e
00000170: 235d a83c 0025 37be d5c4 1e3e 433c 8d3e
00000180: b1a1 21be 0c3f a03e 37b3 d83e 3874 8b3e
00000190: 8b55 8c3e 4eb7 62be 4663 ccbe 76c9 2b3e
000001a0: dd8c ac3e 5ef7 f13e ec4c 2d3e ba54 433e
000001b0: ce6c ac3e 1f77 92bd 6f5f 753e ff61 d93e
000001c0: 3b28 3dbe 668c 90be fe84 b4bd e168 a1be
000001d0: 0fcb 323e 1b23 783e 73b1 1e3e c7ff 8d3d
000001e0: d3b3 e4bc a8fe 6cbd d9e6 32be f656 69be
000001f0: 9357 963e d858 ad3e 3efb 1dbe 3184 9d3d
00000200: 48fb 2bbd 3b46 3c3d 2058 ad3d c232 febd
00000210: 8382 45bd fb8a f1bd 5ab1 48be d489 1fbe
00000220: bc9d b13e a99d d5bc 254b b8be a68b d5be
00000230: c681 54be 45ed 89bd 09cc 75be ceff e8be
00000240: 3a16 453e de3a af3e 9594 49be 8e0c 193d
00000250: 8060 0ebe d8a4 c1be 2648 b2be 4160 e6be
00000260: ba92 ea3d f79a 9abe ef0a b6bd 3d8e 73be
00000270: 01f4 02be d743 b7bc 1bf5 813d 8b96 95be
00000280: c835 bc3d 60db 21be 5d92 1b3e 5ca4 263d
00000290: f4e2 403e db10 18bf 76c9 f93d f271 f2be
000002a0: c404 c7be 77b8 99bd 55e1 87be a9b6 41be
000002b0: 82b8 b9bd 760f fabe cc7d fa3c 7eeb 14bd
000002c0: 560d b63e 434f a13d 3806 3f3e e452 e13e
000002d0: 222b 84bd e70f fb3d 2378 403e 4d7d c3be
000002e0: df85 063e 35ea efbe 7e91 a8be 13be b0be
000002f0: 5162 4c3d fcff e6bd 58f1 9b3b 578a 44be
00000300: d338 683d 7501 403e cc5a d03e 3d4c bd3c
00000310: 6eb8 31be e9a4 8dbd 9be7 ccbe 8c58 adbe
00000320: 5a31 673e 4fa5 f33c 018b d9be 2c48 9a3d
00000330: 7f72 efbe 4907 3dbe 0b36 a73e dc0a 4d3e
00000340: ca1e b23d 5b37 77be 5e92 a9be 414f 51bc
00000350: 80c5 80be d9b6 b2be fc7d a33d 29ae edbe
00000360: 595c f9be 49c2 c03d b5ba 3f3e 154a 173e
00000370: 4e34 1bbf 5064 1cbf 2447 bf3e f01f 5a3e
00000380: b987 cd3e 543a 043e db08 c0be a61e 23be
00000390: 1950 6ebe 759a 39be e91b fcbd 2c8d b5be
000003a0: bb8f 903e 36ee d8bd 61ef 8d3e 3eb8 8abc
000003b0: 05e5 ddbe 101c cbbe 3911 703e bc2a 363e
000003c0: 8a56 8c3d 0c5b 73bd a2de 9ebe e8cb 77be
000003d0: 612e 4e3e 7cfc 75be 6cef 32bd 199c eabe
000003e0: 305a 08bd 3f28 67be 8770 943e 7cdc b3be
000003f0: 7938 9abe f6dd c03c 757d cc3e 8f38 313e
0.06440791 -0.39606836 -0.16334634 -0.40951356 -0.45705372 -0.525797 0.40707135 -0.33449295
0.31711453 0.20430921 -0.12819557 -0.020266736 0.1714619 0.1493552 0.3127365 -0.20050126
0.09978524 -0.08243794 -0.23118445 -0.011030202 0.11111776 0.09455026 -0.31537127 -0.03935936
-0.25300997 0.09158366 0.1499185 0.19149712 0.27913132 0.20892146 0.09044353 -0.4012429
-0.44159538 -0.44576257 -0.14582542 -0.13758527 -0.08659101 0.032488164 -0.31014645 -0.037491027
0.09175494 -0.24479054 0.0038035936 -0.18439783 0.13492298 0.14949985 0.30222148 0.45539504
0.40431622 0.0565077 -0.029460922 -0.1441529 -0.2377072 0.023761213 -0.119113356 0.11662024
0.09420737 -0.28930056 -0.19822589 -0.16337991 -0.30862498 0.27988204 -0.14246888 -0.36147848
-0.31220987 -0.45465136 -0.4928095 0.008139408 -0.48514682 -0.5327673 0.17762285 -0.60529363
0.03449027 -0.35563242 -0.50039476 -0.23931055 -0.15068972 -0.036402576 -0.13018568 -0.58263123
0.29844764 0.24086872 0.07570853 0.19353235 -0.26083887 0.14843032 -0.2627152 -0.06843742
-0.15256873 -0.097540714 0.29828325 0.2536351 0.020552224 -0.17885208 0.15504773 0.2758504
-0.15784337 0.312981 0.4232423 0.27237105 0.27409014 -0.22140238 -0.3991949 0.1677607
0.3370122 0.4725904 0.16923875 0.1907529 0.3367676 -0.07151627 0.23962186 0.42457578
-0.18472378 -0.28232116 -0.08814429 -0.3152533 0.17460273 0.24232142 0.15497379 0.06933551
-0.027917778 -0.057860047 -0.17470874 -0.22787079 0.2936369 0.33856845 -0.15427873 0.07691229
-0.041987687 0.045965414 0.08464074 -0.12412025 -0.04822017 -0.117940865 -0.19598904 -0.15579921
0.34690654 -0.026076155 -0.3599483 -0.41708106 -0.2075263 -0.06734709 -0.24003614 -0.45507663
0.1924676 0.342246 -0.19685586 0.03736549 -0.13904 -0.37821078 -0.3482067 -0.4499531
0.11453767 -0.30196354 -0.08888804 -0.23784728 -0.12788393 -0.022371216 0.06345578 -0.29216418
0.091899455 -0.15806341 0.15192552 0.04068409 0.18836576 -0.5940072 0.12196629 -0.47352558
-0.38870823 -0.07505887 -0.26539102 -0.18917336 -0.09068395 -0.4883992 0.030577563 -0.036357395
0.3555705 0.07876446 0.18654716 0.44008553 -0.064535394 0.122588925 0.18795829 -0.38181534
0.13137005 -0.46858373 -0.32923502 -0.34520015 0.04989845 -0.11279294 0.004758995 -0.19193397
0.056694817 0.18750556 0.40694273 0.023107642 -0.1735551 -0.0691622 -0.4002045 -0.33856618
0.2257742 0.029741911 -0.42488864 0.07533297 -0.4676704 -0.1845981 0.3265842 0.20023674
0.08697279 -0.2414221 -0.33119482 -0.012775243 -0.2515068 -0.34905127 0.07983014 -0.46421936
-0.48703268 0.09412057 0.18723567 0.14774354 -0.60626686 -0.61090565 0.37358963 0.21301246
0.4014261 0.12912875 -0.37506756 -0.1592966 -0.23272742 -0.18125327 -0.12310011 -0.35459268
0.28234658 -0.1059231 0.27721694 -0.016933557 -0.4333879 -0.39669847 0.2344407 0.1778974
0.068524435 -0.059413 -0.3102923 -0.24198878 0.2013488 -0.24022096 -0.04368536 -0.45822218
-0.033289135 -0.22573946 0.28992102 -0.35129154 -0.3012121 0.02354334 0.39939466 0.17306732

encoder.9.bias f4 [16]
00000000: d743 53be 33d4 553e 0ba3 c2bd 694c 843c
00000010: fab4 73be e293 0c3e 456a 38bd fec7 f43c
00000020: 1f7f 61be 12a5 e53c 783a 9ebe d17a 053e
00000030: a5d6 85be 7e36 c1bd 2a3f a6bc fdb8 5e3e
-0.20631348 0.20881729 -0.09503754 0.016149716 -0.23799506 0.13728288 -0.04502322 0.02988052
-0.22021149 0.028032813 -0.30903983 0.13035132 -0.26140323 -0.09434222 -0.02029379 0.21750255

pretraining_head.0.weight f4 [16, 16]
00000000: 1414 603e 4bca 993e edb5 be3e c352 5a3e
00000010: 52c4 5e3e 5d3c bbbe 9350 4d3e fd86 2e3e
00000020: 1811 21bd fbed 413e e7d9 3bbd a956 1abe
00000030: 911c c83e f30c 2b3e 8125 d13e 5893 16bd
00000040: 795b 21be 2ae6 93bd 58ed 103d 8f30 593e
00000050: ca7f 063d 504d 54be d669 aebe 718f c33e
00000060: b608 863e 3845 853d 0174 893e 9762 bc3d
00000070: 658a 6c3e c97a bb3e 9412 ac3e fd4b 1cbc
00000080: 44d1 713e 83b8 8bbe f5a3 503e 3fed 0abe
00000090: d51d 4c3e acbd aa3d cf7b bbbe 5958 c43d
000000a0: a549 f4bd bfb9 c03e 1b2c 9a3e 78d9 8abe
000000b0: f477 3a3e 4506 58be 228b aa3e 43cf d2bd
000000c0: 49b4 3ebb af72 853e 5435 9cbe 5739 c1be
000000d0: a09e e03c a2fa 1abe 6e46 193c db65 9c3d
000000e0: 5f9b eabe 0821 983e e02f 9ebe 94f5 27bd
000000f0: fa79 87bd de0f 6ebe 9895 333e 7561 d33c
00000100: 7a36 6e3c 191a 6bbe 0b8f d73e c3b1 f03d
00000110: c92f bd3e 80db 82be b431 c8bd 6a69 0f3d
00000120: 20f6 73be 5c03 173e e569 f8bd c6e2 66bd
00000130: fe43 aabe 0088 463e 6a78 81be 3923 873e
00000140: d4b9 cf3e 5f23 02be 427c 1d3e 3ae0 69be
00000150: a689 20be 02fc 86be 0b01 543e 4dec 543d
00000160: 7db2 55be 41c1 283e 6116 b4bb afce d7be
00000170: 798f 8e3e e869 bebd 3c88 123e 7140 3e3c
00000180: b455 89be 5f72 fb3e 447d 86bc 2d99 a53e
00000190: 84b0 fabe 567b 013e 8f0b d2bd 23dd 59be
000001a0: 8f6e 46be 5a2b 243d 353f fcbe da6d d93e
000001b0: f561 61be 386b fcbe e87d 97be b0f7 ed3d
000001c0: 254b 83be 4257 3f3e 9a4d 6b3d 9a42 bebe
000001d0: b34c df3e 475f 85be 6053 bf3c 2e57 b13e
000001e0: 9383 cabd ac9d ccbd 9b2e 67be d82b 39be
000001f0: b5ae c13e 5186 a73e cb7b afbe 7d24 f33c
00000200: c81c 95be 9eb7 e73e 8d62 02bf ca0e 1fbe
00000210: 4b85 18bf c58f 013f 07c2 62be 54a2 b73e
00000220: ba86 45be c1a1 c3be 0dc1 c4be 71f9 a03e
00000230: 58c8 f5be c33f 9ebe 3d6a 8fbe 65c8 b8bd
00000240: 4e26 15be 2512 c23e cbc6 353d e854 043e
00000250: a257 0bbf fdb7 f4be cc86 f63e 5821 de3e
00000260: 16e3 38bc e8dd 383a 525b e1be 2b8c 4ebe
00000270: e80f 83be 0641 07be 2f8d afbe 14f7 71be
00000280: 6560 7c3e 4a75 12be f185 fd3d 6c64 bc3d
00000290: b411 763e 1aa5 a8be a24e afbe 8f0a 3abe
000002a0: abd2 bd3e 779a 59be afae edbd 6788 4abe
000002b0: d0fe 3d3d 380f 31bd 404e dbbe 8b93 98bd
000002c0: c02a 60be 8df5 1dbd 709a 933b eb92 a73c
000002d0: 746f f8be 603e 103d 49a5 33bd 64bc ca3e
000002e0: f050 b5be af3d cfbe 65da 1c3c fc92 0d3e
000002f0: c731 4e3e 6954 a6be 438f 1abe f465 acbd
00000300: 0035 6d3e 3436 c6be 15b9 79bd f66e 8dbe
00000310: f9da 8fbd e071 593e cff8 ad3e 3b96 973c
00000320: 8827 6bbe 6a7d eabd bb88 d43d 0f89 7dbe
00000330: 943f 30bd eee4 12bf 61d4 a3be 1e1b 1dbd
00000340: fd11 a4be e180 5ebe d063 a63e 3dbb 4abe
00000350: d03e bcbe 79c4 d33d 159a 9d3d 68e4 acbe
00000360: 8b47 02be 989b 073c 3009 99be ed97 f1bd
00000370: 83cb 03bf 0e3c 3dbd 8eab 81be 1dbd a63e
00000380: 44fa bf3d 6919 933d ddc8 643d 3ea8 2e3e
00000390: cdbf aa3e 857b c03d a586 5dbd 8b72 59be
000003a0: 449f 30be a6ca 20be b2bc 1d3e 56bf 4a3d
000003b0: 829b 82bd ba0c 1f3e 874f ab3a edd0 c7bd
000003c0: bfc3 c6be 2afd 9d3e 7799 213e cfd7 683e
000003d0: 10fa 053e a255 98bd 82f8 2cbe a5ee 92be
000003e0: de5f eb3d 03c6 e33e f76d 313e 8b2f 8d3e
000003f0: 8536 acbe 096e 093e 356d 02bd f32b 423d
0.21882659 0.3003715 0.37248173 0.21320634 0.21754578 -0.3656949 0.20050268 0.17043681
-0.039322942 0.18938439 -0.045862105 -0.1507212 0.39084294 0.16704158 0.40848926 -0.03676161
-0.1575755 -0.07221635 0.0353826 0.2120993 0.032836713 -0.20732617 -0.3406512 0.38195375
0.2617852 0.06507343 0.26846316 0.09198492 0.23099668 0.36617115 0.33607924 -0.009539601
0.23614985 -0.2728921 0.20375045 -0.13567065 0.19933255 0.08336958 -0.36617896 0.095871635
-0.11928109 0.37641713 0.30111775 -0.2711904 0.18209821 -0.21096142 0.33309275 -0.10293438
-0.0029099158 0.2606406 -0.30509436 -0.3773906 0.027419388 -0.15134671 0.009355171 0.07636615
-0.45821664 0.297127 -0.308959 -0.041005686 -0.06615062 -0.2324824 0.17537534 0.025803307
0.014539355 -0.22959174 0.4210132 0.11752655 0.3695052 -0.2555809 -0.09775105 0.03501264
-0.23824358 0.14747375 -0.12129573 -0.05636861 -0.33255 0.19387817 -0.2528718 0.2639406
0.40571463 -0.12708806 0.15379432 -0.22839442 -0.15677509 -0.26364142 0.20703523 0.051983166
-0.20868869 0.1647997 -0.005495832 -0.42149875 0.27843836 -0.09297544 0.14309782 0.011612044
-0.268232 0.49110696 -0.016417153 0.32343426 -0.48962796 0.12644705 -0.10256111 -0.21275763
-0.19378112 0.040080406 -0.49266973 0.42466623 -0.22010024 -0.4930055 -0.29588246 0.11619508
-0.25643268 0.1868563 0.057447053 -0.37160188 0.43613204 -0.26049253 0.023355186 0.34636825
-0.09888377 -0.09991011 -0.22576372 -0.18083131 0.37828603 0.32719663 -0.34274134 0.029680485
-0.2912352 0.45257276 -0.50931627 -0.15532985 -0.5957839 0.5061 -0.22144328 0.35866034
-0.19289675 -0.38209346 -0.38428536 0.3144031 -0.48004413 -0.3090802 -0.2801074 -0.09022597
-0.14565393 0.37904468 0.044379037 0.12923014 -0.5443059 -0.47796622 0.48149717 0.43384814
-0.01128461 0.00070521096 -0.44014984 -0.20170657 -0.25598073 -0.13208398 -0.34287402 -0.23629409
0.24646147 -0.14302555 0.12379063 0.091988415 0.2403019 -0.32938462 -0.3423968 -0.1816809
0.3707479 -0.2125033 -0.11605584 -0.19778596 0.046385586 -0.043227404 -0.42833138 -0.074500166
-0.21891308 -0.038564254 0.0045044944 0.020455798 -0.48522532 0.035215735 -0.0438588 0.39596856
-0.35413313 -0.40476748 0.009573554 0.13825601 0.20136176 -0.32486275 -0.15093713 -0.084178835
0.23164749 -0.3871323 -0.060967524 -0.2762372 -0.070241876 0.21234846 0.33978888 0.018504253
-0.22964299 -0.11449702 0.10377642 -0.24759315 -0.043029383 -0.5738057 -0.3199797 -0.03835594
-0.32044974 -0.21728851 0.32498026 -0.19797988 -0.36766672 0.103402086 0.076954044 -0.3376801
-0.12722604 0.008276843 -0.29889822 -0.11796556 -0.5148241 -0.04619985 -0.25326198 0.32566157
0.09373906 0.07182581 0.05585562 0.17056367 0.33349457 0.093985595 -0.054083485 -0.21235101
-0.17248255 -0.15702304 0.15404013 0.04949888 -0.06377317 0.15532199 0.0013069966 -0.09756646
-0.38821217 0.3085721 0.15781198 0.22738574 0.13083673 -0.07438208 -0.16891673 -0.28697696
0.114928946 0.44487008 0.17327105 0.27575335 -0.33635345 0.13420881 -0.03184243 0.047405194

pretraining_head.0.bias f4 [16]
00000000: 63ce 78ba 90f3 5e3b ed0a 383c d569 e43d
00000010: 0ad7 233c e436 acbc 5d73 923e 9405 08bd
00000020: 5d1b 633e 1abf bf3d 4ff4 79bd c629 223d
00000030: bb54 58bb 6b56 0f3e 0ad7 233c 97d7 e6bc
-0.0009491203 0.0034019686 0.011233074 0.11152998 0.01 -0.021022268 0.2860364 -0.033208445
0.22178407 0.093626216 -0.061024006 0.03959062 -0.0033009488 0.1399781 0.01 -0.028178973

pretraining_head.3.weight f4 [16, 16]
00000000: 6115 0abe 9412 a7be 99f7 513e 7d88 b7be
00000010: d6ef 99bc 1cae 1ebe f93b a4be 410a 993c
00000020: 0873 d2bd 8f8f d3bd 100e 38be 3f4a 8ebe
00000030: eaa4 d2be 21c0 43be 34cb ac3e 343b 06be
00000040: a744 463e d7d9 d3be fbd1 883e a719 cabd
00000050: 8920 d03e 3573 b93d c3b4 9a3d 98e7 06bd
00000060: 7f6a c73e 96aa 5a3e 2ba8 6b3e 6762 0b3d
00000070: 5c15 a33e e713 ffbb 68d0 a4bd 4af0 a6be
00000080: be2b 9f3e 06e2 b0be 4f2d b83e 8eb5 943b
00000090: 98f5 8bbe 9d75 9dbe 47bf d1bd 26fe 3ebe
000000a0: 8d5c 553d 9688 0abe 760e 17be 3b14 21be
000000b0: d75d 343e 4811 5cbe 542a 8c3d 98ee eb3d
000000c0: f594 c83e 0c28 b5be 32fc c13e 5c6b b63c
000000d0: 0641 62bd ae01 dcbd b5d1 f13e db54 72be
000000e0: 85f5 213f 5681 843e b950 76be 2790 353e
000000f0: 371b 783e da35 dd3e d801 403e 544d d4be
00000100: 377a 09bd 9f5b d23e 07e0 8a3e 634c c0bd
00000110: f962 f43d 1b9c 95be 9af0 afbe 09d7 c1bd
00000120: 46ab 15be b05b 5b3e 7102 fe3d 57e0 a4be
00000130: a526 39bd 0ec7 893e 0f73 9e3d 0d89 43be
00000140: 6cca 8fbe 58b3 cfba d7a6 ddbe 18f3 403e
00000150: d0ef 123d 949a 3d3e e7ed c7be cea7 20be
00000160: fce9 23be 3a0d 95be b624 c43e 16af 143e
00000170: 51b2 de3e 71a8 303e 9590 f03d 6ad1 a33e
00000180: 023c 6c3e fc91 163e 890c dfbe aef9 1d3e
00000190: a36c 9f3c 6357 183e aac6 e23d a771 8b3b
000001a0: de5b 1a3e c369 aa3e 1909 57bd bde5 bb3e
000001b0: 7ab3 d43d 6fb7 77bd 637a bc3d b60a cebe
000001c0: 1c69 b7be 63c3 da3d 95ce 23be 4d2f ab3d
000001d0: f84d ac3e 025f c4be 306e edbe faff 843b
000001e0: b8dc c9be 1342 21bf c6c3 1abe 6c4a a8be
000001f0: 64ad e1be f069 11be db46 813e 286a 51bd
00000200: 83b9 a1be a6d8 22be 254c d9bd 825a cebd
00000210: ea5f d5be 614f 6a3e b47e 073f faa1 25bc
00000220: b8a6 b83e 4e33 fa3e e60b 853e fb7a b33e
00000230: fae8 033f 5cbc 793e 93ef 8bbb 5a20 a33d
00000240: 0ad6 f43d 3d5c 83be 51cd 003e 0422 8b3d
00000250: a391 bc3e 2415 5bbe 55a4 c03e b097 2dbd
00000260: c37e 21be c6d2 e83e 84b7 dabd 4260 03be
00000270: 4f9c 953e c6cb 5bbe 6a87 d13e 518a aabe
00000280: 5ac5 be3e ff0b a33c d862 58be 1de0 923e
00000290: 0f35 e93d 622d a3be d157 c2be 5ab4 553e
000002a0: 6edc 8abe ae95 07be 96b2 c23e c392 8ebe
000002b0: e431 cb3d 4959 23be eac1 88bd c820 ce3e
000002c0: 19ec 97bd 8117 953e d113 d1be 6fec e4bd
000002d0: d6ce 36be 0ec1 a13e 9f72 a4bc df11 523d
000002e0: 00ec ac3d 7f64 e83e 2832 54be 3888 adbd
000002f0: 8c09 683e 0fa2 333d 7114 5b3e 1ab7 97be
00000300: 4432 1dbd 4ebf 1cbe c38e c1be 5289 1c3e
00000310: ca30 0bbe 0a10 cdbe fbf3 67be 959a aa3e
00000320: 65d9 00bf 27f9 08bf dd0e 1b3e 25a7 c1be
00000330: 63da e1bc 8a62 ecbc 86ff 81be cd97 8a3e
00000340: 65f1 cb3e 99ca 4ebe eea0 873d abe8 34be
00000350: d4c6 9abd 0779 e83c 57e2 a3be 6a9d e73d
00000360: f54f 9fbe b984 e13d 886b 4ebd cb90 c13d
00000370: 0525 803e 0e21 bdbe 3062 403e d25e b7be
00000380: 6ce4 343e b455 963c 59fc 0ebe 28e7 d53e
00000390: 9201 afbe 63ab 9dbd bd6a e83e 1a3a 9a3e
000003a0: ab3e 483e 134d c43e 6382 54be bf0f 023f
000003b0: 9b50 cebd 8359 603e 4914 bdbe c68d bdbe
000003c0: ed3c 7bbe af90 9e3e 469f c03e c012 a8be
000003d0: e678 2a3e d21e 05be ebf8 f73e d56a c7bd
000003e0: c13c 2cbe 043d e03e 6505 df3d 4ba8 e23e
000003f0: 777c c13e 878a d73e e558 9bbe 7b19 953e
-0.13484718 -0.3263136 0.20504607 -0.3584632 -0.01879112 -0.15496105 -0.32077006 0.018681647
-0.10275847 -0.10330116 -0.17974114 -0.2779102 -0.41141444 -0.1911626 0.33748782 -0.13108522
0.19362126 -0.41377136 0.26722702 -0.09868174 0.40649822 0.09055177 0.07554009 -0.03293571
0.38948438 0.21354136 0.2301337 0.03402939 0.31852233 -0.007784355 -0.08047563 -0.326052
0.3108806 -0.34547442 0.35972068 0.0045382446 -0.2733581 -0.30753794 -0.102415614 -0.18651637
0.052090216 -0.13528666 -0.1475161 -0.15730374 0.17613922 -0.21490967 0.06844011 0.115201175
0.39176145 -0.35382116 0.37887722 0.02226799 -0.055237792 -0.10742508 0.47230306 -0.23665182
0.6326526 0.25879925 -0.24054231 0.17730771 0.24229132 0.43205148 0.18750703 -0.41465247
-0.03356382 0.41085526 0.27124044 -0.093895696 0.1193294 -0.29220662 -0.34363252 -0.09464843
-0.14616117 0.21421695 0.124028094 -0.32202408 -0.04520287 0.2690968 0.077367894 -0.1909525
-0.28084123 -0.0015846295 -0.4329135 0.18842733 0.035873234 0.18515998 -0.39048693 -0.15689012
-0.16007227 -0.29111654 0.38309258 0.14519915 0.4349542 0.17251755 0.11746327 0.31995708
0.23069766 0.14704126 -0.4356425 0.15427276 0.019460982 0.14877085 0.110730484 0.004255492
0.15074107 0.33283815 -0.05249891 0.36698714 0.10385795 -0.06047767 0.09203031 -0.40242547
-0.3582238 0.10681798 -0.15996774 0.08358631 0.33653235 -0.38353735 -0.4637313 0.004058835
-0.39426208 -0.62991446 -0.15113744 -0.3286928 -0.440776 -0.14200568 0.2524937 -0.05112663
-0.31586847 -0.15902957 -0.106102265 -0.10075857 -0.4167474 0.22881843 0.5292771 -0.010109419
0.36064696 0.48867267 0.2598564 0.35054764 0.5152737 0.2438826 -0.004270503 0.07965155
0.11954887 -0.2565631 0.12578322 0.06793597 0.36829862 -0.21394783 0.37625375 -0.04238099
-0.15771012 0.45473307 -0.10679534 -0.12829688 0.29220816 -0.21464452 0.40923625 -0.33308652
0.37259942 0.019903181 -0.21131456 0.2868661 0.11387073 -0.31870562 -0.37957624 0.2086958
-0.271213 -0.13240692 0.38026875 -0.27846345 0.09921625 -0.15952028 -0.06677611 0.40259385
-0.07418079 0.29119495 -0.4083543 -0.11177909 -0.17852339 0.31592602 -0.020074187 0.051286574
0.08443451 0.45389172 -0.20722258 -0.08473247 0.22659892 0.043855723 0.21394517 -0.29631883
-0.038378015 -0.15307352 -0.3780423 0.15286759 -0.1359283 -0.400513 -0.22651665 0.33321062
-0.5033172 -0.53505176 0.15142389 -0.37822834 -0.027569955 -0.02885558 -0.2539026 0.2706894
0.39832607 -0.20194472 0.06622492 -0.17666881 -0.07557455 0.028378023 -0.3200862 0.11309321
-0.3111569 0.11011643 -0.05039552 0.09451445 0.25028244 -0.3693928 0.18787456 -0.3581453
0.17665261 0.018351413 -0.1396345 0.4177792 -0.34180886 -0.07698705 0.45393935 0.30122453
0.19555156 0.38340053 -0.20752864 0.50805277 -0.10073968 0.21909146 -0.3692954 -0.37022227
-0.2453496 0.3096976 0.37621516 -0.32826805 0.16647682 -0.13000038 0.48432097 -0.097371735
-0.16820051 0.4379655 0.10889701 0.44269022 0.37790272 0.42097875 -0.3034126 0.29121003

pretraining_head.3.bias f4 [16]
00000000: 3ed6 563c cdb9 d53b 11b4 84bc 5ec5 8a3e
00000010: 4e0b 983c 1699 bdbd 74ff 313c 52b7 4ebc
00000020: 5b67 c73c 6c7d 633c 8729 ccbd 396e 06bd
00000030: a5a0 ccbd db86 33be a991 5b3e a0d5 0bbc
0.013112603 0.0065223933 -0.016199144 0.27103704 0.018560078 -0.092577145 0.010864127 -0.012616949
0.024341276 0.013884883 -0.09968858 -0.03281996 -0.09991578 -0.17531912 0.21442284 -0.008534819
