trained_models/cylinder-bands_orc_corr.pt (torch, 19425 bytes, 12 tensors)

encoder.0.weight f4 [16, 148]
000000 72 34 a3 3d 85 57 b9 bd 63 37 06 3e 32 32 4c 3d
       0.079689875 -0.09049896 0.13107066 0.049852557
000010 5d dd 0f be b8 1d ba bd 0f e1 f7 3d ce 88 7e bd
       -0.14049287 -0.090877 0.121034734 -0.062142186
000020 b0 81 e3 bc 90 d7 ba bc 9f 6e 81 bd ba 8c db bd
       -0.0277718 -0.022807866 -0.063199274 -0.10720201
000030 54 7b 01 be 2e 77 20 bd 57 56 fe bc d8 33 b3 3d
       -0.12644702 -0.03917616 -0.03104703 0.08750123
000040 fe 14 ad 3d 05 5f eb 3c ae 29 03 3e e4 28 4d 3d
       0.084512696 0.028731832 0.12808868 0.050087824
000050 d2 81 5e bd 84 15 2f be bb b5 38 3e b6 21 89 bd
       -0.054323025 -0.17098051 0.18038075 -0.06695883
000060 e7 c4 f2 3c 90 39 6d 3d b3 e0 da bc 4f 5c 38 3e
       0.029634906 0.057916224 -0.026718473 0.18003963
000070 28 24 31 bd 1a bf 59 3d 0d 00 27 3e 13 f7 37 3d
       -0.043247372 0.053160764 0.16308613 0.044913363
000080 1a b2 92 3e 15 e6 f7 bd 39 31 55 3e 49 c2 32 be
       0.28651506 -0.121044315 0.20819558 -0.17456926
000090 c4 7c 41 be 99 f4 d7 3b 4d ab 38 be e2 8c 00 bd
       -0.1889525 0.0065904376 -0.18034096 -0.031384356
0000a0 4c 1e 1d 3e df 88 94 bd fa a7 a0 b9 1e 5e 0d bc
       0.15343589 -0.072526686 -0.0003064273 -0.008628396
0000b0 53 e6 24 3e 61 b6 3d be 0b 7f cc bd 7a 60 0b 3e
       0.16103487 -0.18526603 -0.09985169 0.13611022
0000c0 f8 64 6a 3d b8 44 14 bd 82 31 25 3d 26 6d d7 3d
       0.057225198 -0.036198348 0.040330417 0.10518865
0000d0 f9 c0 d9 3d 0f d2 4b be a4 ba d3 bd 50 43 54 3d
       0.1063251 -0.1990435 -0.10338333 0.051822007
0000e0 5d aa ca bd 03 e8 8f bc 05 59 d7 3d 46 26 02 bd
       -0.098957755 -0.017566686 0.10515026 -0.03177478
0000f0 9d d3 e1 3d 35 10 cf bc b1 f7 01 3e a1 af b8 bc
       0.1102669 -0.025276283 0.12692143 -0.022544684
000100 78 b4 1f be 5f fd 09 3e 87 64 3b bd 1a 07 1a 3e
       -0.15596187 0.1347556 -0.045750167 0.15041772
000110 9b f3 fe bc 57 92 01 bd 18 f3 b7 3d fd 71 76 be
       -0.03112202 -0.0316337 0.08981913 -0.2406692
000120 4c 8f 3f be e8 30 0a be 4d 00 09 bd 0f 54 0d be
       -0.18707007 -0.13495219 -0.033447552 -0.13801597
000130 6a 33 05 3d 55 12 05 bc 40 13 0a 3e 07 1f 09 3e
       0.032519735 -0.0081220465 0.13483906 0.13390742
000140 5d 41 c2 3b 7e 96 61 be 96 57 ac bd 62 f0 2e 3e
       0.005928202 -0.22030064 -0.08415143 0.17083886
000150 dc 8a 39 3e 0a 17 ae 3d f3 b1 27 be a9 f6 80 3d
       0.18119377 0.08500488 -0.16376476 0.06297047
000160 9c fe 32 3d 5e 6a 9f be 6a 64 28 bd 84 26 e7 bd
       0.043699846 -0.3113584 -0.041111387 -0.11286643
000170 2c 52 97 be 6f 77 41 be cf 67 43 3d 7c cf 87 bd
       -0.2955488 -0.18893217 0.04770642 -0.066313714
000180 bb 2e 49 3d c4 da c3 bd ac 11 aa be a3 b7 b8 bd
       0.04911683 -0.095632106 -0.33216608 -0.09019401
000190 ff d9 e3 3b 83 ab 16 3e fb e7 b1 be 7b 68 c6 bd
       0.0069534774 0.14713864 -0.347473 -0.09687897
0001a0 da 40 9f 3d 6b e2 4a 3d 04 c0 05 be fb 84 a9 bc
       0.07776041 0.049532335 -0.1306153 -0.020693293
0001b0 a3 77 a0 3e 31 e0 41 bd 3f 05 ad bc 70 1f 7e be
       0.31341276 -0.047332946 -0.021120666 -0.2481668
0001c0 90 e9 07 3d 4a 68 d4 3c 72 a4 50 be 00 59 12 3c
       0.033181727 0.025928635 -0.20375231 0.008932352
0001d0 13 80 c1 3d 4a ce c0 3c 7d 04 0a 3e 1e ae d4 bd
       0.09448256 0.023535866 0.13478275 -0.10384773
0001e0 39 e2 71 bc ea eb 9f be 80 2b 19 be d9 c0 9f be
       -0.014763408 -0.31234676 -0.14958 -0.3120182
0001f0 26 51 3d 3e b9 22 e8 bd b8 73 27 bd 9c fa 0b be
       0.18487987 -0.11334748 -0.040881842 -0.13669819
000200 7c 40 aa 3c dc 1f 52 bd 49 91 22 3d 02 76 f8 bd
       0.020782702 -0.051299915 0.039689336 -0.12131883
000210 eb 83 c9 3d d1 c2 0f be 0a 84 f1 3d 50 c4 eb 3c
       0.098396145 -0.1403916 0.117927626 0.028780133
000220 33 c9 25 be 1e 46 df 3d 4d a2 b0 3d 2d ca 3b 3d
       -0.16190033 0.10902046 0.086247064 0.045847107
000230 b5 91 e5 bd bd 4d 01 be d4 95 33 3d 48 a5 63 3e
       -0.11209432 -0.12627311 0.04384406 0.22231019
000240 6d e9 58 3e b3 c9 0c bd 4c 0b 21 3e 95 3e 38 3e
       0.21182795 -0.034372043 0.15726966 0.17992623
000250 8e f9 fc bd 86 e6 db 3c ff 02 1a 3e bf d2 0e be
       -0.12352286 0.02684332 0.15040205 -0.13947581
000260 b4 3b ad 3d be 57 95 3d 7d bd 96 bd fc b6 1c be
       0.08458653 0.07292126 -0.07360361 -0.15304178
000270 e3 43 d3 3d ae 8d f7 bb d7 0c 23 3d 16 ee 8e bd
       0.10315683 -0.0075547313 0.039807167 -0.06979005
000280 6d cc 06 bd 85 fd b9 3d 8e 74 22 be 89 e6 3a be
       -0.0329098 0.09081558 -0.15864775 -0.18252005
000290 1d fe 91 3d 75 69 13 3d 0d a5 27 bd c1 09 b4 3d
       0.071285464 0.035989244 -0.04092889 0.08790923
0002a0 26 07 0b be 79 bb fb 3d 9b c5 8e be b1 b8 2d 3d
       -0.13576946 0.12291617 -0.27885136 0.042412464
0002b0 a8 02 2f be 29 07 ff bd 99 2b b7 bd e9 0f a4 be
       -0.17090857 -0.124525376 -0.089438625 -0.32043388
0002c0 69 6b 57 bc 59 67 0d 3e 82 53 80 be 30 31 c4 3d
       -0.013148167 0.13808955 -0.2506371 0.09579694
0002d0 91 15 c2 3d 0a 17 ef 3c 16 51 5f be 8a e2 1e be
       0.0947677 0.02918579 -0.21808276 -0.15516105
0002e0 39 58 08 3e 87 af db bc a2 05 97 3d 66 5a 82 3d
       0.13314904 -0.026817096 0.07374121 0.063648984
0002f0 84 a6 ca bd 15 0b 19 3e fd 83 7d bd 95 99 02 be
       -0.098950416 0.14945634 -0.061893452 -0.127539
000300 c2 f4 52 3c 41 b3 3e be e5 8e fe bd 88 2f 41 3e
       0.012875738 -0.18623067 -0.12429599 0.18865788
000310 c8 88 46 3d b4 45 3c be 32 a3 c2 3b 24 40 4c 3c
       0.04847029 -0.18385965 0.0059398646 0.012466464
000320 59 24 ba 3c 9d 6f ed bc de 44 aa 3d 01 00 44 be
       0.02272241 -0.028983885 0.083139166 -0.19140626
000330 c4 87 d2 3d 67 4a 1f 3e 47 8d 8f be d5 fd 19 be
       0.102798015 0.15555726 -0.28037474 -0.15038235
000340 8c f5 c7 3d f5 37 27 3e 96 78 e5 3d 95 2d 46 3e
       0.09763631 0.1632994 0.112046406 0.19353326
000350 1d 0d 92 bc a0 2b 83 3c 1a ae 9b bd bd 61 12 be
       -0.017828519 0.016012013 -0.076015666 -0.14295097
000360 47 49 b3 bd 8f 27 e8 bc 54 1c 07 be 48 3e cf bc
       -0.08754211 -0.028339176 -0.131944 -0.025298253
000370 ca fa c3 3e 4a c1 2f 3e e8 98 ef 3c 8d 33 05 3b
       0.38277274 0.17163578 0.029247716 0.0020324916
000380 31 c7 66 bd 8a 0e fa 3c 47 a2 c1 bd ca 54 87 bc
       -0.056342307 0.03052451 -0.0945478 -0.016519923
000390 27 40 fc b9 dd 2c 38 bd 75 7e 9d 3c 61 d0 29 be
       -0.00048112983 -0.04496466 0.019225338 -0.16583396
0003a0 95 e7 41 3c 70 71 5a bd 18 5f e9 bc 02 4d 1e 3e
       0.011834999 -0.05333084 -0.028487727 0.15459064
0003b0 45 f2 58 be ac af 3d 3e 76 a9 21 3e bf 3b e2 bd
       -0.21186168 0.18524045 0.157873 -0.11046552
0003c0 71 fa 5c bd a4 48 3d 3d df 8a 95 bd 02 fb 39 bd
       -0.053949777 0.046211854 -0.07301878 -0.045405395
0003d0 3f 1a 23 3e 0a 67 19 be fb c8 3a 3e 52 42 d9 3d
       0.15927981 -0.14980713 0.1824073 0.10608353
0003e0 63 32 25 3e 58 69 4b be d3 95 65 3d cd 1b 74 bb
       0.16132502 -0.19864404 0.056051087 -0.0037248016
0003f0 7c e2 46 3d 8b a8 a4 bd 8d 1e fb 3b de 6b 50 bd
       0.048555836 -0.080399595 0.007663554 -0.05088412

encoder.0.bias f4 [16]
000000 4f 2b 01 bc 4c 72 c4 3c 33 28 e4 3c ed 19 2b 3c
       -0.007883861 0.023980282 0.0278512 0.010443193
000010 0f b3 3a bd 71 d6 27 3b cb f7 ef bb 14 c8 36 bc
       -0.04558092 0.0025609995 -0.0073232404 -0.011156101
000020 0f fe 66 bb 9a 9f 86 3c cf db bb bc 0f 26 97 3c
       -0.0035246646 0.016433526 -0.022931961 0.018450765
000030 40 46 b4 3c a7 0c a1 3c f7 29 98 bc e6 41 86 3c
       0.022006154 0.019659353 -0.018574698 0.016388845

encoder.3.weight f4 [16, 16]
000000 83 59 98 be e6 3c 9c be a1 03 f5 be 73 e7 9d 3e
       -0.29755792 -0.30515212 -0.4785433 0.30840644
000010 1b 69 91 3d 89 9b 1b be 01 80 d8 bd 83 9c 30 3e
       0.071001254 -0.1519605 -0.1057129 0.17247204
000020 94 90 d2 be d2 87 5a 3e 3b b2 d4 be d9 c2 d2 bd
       -0.4112593 0.21340874 -0.4154223 -0.102910705
000030 29 f6 b1 3e da f3 3a 3e 69 71 fa bd 7a 7e e3 bc
       0.34758118 0.18257084 -0.122286625 -0.02777027
000040 46 48 cc 3d 72 f7 ca 3d 57 ec 30 3e bd fe be be
       0.099747226 0.09910478 0.17277656 -0.37303725
000050 d3 82 90 3d 11 6f 74 3e b9 3b 55 be 89 21 13 be
       0.07056203 0.23870493 -0.20823564 -0.14368261
000060 43 ff 55 3e e3 23 ec 3e 2e a7 ff bd 00 b4 c5 3e
       0.20898156 0.4612113 -0.12483059 0.38613892
000070 14 18 68 3e ed b3 8c 3e 07 72 5b be 99 06 cf bd
       0.22665435 0.27481022 -0.21430217 -0.1010868
000080 21 e2 e1 bc a6 f2 8e be 1a 72 2d 3c 79 26 a9 3e
       -0.027573647 -0.279195 0.010586286 0.33037165
000090 d9 44 b3 3e 2a 3a 11 3e 48 cd c0 be ec ab e2 3e
       0.35013464 0.14182344 -0.37656617 0.4427179
0000a0 87 03 2e 3e 30 15 a2 bd ec b8 98 3d f0 62 01 3e
       0.16993533 -0.079141974 0.07457146 0.12635398
0000b0 79 52 59 be d9 12 a8 be d4 79 0a be 0a 36 42 be
       -0.21222867 -0.3282688 -0.13523036 -0.18965927
0000c0 bb c5 d9 3e e3 0d 11 3a 24 7e bd be 91 e8 db 3e
       0.4253367 0.00055333803 -0.370103 0.42950872
0000d0 ad 1c 42 bd 39 a4 d8 3e 03 5f 3e 3e b9 a4 01 3e
       -0.04739063 0.42312792 0.18590932 0.12660493
0000e0 ab 7f 86 be 65 d6 8d 3b d6 10 cd 3e d3 b9 5f 3e
       -0.26269278 0.0043285363 0.40051907 0.2184823
0000f0 21 bc 81 3e 10 88 8b 3e cb e3 83 3e 50 35 84 3e
       0.25338843 0.27252245 0.2575973 0.25821924
000100 2c f9 46 be b8 de 8c 3e 8f 4d 11 3e 55 1b af 3e
       -0.19430989 0.2751367 0.14189743 0.3420054
000110 8d d7 26 bc ea 68 b4 bd 92 78 20 3d 70 85 e3 3c
       -0.010183227 -0.08809073 0.039177485 0.027773589
000120 51 4c c2 be 2d 8f 89 3d 79 02 c9 3e 56 6c 07 3e
       -0.3794885 0.06716762 0.392597 0.1322492
000130 cb d8 95 be e7 eb 30 3e 0e 9c a8 3e 7d 42 3b be
       -0.29266962 0.1727749 0.3293156 -0.18287082
000140 f2 35 75 3e cb dc 5a 3e 61 2a c4 3e 11 95 e4 be
       0.2394636 0.21373288 0.38313583 -0.4464498
000150 d4 0f 20 3e e5 cd 1f 3e 97 01 76 3e e4 1a b8 3e
       0.15631038 0.15605886 0.24024044 0.35958016
000160 86 e0 c5 3d d6 25 53 3e fd f3 b0 be d0 2e 64 3e
       0.09661965 0.20619902 -0.34561148 0.22283483
000170 ae 93 24 3c cc 26 cf be 94 50 24 3e fe 57 ae 3e
       0.010044975 -0.40459287 0.16046363 0.34051508
000180 cf 99 c5 be 41 1e ac be ff a3 92 3e fa 96 d8 be
       -0.3859391 -0.33616832 0.28640744 -0.42302686
000190 9d 9e db be 31 74 db bc 8b 6c cc be 27 3a 09 bd
       -0.4289445 -0.026788803 -0.39926562 -0.033502724
0001a0 62 c6 7e be 69 18 a0 bd 8d 39 d6 be 15 81 b9 be
       -0.24880365 -0.07817156 -0.41840783 -0.36231294
0001b0 30 e9 ba be 8a 90 2d 3d f7 27 64 be 7c e3 cb bd
       -0.36506033 0.04237417 -0.2228087 -0.099554986
0001c0 8e 99 f2 3d 62 74 70 3e 25 5b 9f 3e 58 3e b4 3e
       0.118456945 0.23481897 0.31124225 0.35203815
0001d0 75 42 24 3e ba 69 bb 3d f2 87 bf be 76 56 dd bd
       0.16040976 0.09151025 -0.37408406 -0.10807507
0001e0 52 1d 98 be b8 df 8c bb f4 df a3 be a4 12 f8 be
       -0.2970987 -0.0042991303 -0.320068 -0.48451722
0001f0 26 7f 1a 3d 67 b8 37 bd 18 26 f3 3d 2a 2c a3 be
       0.037718914 -0.044853594 0.118725 -0.31869632
000200 25 ba 80 3e e0 a7 50 be 2f a8 b8 bd ce f4 7d be
       0.25142017 -0.20376539 -0.090164535 -0.24800417
000210 0e e7 c4 3d 57 05 cd be c9 06 df bd e1 82 23 bd
       0.09614383 -0.40043136 -0.10889966 -0.039919738
000220 aa 37 92 be bb 9d 41 3e 92 0d 51 3e 70 b2 d6 3e
       -0.28558093 0.18907826 0.20415333 0.41933012
000230 cb e7 a1 3d a6 93 a2 3d 58 84 08 3e 82 ee 55 3d
       0.07905539 0.07938318 0.13331735 0.052229412
000240 9e 96 06 bd 18 e9 85 3e d4 ce b1 3e bd 37 8c bd
       -0.032858483 0.261544 0.3472811 -0.06846569
000250 22 14 8c bd 4f bb e2 be d8 8b b7 3d 2c f0 97 3e
       -0.068397775 -0.4428353 0.0896222 0.29675424
000260 27 94 b7 3e 0a 2a 3b 3e 59 64 83 3e a2 1f 13 be
       0.3585522 0.18277755 0.25662497 -0.14367536
000270 a5 58 a6 3d 1f 5f 67 3e 24 aa de 3e ad 11 58 3e
       0.08122376 0.2259488 0.43489182 0.21100493
000280 d3 f9 a1 be f9 96 67 3e 56 dd 2b 3e ab 8d 21 be
       -0.31635913 0.22616185 0.16783652 -0.15776698
000290 78 ab 32 be 3d ce 8f 3e 43 27 47 3d 2c f7 ee 3b
       -0.17448223 0.28087035 0.048621427 0.007292649
0002a0 56 bd 66 bd 96 3e dc be 6d e5 71 bd 4d ac 65 3e
       -0.05633291 -0.430165 -0.059056688 0.22429009
0002b0 a5 48 e6 be ec b6 7d 3e b3 71 b0 3e ab d9 16 be
       -0.44977298 0.2477681 0.34461746 -0.14731471
0002c0 88 d3 80 3d f3 60 22 bd 06 63 99 be 45 08 99 be
       0.062903464 -0.03964324 -0.2995836 -0.29889122
0002d0 14 1e 8e 3c a0 6b b8 3e 65 70 0c bd d7 a0 8d be
       0.017348327 0.3601961 -0.034286875 -0.27661774
0002e0 d1 ba d4 bd 16 c1 fe bb 29 d2 02 bf d5 4b df be
       -0.10387195 -0.0077744825 -0.5110193 -0.43612543
0002f0 51 44 7b be 6d ee c7 3e 12 80 9f be 9d ba 92 be
       -0.2453778 0.39049092 -0.31152397 -0.28658
000300 1a 4a e0 be 48 04 fe bd b0 ff 54 3d 9f c3 a4 be
       -0.43806535 -0.1240316 0.052001655 -0.32180497
000310 9e 3c 98 be 77 50 85 be 84 19 22 3c f2 0e 3d 3d
       -0.29733747 -0.26037952 0.009893779 0.04615683
000320 68 41 0d 3e b8 66 1f be dd 04 71 bd 0d 1b 73 be
       0.13794482 -0.15566528 -0.05884253 -0.23740788
000330 50 c4 6f 3e 64 9a 23 be 6c 22 80 be 9b 0f 23 bd
       0.23414731 -0.15976864 -0.25026262 -0.039809804
000340 18 78 26 3e 42 41 fb be 99 6a b7 3e 5a ce ae 3d
       0.1625675 -0.49073225 0.35823515 0.08535452
000350 49 8c cc bd b7 fc 8a bd 36 eb c2 3e c9 e1 d6 bd
       -0.09987695 -0.06786483 0.38070077 -0.10492284
000360 cd e0 ad 3e af 00 ca 3d dc c1 3a be 7b a9 a5 be
       0.33960572 0.09863412 -0.18238014 -0.32355866
000370 74 99 75 3d 3a 22 2e be 67 3e da 3c c1 85 aa bd
       0.059960797 -0.17005244 0.026641084 -0.08326293
000380 a6 fb b8 be bb a6 68 3e cf 4a 9e 3d 52 95 5a 3e
       -0.36129493 0.22719853 0.07729112 0.21346024
000390 28 15 a0 3c 44 40 82 3d d7 53 0e bd 95 0d da 3e
       0.019541338 0.06359914 -0.034747925 0.42588487
0003a0 ff f0 50 3e 03 e9 b9 38 1f f6 a5 3e 99 2d c2 be
       0.20404433 8.864889e-05 0.32414338 -0.37925413
0003b0 5a a3 82 bd 26 69 62 3e 60 2a ab 3e d2 d3 81 bd
       -0.06378813 0.22110423 0.33430767 -0.0633923
0003c0 ed 6b e7 bd 1d 94 d1 3e f3 29 1c be 9b 11 94 3e
       -0.11299882 0.40933314 -0.15250377 0.28919682
0003d0 a9 e3 a6 3d f9 b9 4c bd a0 50 b2 bd 45 ca 91 bd
       0.081488915 -0.049982045 -0.08706784 -0.07118658
0003e0 dc fa 02 3e 72 63 50 be a7 52 5c be d7 15 3e 3e
       0.12791008 -0.20350435 -0.21515904 0.18563019
0003f0 28 1e bb be 2b 4f 3c 3d 10 f0 82 3e 06 12 01 3e
       -0.36546445 0.045973938 0.25573778 0.12604532

encoder.3.bias f4 [16]
000000 cf b9 1a bd 3c 7f 31 3c 9f f2 67 3c 5e 81 50 bb
       -0.037774857 0.010833558 0.0141569665 -0.003181539
000010 96 c5 07 bb e3 05 d0 bc b5 94 15 bd 1e dc 46 3c
       -0.0020717136 -0.025393432 -0.03651877 0.012137441
000020 15 fe 07 3d fc 13 09 3b fe 19 21 bd e8 1e a9 3c
       0.033201296 0.0020916453 -0.03933143 0.02064462
000030 a0 68 0f bb 7e 55 8a 3b a2 9f a2 bb b4 f0 42 3c
       -0.002188243 0.0042216172 -0.0049628774 0.011898208

encoder.6.weight f4 [16, 16]
000000 8c 08 5d 3e 3e e0 ff 3d b1 07 65 3d 1b 64 aa 3e
       0.21585292 0.12493943 0.05591554 0.332795
000010 d6 f5 d8 3d 63 48 d1 3e 8d d6 cc be a8 aa 1d be
       0.105937645 0.4087554 -0.4000744 -0.15397131
000020 4b 18 cf be 3c c9 0e 3e 64 f4 02 3d ec f8 94 3e
       -0.40448222 0.13943952 0.03197135 0.29096162
000030 0a f1 2f be ad 78 ba 3d c1 ae bd be 13 0c 33 3d
       -0.17181793 0.09105048 -0.3704739 0.043712687
000040 ce 2a c6 be aa 74 30 3e 5d ce e3 3e 79 f2 e2 bd
       -0.38704532 0.17232004 0.4449338 -0.11081404
000050 74 1c 99 be 8d 58 24 3e 89 16 bc 3e 37 ed ce be
       -0.2990452 0.16049404 0.36735943 -0.40415356
000060 15 64 8b 3c 72 77 8c 3e a2 83 cc 3e 58 08 b2 3d
       0.017015496 0.2743488 0.39944178 0.08692998
000070 8c 80 43 bd 9d eb 1f be a1 2c eb 3e 69 06 c6 3e
       -0.047730014 -0.15617223 0.45932487 0.38676766
000080 f6 c8 d0 be 28 db 18 bd ff da bd be 2b bb 41 be
       -0.4077832 -0.03731838 -0.37081143 -0.18919055
000090 9b 28 8a 3e ba 14 a6 3e 31 cc c1 bc d4 a8 2c 3e
       0.26984105 0.32437688 -0.023656936 0.16861278
0000a0 4a 68 6e bd b9 bd 82 bd 42 8d 90 3e e2 eb 75 3e
       -0.058204927 -0.06383843 0.2823277 0.24015763
0000b0 6d 45 3d 3e a4 ce d0 be 0f 7d 49 3e 46 7a 9a 3e
       0.18483515 -0.40782654 0.19676612 0.30171412
0000c0 c1 44 f4 3d 92 cb 96 be 1b 60 27 3e 76 fb ce 3d
       0.11927176 -0.29452187 0.16345255 0.10106556
0000d0 e0 6d 92 3d 30 0c c8 bc de 65 f5 3e 2f 39 17 be
       0.07149863 -0.024419874 0.4792928 -0.14767908
0000e0 f8 ce 72 3e 97 c4 8f be 19 91 b9 3e be 52 93 be
       0.23711765 -0.28079674 0.36243513 -0.28774065
0000f0 ec ed 30 bd a1 d6 08 bc 4e 31 b8 bd a0 0b 5d 3e
       -0.04319565 -0.008351953 -0.08993779 0.21586466
000100 df 4c f6 3d b2 4a 00 3d 2e 74 a9 3d 1a 1f a5 3e
       0.12026381 0.031321235 0.08274113 0.3225029
000110 8f 37 47 3d db 87 92 be aa 41 98 3b 56 3b 83 be
       0.04863697 -0.28619274 0.0046464996 -0.25631207
000120 7c 97 2e bc 2a 2c f5 3d 58 d4 b4 bc 86 ae 9b 3d
       -0.010656234 0.11971314 -0.02207391 0.07601647
000130 78 01 cf bd 6e 38 bd 3e a5 9d 82 be 68 99 fa 3d
       -0.10107702 0.36957115 -0.25510898 0.12236291
000140 40 1a 82 3e b6 18 c0 3d ee 3d f0 be 7f ad b5 3e
       0.25410652 0.09379713 -0.4692225 0.3548393
000150 1c 53 af bd 05 00 e9 3e 26 6d 33 3e 60 1a cf bd
       -0.08560774 0.45507827 0.17522106 -0.101124525
000160 a2 bc d7 bd a9 e1 c8 be 89 2a 76 be 0d cf a8 3e
       -0.10534026 -0.39234665 -0.24039663 0.32970467
000170 b7 f0 91 b9 f6 24 98 3e fc 92 27 3e 7d 94 d9 be
       -0.00027835902 0.297157 0.16364664 -0.424961
000180 c1 5e f3 3c a0 08 dd be 9a ba e5 be 3d 12 42 3e
       0.029708268 -0.43170643 -0.44868928 0.1895227
000190 5d 9b ac be 87 8d 59 be 49 f9 c1 be 28 7e 8c 3e
       -0.33712283 -0.21245395 -0.37885502 0.2744
0001a0 cc fc c3 be 53 6d 8b bd 4a a9 4d 3e c2 9e c1 be
       -0.38278806 -0.06807961 0.2008411 -0.37816435
0001b0 5d bc cd be b6 e2 f4 bd 9d bc 57 be d0 a7 87 3e
       -0.40182772 -0.11957304 -0.21068044 0.26495218
0001c0 bb 28 d6 3c 84 40 a8 bd 6c d6 ec 3e d5 9e 24 3c
       0.026142469 -0.082154304 0.4625734 0.010047634
0001d0 8a d5 e8 be f3 09 a8 3e be 5f 51 be b1 67 b1 be
       -0.45475417 0.3282009 -0.20446679 -0.34649423
0001e0 85 13 96 bd d9 18 09 3e 95 0c 84 3d 12 0f 1b bc
       -0.07327942 0.13388385 0.06447712 -0.009464042
0001f0 53 26 3c 3e 41 5c 56 3d 7a 35 c6 3e 3d 73 9b 3d
       0.18373995 0.052334074 0.38712674 0.07590339
000200 f6 68 ab 3e 99 80 0e be 21 59 4f 3e 8f 6a ca 3e
       0.33478516 -0.13916244 0.20248844 0.39534423
000210 7d d8 90 be 57 33 02 bf 10 2d b2 3e 41 0f a7 3e
       -0.28290167 -0.5085959 0.34800005 0.32628825
000220 79 9e 6b be 55 47 cf be 82 6d 27 3e 63 32 89 3e
       -0.23009671 -0.4048411 0.16350368 0.26796255
000230 d9 fc e0 bc 84 ca 8c 3e e5 cc 96 3d 86 26 ca bd
       -0.027464317 0.27498257 0.07363299 -0.09870629
000240 f1 96 31 3e d2 84 a0 be dc c7 ae be 75 3e a5 be
       0.17342736 -0.31351334 -0.34136856 -0.32274213
000250 ca 16 ee 3d 0a 27 8e be 00 b1 bc 3d dc 2e 8c 3d
       0.116254404 -0.2776416 0.092134476 0.06844875
000260 31 31 a9 bd a1 f7 01 bd df 70 17 3e 01 0e c2 bd
       -0.08261336 -0.031730298 0.1478915 -0.09475327
000270 a9 67 44 be 2a 16 a3 bd 06 65 2f 3d 60 96 54 be
       -0.19180168 -0.07963212 0.042820953 -0.20760489
000280 a4 c6 cd be 32 00 31 3e 80 af 81 be 88 f2 ad be
       -0.40190613 0.17285231 -0.25329208 -0.339741
000290 04 53 30 be 4f 76 b1 3c a8 d2 88 be 82 da 45 3c
       -0.17219168 0.02166286 -0.26723218 0.012076022
0002a0 6f 94 4e 3e 20 42 c2 3d bf 7e 53 3e c3 a3 b5 bd
       0.2017381 0.094852686 0.20653819 -0.08869126
0002b0 7d b7 b5 3e 35 da 5d be f2 fc 45 be 19 56 a9 3e
       0.35491553 -0.2166527 -0.19334772 0.330735
0002c0 85 e7 cb be 21 ee 25 be db 96 bb 3e e0 af 88 be
       -0.39825073 -0.1620412 0.3663853 -0.26696682
0002d0 bd c1 a5 3d 05 b7 f2 be 25 c4 3e 3d c7 d9 a7 be
       0.08093593 -0.47405258 0.046573777 -0.32783338
0002e0 4c 83 8c be c1 b8 2a be 50 e3 0b bd af e7 25 be
       -0.27443922 -0.1667204 -0.03415233 -0.16201662
0002f0 e5 05 de bc a5 a3 28 3e 17 5c 93 bd b9 4d 33 3e
       -0.02710242 0.16468675 -0.07195299 0.17510118
000300 33 ae c1 be ef af 83 3e 15 01 45 3c a1 c9 e2 bc
       -0.37828216 0.25720164 0.012024184 -0.027684035
000310 ea 7a d7 be 93 21 fd be 16 62 98 bd 75 13 bb be
       -0.42085963 -0.49439678 -0.074405834 -0.36538282
000320 82 18 42 3d bd 84 28 be 0c 50 2a 3e c4 b8 30 be
       0.047386654 -0.16456886 0.16632098 -0.17257982
000330 2b bf a4 3e c4 9e 31 3e 7c 2d df bd 59 f8 b2 be
       0.321771 0.1734572 -0.10897347 -0.349551
000340 74 b7 68 3e fc 41 00 bd 1e 35 94 3c 23 c1 8b bd
       0.22726232 -0.031312928 0.018091734 -0.06823947
000350 c0 33 67 3e 80 c9 27 be 59 74 56 3e 2d 94 91 bd
       0.22578335 -0.1638546 0.2094282 -0.071083404
000360 68 fe ae 3e b2 93 97 be 22 06 2c be f8 bb e8 be
       0.34178472 -0.2960487 -0.16799214 -0.4545591
000370 17 ce c7 be 5a 9e e1 3e 8f 18 66 3e b0 85 e3 be
       -0.39024422 0.44066125 0.22470306 -0.44437933
000380 99 b5 4b bd 1e de 71 be 5e b8 42 3e 5d e5 b7 3e
       -0.049733732 -0.23619887 0.19015643 0.35917178
000390 b9 0e 39 be cc 7a b2 3e 21 ff 84 3e e7 a0 9a 3e
       -0.18072022 0.34859312 0.25975898 0.30200884
0003a0 7d d1 17 3d f9 70 4b be 4e 39 3e be 29 dc ed 3d
       0.037065018 -0.19867314 -0.18576548 0.11614258
0003b0 f1 f1 10 bd fb 45 83 3e 1e fa 7f 3e 1c 1b 80 bc
       -0.035386983 0.25639328 0.24997756 -0.015637927
0003c0 e6 c1 a6 be de 06 a5 be 11 47 87 3d 31 7c 4a be
       -0.32569808 -0.32231802 0.06605352 -0.19773938
0003d0 06 bc cd bd b9 90 8f 3e ac 96 c3 3e af 13 bd 3e
       -0.10045628 0.28040102 0.3820089 0.3692908
0003e0 4e 6b ce bd f1 82 2b be 2d e2 1f be cf 74 3d 3e
       -0.100790605 -0.16749169 -0.15613623 0.1850159
0003f0 cc 77 a5 be 0a bf 73 be d3 00 8a be 7e 33 1e 3c
       -0.3231796 -0.23803344 -0.26953754 0.009655831

encoder.6.bias f4 [16]
000000 98 11 c4 39 79 ae 8f 3c d7 c5 58 bc 52 51 4a bd
       0.00037397142 0.01753925 -0.013230762 -0.04939396
000010 52 01 a6 3d 48 5e 2b 3c ce fc 0e bd b7 0b 70 ba
       0.081057206 0.01045949 -0.034909062 -0.0009157019
000020 da 92 94 3b 54 9a db bc 87 a2 f7 3c 6d b9 24 bd
       0.0045341076 -0.026806988 0.030228866 -0.0402159
000030 f8 00 f3 bb 4c 33 48 3c 33 66 0a bd 95 99 13 3c
       -0.007415887 0.012219261 -0.03378887 0.009008785

encoder.9.weight f4 [16, 16]
000000 e9 b1 aa bd 36 4a 7d bb 21 64 37 be 8b 0c 13 be
       -0.08334715 -0.003864897 -0.1790929 -0.14360254
000010 10 94 8b be c9 07 ba 3e d4 2d 5b 3e 9f 6c d4 3c
       -0.272614 0.36334065 0.21404201 0.0259307
000020 07 5b 09 3e 1f bf d2 3e 08 a2 a9 be 3c ec 91 3e
       0.1341363 0.4116144 -0.33131433 0.28500545
000030 6c f6 32 be 8b 43 0f 3e 48 a0 4b 3e 9a a9 55 3e
       -0.17476815 0.1399061 0.19885361 0.20865479
000040 89 53 df 3d 27 72 82 3d 0f 25 f4 3d 68 62 ee bd
       0.10904605 0.06369429 0.11921131 -0.11639863
000050 c6 bd 10 be 06 ed ec bc 15 71 33 3e 03 ea db 3b
       -0.14134893 -0.028921615 0.17523606 0.006711246
000060 49 a5 0b be 26 85 8a be 8f 5b ea bd 75 98 c2 3e
       -0.1363727 -0.2705471 -0.11443245 0.3800694
000070 3f 7f 14 bd c4 70 90 bd 35 d5 bf 3d 15 41 4e be
       -0.036254164 -0.07052758 0.09366838 -0.20142014
000080 40 1d a9 3e 06 54 ca be 92 09 8b bd 93 e9 98 be
       0.33030128 -0.3951723 -0.06788935 -0.29865703
000090 1f 98 41 be 72 4f b4 3d e5 71 77 3e 31 82 09 3e
       -0.18905686 0.088042155 0.24164541 0.1342857
0000a0 40 d9 31 3e b1 7c 5b 3c c0 0f 69 be 98 12 86 3e
       0.1736803 0.013396428 -0.22759914 0.2618606
0000b0 0b fe be 3d 25 f0 a0 be 76 03 c5 3e 9f f6 e5 3e
       0.093257986 -0.31433216 0.38479203 0.4491472
0000c0 de a0 3b be 2d 10 bd 3e d3 16 29 3e 16 bd 3d 3e
       -0.18323085 0.36926404 0.16512613 0.18529162
0000d0 47 3d 06 3e 48 98 6b be ae 3f 1e be 99 d8 6a 3e
       0.13109313 -0.2300731 -0.1545398 0.22934188
0000e0 d2 fe 8a bd c0 37 1f bd 3a 4c d5 3d 94 74 e3 be
       -0.06786884 -0.038871527 0.1041493 -0.4442488
0000f0 1a 24 98 be d4 0c ca 3c 5f c2 8f bc 5f 7d 50 be
       -0.29715043 0.02466432 -0.017548738 -0.20360325
000100 07 01 76 bd 26 17 c4 3e c3 df ef 3d a7 68 8b 3d
       -0.060059574 0.3829891 0.11712601 0.0680707
000110 92 df 8b be 12 62 d9 be a0 85 29 bc ea b1 f1 bc
       -0.27319008 -0.42457634 -0.0103468 -0.029503781
000120 f8 37 5d 3e 3b 6c 7e 3d 53 1f 90 3e ac 9a d2 bd
       0.21603382 0.062114935 0.28148898 -0.102834076
000130 35 a8 39 be 40 3b 8a 3d 82 e1 9c be a2 92 da 3e
       -0.18130572 0.06749582 -0.306408 0.42689997
000140 e2 68 ad 3c 5f 64 a3 3d 95 60 10 3e d9 65 b4 bd
       0.021168176 0.07978129 0.14099343 -0.088084884
000150 26 b9 1f 3e f7 58 45 be af 14 9f bd e0 7c 65 3e
       0.15597972 -0.19272219 -0.07767617 0.22410917
000160 50 72 fa be 43 d8 8b 3e 4e 15 02 3d dd 12 bc be
       -0.4891534 0.27313432 0.0317586 -0.36733142
000170 7d 31 9d 3e c3 a4 83 be 78 e4 3d 3e 81 fb 20 3e
       0.3070182 -0.2571164 0.18544185 0.15720941
000180 a3 4b 85 3e 2f 77 65 be 26 4c 01 bd 85 a2 7d 3c
       0.2603427 -0.22408746 -0.03156676 0.015480642
000190 92 38 f8 3d 8d ad 67 3d 98 e5 1e 3d da 12 b7 be
       0.12120165 0.056561995 0.038793176 -0.3575657
0001a0 76 d6 eb 3e a6 51 c5 3e fd 26 1a 3d ff 03 d7 3d
       0.46062058 0.38538855 0.03763484 0.10498809
0001b0 fc 3a 8d 3e c2 a7 25 bc 42 bd b4 3e 61 87 40 3e
       0.27584064 -0.010110797 0.35300642 0.18801643
0001c0 95 bd b9 be cc 16 a4 3e c2 a9 a3 3e 5c 07 58 be
       -0.36277452 0.32048643 0.31965452 -0.21096557
0001d0 d8 bf 38 bd 72 53 7c be ac 7a e8 bd 64 44 c5 3e
       -0.04510483 -0.24641207 -0.11351523 0.3852874
0001e0 18 8c cf be 39 7b 24 be 2f 50 12 3e 1c ed e2 3d
       -0.4053657 -0.1606263 0.142884 0.11080381
0001f0 b2 d1 be be 21 df a6 be 17 db 0a 3d 08 e1 d9 be
       -0.3726936 -0.3259211 0.033900347 -0.42554498
000200 51 83 cf 3e 01 ae a5 bd 5d fa 0c bb 75 fa fd 3d
       0.40529874 -0.08089829 -0.0021511533 0.124012865
000210 5d a2 a2 3e 64 5c 88 be a8 de 45 be 33 6d a4 3e
       0.31764498 -0.26632988 -0.19323218 0.32114562
000220 a4 ff 4e be 64 fa 82 3e ab 56 ba be 7b 47 d0 3e
       -0.20214707 0.25581658 -0.36394247 0.40679535
000230 f0 2b 99 3e 52 6e 66 3d fb 8c 54 3e 1e b2 44 3e
       0.29916334 0.056257553 0.20756905 0.19208571
000240 8e 8e 51 be b0 69 1f be 85 cf e5 3e 07 4a 09 3e
       -0.20464537 -0.1556766 0.44884887 0.13407145
000250 f9 80 4e 3e a2 d1 c4 3e 5d 8b 87 be 71 18 9b be
       0.20166387 0.38441187 -0.26473513 -0.30292085
000260 af b2 a5 3e 3d 99 95 bd e9 46 ec be 86 19 b8 bd
       0.32362887 -0.073046185 -0.4614785 -0.08989243
000270 56 9c 40 3e 79 24 94 3e 3d a0 84 bd 50 fc 8f 3d
       0.18809637 0.28934076 -0.064758755 0.07030547
000280 f3 8f 86 be 07 88 9a 3e c9 88 f3 3e 21 3d 98 3e
       -0.262817 0.30181906 0.47565296 0.29734138
000290 62 a9 06 3e a4 62 aa be 55 3d 7d 3e 17 19 36 3e
       0.13150552 -0.33278382 0.24730428 0.17783009
0002a0 a5 45 02 3e 7b 60 d6 3d db f0 f4 bd 3a d1 df 3e
       0.1272188 0.10467621 -0.11960002 0.43714315
0002b0 a3 f9 03 be 0a d3 13 3b be cd 96 3e 2b 55 f2 bd
       -0.12888198 0.002255621 0.29453844 -0.11832651
0002c0 e8 a9 46 bc a3 b5 89 3d dc 47 03 3e 3e fd b5 bd
       -0.01212547 0.067240976 0.12820381 -0.08886193
0002d0 04 a1 e2 3d aa 9f 2a be e7 68 31 be 05 33 a0 3e
       0.110658675 -0.1666247 -0.17325173 0.31288925
0002e0 d4 e9 fd bd 13 a9 2f be f5 3e c7 3c e1 f2 81 3e
       -0.12398115 -0.1715434 0.024322012 0.25380614
0002f0 64 14 c7 3d 48 db 9f be 8f ec 98 3e 9d 1c c1 3e
       0.09720686 -0.31221986 0.2986798 0.37717143
000300 71 88 27 be ea 6b cb be 14 23 0b bc dc f6 7d be
       -0.16360642 -0.3973077 -0.00849225 -0.248012
000310 27 9d ca 3d be 25 71 3e ff b2 a4 bd 77 26 84 3e
       0.09893256 0.23549554 -0.08041953 0.25810596
000320 16 94 45 be e5 c7 07 be 12 4c 9f be 54 e5 e6 be
       -0.19294772 -0.13259847 -0.31112725 -0.45096838
000330 68 b7 3b 3e 9c 19 be bd c9 ef 16 3e f1 80 4a be
       0.18331683 -0.09282228 0.14739908 -0.1977575
000340 fa e1 4e be 4f 92 47 bd 6f 2d e0 3e a6 4e c7 be
       -0.2020339 -0.048723515 0.43784663 -0.38927191
000350 f3 b8 ab be b0 b0 0d bd 76 8f 44 3e 31 dd 04 3d
       -0.33539543 -0.03459233 0.19195351 0.032437507
000360 0f a8 ab be 83 1c 5c be 64 04 6f bd e7 a2 31 be
       -0.33526656 -0.21495251 -0.058353797 -0.17347299
000370 8d 51 ba 3e 28 05 ee be e1 80 fa bc 9f 0b 8e 3e
       0.36390343 -0.4648831 -0.030579032 0.2774324
000380 df 2d fd bc 31 ba 87 3d 12 0a a2 3d 0c d5 5a be
       -0.030905662 0.0662731 0.07912077 -0.21370333
000390 9f ff cf be b0 91 78 bd 49 c2 64 3d cc 5d 81 bd
       -0.4062471 -0.060685813 0.055849347 -0.063167185
0003a0 e2 e8 77 3e 2e 7c e2 3e b6 0a f4 bd 6d 56 a6 bd
       0.24209931 0.44235367 -0.119161054 -0.08121953
0003b0 54 bc b3 3d 30 b2 58 3d 77 5a 62 be 47 5b ab 3e
       0.08776155 0.052904308 -0.22104822 0.33468077
0003c0 aa 69 d2 3e 1d c5 40 3d de 49 1c 3c 70 47 b6 3e
       0.4109624 0.047062982 0.009539096 0.35601377
0003d0 49 5d 31 3e 2b f7 b5 be e3 b6 0e 3d db fc 40 3d
       0.17320742 -0.35540137 0.034842383 0.04711614
0003e0 d1 a4 36 bd 8e 59 ad 3e 45 22 fc be 32 c7 6b be
       -0.044590775 0.33857387 -0.49244896 -0.23025206
0003f0 2c a4 b7 3e 50 ef c7 3e 1b aa 54 be bb bd 82 3e
       0.3586744 0.39049768 -0.20768015 0.25535378

encoder.9.bias f4 [16]
000000 38 ed 14 3c 9c 9d 81 bc c0 60 a3 bc 7e f4 55 bb
       0.0090897605 -0.015822224 -0.019943595 -0.003264695
000010 e0 0e da ba b6 ab 1a bc 49 b9 40 3b ec 15 6f bc
       -0.0016636513 -0.009440353 0.0029407314 -0.014592629
000020 56 4a 6e 3c e0 32 08 3c 6a 6a f5 3b ab 35 a3 3c
       0.01454409 0.008312911 0.007489492 0.019923052
000030 4e 3e f4 bc 67 26 c5 3a 29 32 cb 3c b6 1c 38 3c
       -0.029814865 0.0015041352 0.024804192 0.011237314

pretraining_head.0.weight f4 [16, 16]
000000 c4 d9 7d be d5 fe 24 3e d1 94 83 3e 40 44 08 bf
       -0.24790102 0.16112836 0.25699475 -0.5322914
000010 22 48 ad 3e 3f da c1 be 29 bf 26 3e e5 f5 04 bd
       0.33844095 -0.3786182 0.1628386 -0.032461066
000020 38 f2 72 be 30 4e 1f bc b7 21 1e be ab 61 c3 3e
       -0.23725212 -0.009723231 -0.15442549 0.38160452
000030 ae 82 af bd 3b c5 c7 3e 5f 5b 93 3e 9a 4b 94 be
       -0.08569847 0.39017662 0.28780648 -0.2896393
000040 b4 9b 03 be 90 af ba 3e ee 0f 8d bc 23 91 c0 be
       -0.12852365 0.3646207 -0.01721951 -0.3761073
000050 de 8d bf 3e 5a d0 05 3e 1b 58 c0 3d 77 73 49 3e
       0.37412924 0.13067761 0.09391805 0.19672953
000060 e4 91 51 be 58 8e b9 3d 0d 0d bd be c4 f0 14 3e
       -0.20465809 0.09060353 -0.3692402 0.1454497
000070 34 57 a8 3e a4 54 b4 be 0c 4d a8 3e 6a a5 d7 3d
       0.3287903 -0.35220826 0.32871282 0.10529597
000080 bf 0a a1 3d 1d 1e a9 3c 89 d5 bc 3e a4 56 35 bd
       0.07863378 0.020644242 0.36881664 -0.04427208
000090 bf e8 b2 3e b2 10 9c 3e 84 95 d4 bd 93 88 b2 be
       0.34943196 0.30481488 -0.1038008 -0.34869823
0000a0 51 f8 86 be 4d 74 a6 3e c8 06 d6 be da 60 b8 3e
       -0.26361325 0.32510605 -0.4180205 0.36011392
0000b0 66 2e c7 3e e8 f2 d0 be 24 43 84 be 56 d6 ae 3e
       0.38902587 -0.40810323 -0.25832474 0.341479
0000c0 ad fc d1 bd ca 4b 35 be 59 d4 b9 be 9e c0 96 be
       -0.10253272 -0.17704692 -0.3629482 -0.2944383
0000d0 ed e4 8a 3e 6d ab d6 bd 59 ce e7 be 1c 40 8a 3e
       0.27127782 -0.104819156 -0.45274618 0.27002037
0000e0 5f 94 d0 3e 83 84 da be 54 60 99 3d fc cf bf 3e
       0.40738198 -0.42679223 0.07489076 0.37463367
0000f0 b8 3b 80 3b 6f 98 9e 3b 17 fb aa be 29 53 6b 3d
       0.003913369 0.004839949 -0.3339469 0.057452355
000100 0d 4e 61 bd 10 97 c9 bd f9 31 b6 3e 41 f7 93 3e
       -0.055006076 -0.09843266 0.35585 0.28899577
000110 1d e7 92 3e 58 c6 5f bd a6 d7 ed bc b8 9e 8d 3e
       0.2869195 -0.054632515 -0.029033493 0.27660155
000120 c1 3f b5 3d b6 35 28 3d 4f ed 36 be 2a 2b da be
       0.08850051 0.041066848 -0.17863964 -0.42611057
000130 53 20 83 3e 92 d5 8a be de cd 51 bd f3 b7 d2 bc
       0.256106 -0.27116066 -0.05122172 -0.02572248
000140 25 0c 03 be 5f 0e d6 3e e3 57 6a 3e 1d e5 75 bd
       -0.12797602 0.4180784 0.22885089 -0.060032953
000150 38 12 5f be 08 43 8d be d3 3a 86 3e f7 21 03 3e
       -0.21784294 -0.27590203 0.26216754 0.12805925
000160 b4 dd 07 bf 94 bd 96 be 11 91 af bd 8f 8b 95 be
       -0.5307267 -0.29441512 -0.08572591 -0.29208037
000170 2e 6e 74 be 07 bc fc 3e f5 19 21 be 87 c4 c6 be
       -0.23870155 0.49362203 -0.15732558 -0.38821813
000180 d8 89 e9 bd 66 b8 94 3e 32 28 85 bd 20 d8 a1 3e
       -0.11403245 0.29046935 -0.06501807 0.31610203
000190 6e 77 b0 3e fc e1 37 be c2 67 5d be 2c a8 88 bd
       0.34466118 -0.179573 -0.21621612 -0.06672701
0001a0 e2 f5 80 3e 97 e0 b9 be 7a 60 aa bd d6 4f 25 3a
       0.25187594 -0.3630416 -0.08319183 0.0006306147
0001b0 c0 2e 82 3e fd 5e 93 3e ac 34 b8 be ed 4e bd 3e
       0.25426292 0.28783408 -0.35977685 0.36974278
0001c0 c3 04 4f 3e 02 cb 86 be 09 44 33 3e 9e f1 67 bd
       0.2021666 -0.26326758 0.17506422 -0.05662691
0001d0 06 24 7f 3d 94 d9 65 3e 76 35 24 3d 3c cc aa 3e
       0.062290214 0.2244628 0.040090047 0.33358943
0001e0 d8 90 89 be ad 2e f5 3d b9 b6 12 be 39 87 a6 3d
       -0.2686832 0.11971793 -0.14327516 0.081312604
0001f0 1f 5c bb 3e 83 bd 58 be 47 01 1f 3e 38 d8 56 3e
       0.3659372 -0.21166043 0.15527831 0.20980918
000200 f0 1d a0 3d b1 e4 60 be 03 07 1a 3e f4 1a 42 be
       0.0781821 -0.21962239 0.15041737 -0.18955594
000210 ec 2d 8f 3d 71 f1 4d bd 2e b2 db bd 4d 1e 94 be
       0.06991181 -0.050279085 -0.107273445 -0.28929368
000220 f4 a1 a4 3e f8 96 5f 3e c6 0e a3 be 0b 72 50 3e
       0.3215481 0.21834934 -0.3184721 0.20356004
000230 c3 7d 24 3e 9b 94 56 be fd 37 60 bd 60 7e 69 3d
       0.160636 -0.20955126 -0.054740895 0.057005286
000240 79 82 1f 3e f3 e8 d1 be 80 ee b3 3e 23 af cf be
       0.15577115 -0.4099804 0.351429 -0.40563306
000250 6b ad c1 3e 33 d4 35 be ab 3e 85 3e 61 5c 6a 3e
       0.3782762 -0.17756729 0.26024374 0.22886802
000260 e8 95 36 be e9 95 4f be 42 d6 cf bc ee 7d 4b bd
       -0.17830622 -0.2027203 -0.02537072 -0.049680643
000270 dd f7 b1 bd bc 82 f3 3d 72 2b e9 3e 05 7f d3 3e
       -0.08689854 0.1189017 0.4554096 0.41307846
000280 00 1d 05 be 5e 4f ad be e9 3d 56 3d 30 24 8e bd
       -0.12999344 -0.33849615 0.052305136 -0.06940496
000290 b8 d5 6f 3e ed 64 66 3e 37 86 2f bd c9 b0 b6 3e
       0.23421371 0.22499438 -0.042852607 0.3568175
0002a0 b1 4d 8d be e4 16 37 be c1 d5 cb be 3c 96 de bd
       -0.27598336 -0.17879826 -0.3981152 -0.10868499
0002b0 3a 2f b2 3e 09 bb fe bd 87 93 c3 be 77 b9 f3 3d
       0.34801656 -0.12438018 -0.38198492 0.11900609
0002c0 6e 30 d6 3d 31 93 69 3e dd 8e ee bc dd 9c ee 3e
       0.10458456 0.22810055 -0.029120857 0.46604052
0002d0 be 26 2a 3e 00 59 62 be fc cd 15 bf b0 95 92 3e
       0.16616341 -0.22104263 -0.5851743 0.28629827
0002e0 3e 08 bc be 14 85 2b 3f 5d ad d6 3e ec 5d 75 bc
       -0.36725038 0.66999936 0.4192914 -0.014976006
0002f0 dc 15 73 3e 24 2a 2b 3f 90 34 fd 3e ef 02 6d bd
       0.23738807 0.66861176 0.49454165 -0.057864126
000300 84 e5 86 3e 96 1f f6 bd b1 38 71 3d 1c 95 dc be
       0.26346982 -0.12017743 0.058891956 -0.4308251
000310 87 b9 a7 be de c2 79 be 8c 0f 24 3e 83 6c 17 be
       -0.32758734 -0.24390742 0.16021556 -0.14787488
000320 0b 2a 7d 3e c4 e1 6d 3d c9 4d b7 be 84 ac d0 3d
       0.2472307 0.058076635 -0.35801533 0.10189155
000330 2c bc 3d 3e 60 f0 c7 be 91 d3 3c bd fb 56 e7 3e
       0.18528813 -0.3905058 -0.046100203 0.45183548
000340 fe e0 ad be fd 43 36 be 11 53 0b 3e 8e a6 48 3d
       -0.33960718 -0.17799373 0.13605906 0.048986964
000350 46 95 22 be 97 99 c6 3e 6c 55 08 bf 26 b4 01 3e
       -0.15877256 0.38789055 -0.53255343 0.12666377
000360 05 9e 88 3e 1c 96 cc be b5 df 58 3e 2d 81 a2 be
       0.2668306 -0.39958274 0.21179087 -0.31739178
000370 88 5f 1b be 7d 41 b5 bd f6 f7 8e 3e b1 67 62 3e
       -0.15173161 -0.088503815 0.27923554 0.22109868
000380 2c 56 3f be 61 e7 aa be b9 8a a5 be 0c b5 d7 3e
       -0.18685216 -0.33379653 -0.323324 0.42130315
000390 bb 04 a4 be e0 41 41 3e bd c7 d1 bd 43 44 f1 3e
       -0.3203486 0.18872786 -0.10243175 0.47122392
0003a0 e9 52 bf be ab 18 0a bf 6c fc 3f 3d f3 a5 b6 3e
       -0.37367943 -0.5394389 0.046871588 0.35673484
0003b0 89 86 e2 3d de 88 ba be 5f 01 8a bd af 54 67 3c
       0.11060817 -0.36432546 -0.06738543 0.014119311
0003c0 ad 49 be 3e f7 8b a9 be bf 37 bd 3d de 1a 98 bd
       0.37165585 -0.33114597 0.09239148 -0.074269995
0003d0 90 70 c5 3d a3 f2 12 be 56 ff 62 3e 75 c7 ad bc
       0.0964061 -0.14350371 0.22167715 -0.021213273
0003e0 a7 a3 ae 3e 32 56 9c 3d e7 75 a8 be 84 c7 38 be
       0.34109232 0.07633628 -0.32902452 -0.18044859
0003f0 b6 82 e4 3d d1 5d 1a 3c 25 7d ac be 94 6e 67 3e
       0.11157744 0.009421782 -0.33689228 0.22600776

pretraining_head.0.bias f4 [16]
000000 40 88 ae 3b db 6f 7b bc 0b e5 13 3d 07 bc f5 3b
       0.005326301 -0.015346493 0.036107104 0.0074992212
000010 98 b9 f8 bc 71 7a 28 bd 23 76 9d 3c af 44 61 bd
       -0.030361935 -0.041132394 0.019221371 -0.054997142
000020 eb 6c 41 3c 01 12 1f bb c2 ea 0c bd 68 01 98 bd
       0.011805753 -0.0024272206 -0.03440357 -0.07422143
000030 86 9f a0 3c 0d 8b e4 3b ef 40 08 3d eb 8e 8f 3c
       0.019607317 0.006974584 0.03326505 0.017524203

pretraining_head.3.weight f4 [16, 16]
000000 7b bb cb be 45 88 85 3e 62 8b 19 3e f5 53 9e be
       -0.39791474 0.26080528 0.14994577 -0.3092343
000010 26 ef 94 3e bc c3 27 be 2a d2 3c be f7 49 a9 3d
       0.29088706 -0.1638326 -0.18439546 0.08266061
000020 a8 a9 fa 3c 78 8d 4a 3d 9a c6 b2 be 5d cf 0b 3f
       0.030598477 0.04945132 -0.34917146 0.54613286
000030 11 45 11 3f 23 2a 3b be 7a 08 90 be 63 98 45 be
       0.5674601 -0.18277793 -0.28131467 -0.19296412
000040 35 ef be 3e ec fd 2b 3e 98 fc 8f be 1b d6 b9 3d
       0.37291875 0.16796082 -0.281224 0.090740405
000050 e4 81 5d 3e c3 64 e3 bd 9a f7 11 3e 46 19 9b 3e
       0.2163158 -0.11103203 0.14254609 0.3029272
000060 0c 79 1c 3e 30 73 de bc 5c b7 67 3e d9 e1 cc be
       0.1528055 -0.027154535 0.2262854 -0.40016058
000070 fb 0b ba be 17 bc 66 3e 89 df 85 3e 7a 27 ef 3c
       -0.36337265 0.22532688 0.26147106 0.029193629
000080 1f b3 c0 3e ac 7a 76 3e c8 b1 45 3e 4c 3a a1 be
       0.3763666 0.24070233 0.193061 -0.3148979
000090 9a f3 c4 be 15 06 cc be 4c ef 0e 3e f9 b5 c1 3e
       -0.38467103 -0.3984839 0.13958472 0.37834147
0000a0 09 a0 b0 bd da 2f e5 3d 53 eb 05 3e 02 f1 06 3e
       -0.08624274 0.111907676 0.1307805 0.13177875
0000b0 81 08 1f be df 51 1e bd c3 77 41 3d 21 96 d9 3e
       -0.15530588 -0.038652297 0.047233354 0.42497352
0000c0 92 3f 4b be 57 7a a7 3e 25 71 2a be f3 9f 67 3e
       -0.19848469 0.32710525 -0.16644724 0.2261961
0000d0 29 dc 0c 3e 92 a6 d7 3e bc 3d 78 3e 3f be 67 bd
       0.1375586 0.4211927 0.242423 -0.056577917
0000e0 b0 ce 4f bd 5c f2 76 be 1f 00 40 3e 9a fc 42 bf
       -0.050734222 -0.2411589 0.18750046 -0.7616669
0000f0 cf ba 06 bf 22 6e d5 3e bb 57 f2 3e 63 39 78 be
       -0.526288 0.41685587 0.47332558 -0.24240641
000100 f4 f9 cf 3e b3 8e 53 3e 54 29 77 3e b0 78 63 3e
       0.40620387 0.20659904 0.24136859 0.22214007
000110 67 53 51 3e 06 2c 3c be fa 93 f8 3d 5e fd de 3d
       0.20441972 -0.18376169 0.12137599 0.1088817
000120 27 da c3 be 42 8e d4 bc b3 32 23 3e 1b 0c 14 bf
       -0.38252375 -0.02594674 0.15937309 -0.5783097
000130 e6 3b 9a be f4 a9 ac 3e 10 71 aa 3e f6 03 b7 be
       -0.30123824 0.33723414 0.33289385 -0.3574521
000140 ad c5 d7 3b b8 0a 70 bd 21 10 73 bd 2e 96 79 3d
       0.006584844 -0.058603972 -0.059341554 0.060934238
000150 c3 17 09 3e a1 52 dc 3e 84 ab 75 3e 86 99 8f bd
       0.1338797 0.4303179 0.2399121 -0.07011704
000160 83 44 5d bd d3 80 c0 3e 56 26 c7 3e 12 5b e5 be
       -0.054020416 0.37598285 0.38896435 -0.44796044
000170 06 b2 c7 be 21 85 55 3e 2d 72 a2 3e 72 78 25 bc
       -0.3900301 0.20851566 0.31727734 -0.010099517
000180 eb 2c 91 3e dd 7c 35 be e3 9c b0 bd 6d c9 d4 be
       0.28354582 -0.17723413 -0.08623674 -0.41559926
000190 49 fc 92 be e1 3d a7 be 5e 8a 76 be c0 44 02 3d
       -0.28708103 -0.32664397 -0.2407622 0.031803846
0001a0 0a 25 8b 3e f4 f0 df 3d 9f f7 87 be 9d 6e 17 3f
       0.27176696 0.1093463 -0.26556107 0.5915316
0001b0 1b 9e ab 3e a5 08 d1 bd f7 64 8d be c6 0f 92 3e
       0.33519062 -0.10206727 -0.27616093 0.2852766
0001c0 da f0 82 be 43 b4 bf 3e bf cb 4e be ac b3 9d bd
       -0.2557438 0.37442216 -0.2019491 -0.07700285
0001d0 5d 5e 9b 3e 14 38 c0 3d 3c b3 43 bd fd 1e a8 be
       0.3034543 0.09385696 -0.047778353 -0.32836142
0001e0 39 60 06 3e 26 34 27 bc 24 6b 94 3e 08 80 76 be
       0.13122644 -0.010205304 0.28987992 -0.24072278
0001f0 f8 7d 8b be fc 82 b4 3e 84 d0 49 3e db b9 d6 3d
       -0.27244544 0.35256183 0.19708449 0.10484668
000200 17 ec 69 3e 49 a5 a4 be 5f ad c7 be 0d a5 bc 3e
       0.22843967 -0.32157353 -0.3899946 0.36844674
000210 0d b4 8c be 95 5d 5d bd b2 69 d6 3e 5f 93 80 3e
       -0.27481118 -0.054044325 0.41877514 0.25112435
000220 95 b8 42 3e d1 c6 bd 3e dc 72 56 3d 55 cc 10 bf
       0.19015725 0.37065747 0.052355632 -0.56561786
000230 55 ff b9 be e7 4a 5b bd 5d 9a 96 3e 19 b5 55 be
       -0.36327615 -0.05353823 0.29414645 -0.20869865
000240 71 e9 f4 bd 04 9e 88 3d 9b a5 42 be e5 fd 99 be
       -0.11958588 0.06670764 -0.19008486 -0.3007652
000250 5b d1 30 be 31 f5 63 be c0 b3 15 be 54 f5 82 be
       -0.17267363 -0.22261502 -0.1461935 -0.25577796
000260 ee cf 95 3e 29 d1 41 bd 4b 92 4c bd 0b 71 b1 3e
       0.292602 -0.04731861 -0.049944203 0.34656557
000270 7b b6 91 3e bf f3 5f bc 6b b3 0e be a6 ee 7b 3b
       0.28459534 -0.013668953 -0.1393563 0.0038441806
000280 d7 b8 97 3d 39 24 43 be d3 c3 52 3e 1d 51 8d 3c
       0.07408302 -0.19056787 0.20582514 0.017250592
000290 2a dc 33 be cf 5b 19 be d4 76 7d bd 7e 04 70 bd
       -0.17564455 -0.14976428 -0.0618809 -0.058598034
0002a0 99 f7 70 be be b3 cc be f9 04 9f 3d 62 86 29 be
       -0.23531951 -0.39980882 0.0776462 -0.16555169
0002b0 78 d8 37 be a2 5f 5f 3e e1 04 d6 3d fd af 84 3d
       -0.1795367 0.21813825 0.10450149 0.064788796
0002c0 a0 30 cd be 08 1e 15 3e 80 e4 af 3e 3d a0 ae be
       -0.4007616 0.14562237 0.3435402 -0.34106627
0002d0 ce 33 9e be 72 e1 97 be e1 8f ca be 36 d0 ab 3e
       -0.308989 -0.2966419 -0.39562896 0.3355729
0002e0 75 54 02 be 76 32 96 be 55 af 9f be 2a bb 28 3f
       -0.1272753 -0.29335374 -0.31188455 0.6591059
0002f0 b3 40 c6 3e 2c ea af bd c8 13 bd be 39 9f a2 3e
       0.38721237 -0.085895866 -0.36929154 0.31762102
000300 55 2a 7c be d7 44 87 3d 0e ba 79 be 0a f5 c2 bd
       -0.24625523 0.06604927 -0.2438738 -0.09519394
000310 49 21 f5 be 9c 37 55 3e c5 50 35 be 62 f6 03 be
       -0.47876957 0.20821995 -0.17706592 -0.12886956
000320 b5 d9 a3 3e 46 e3 29 be 61 3f b8 be 52 37 c2 3e
       0.32002035 -0.16590604 -0.35985854 0.3793283
000330 ed 2b 9c 3e 8b ce 2c be 02 87 7e be 97 e3 54 3d
       0.30502263 -0.16875665 -0.24856189 0.05197486
000340 db 06 b3 3e e0 ba 65 3e 93 a1 83 be af 13 af bc
       0.34966168 0.22434568 -0.2570921 -0.02137169
000350 e8 a8 55 be b4 3a cd bc ee d9 0f 3e b1 d5 4a be
       -0.20865214 -0.025052406 0.14047977 -0.1980808
000360 75 20 30 3e 41 02 d6 3e ef b8 c8 bd 20 96 97 be
       0.17199881 0.41798595 -0.09800898 -0.29606724
000370 5c d8 a4 be 15 95 4b 3e 00 3b 6e 3e 6d 3f d2 3d
       -0.3219632 0.19881089 0.23264694 0.10266004
000380 e6 34 03 bc b7 d1 45 be 30 9e 91 3e 78 66 b6 3d
       -0.008008217 -0.19318281 0.28441 0.08906263
000390 cc c5 bd be 94 d3 d5 3e d4 7c 3a bd 4c 47 a6 be
       -0.3706497 0.41762984 -0.0455292 -0.3247627
0003a0 53 00 ac be 1f 0f a4 bd d6 87 d3 3c 87 20 7a be
       -0.33593997 -0.080106966 0.025821608 -0.2442647
0003b0 10 c3 cb be f4 b2 6f 3e b2 70 08 3e fe 18 af 3e
       -0.39797258 0.23408109 0.1332424 0.34198755
0003c0 b9 60 f7 bd fc 7c ab 3e 3b b9 2a be 20 7d be 3d
       -0.12078995 0.33493793 -0.16672222 0.093012094
0003d0 aa 87 c3 3e 82 c4 a5 bd 01 22 ab 3d f5 91 8c 3e
       0.3818944 -0.080941215 0.08356095 0.27455106
0003e0 5e 7a 47 3e 4d e0 2c 3e 13 e5 ca 3b dc 28 4d 3e
       0.19480273 0.16882439 0.0061918586 0.20035118
0003f0 ae 77 d9 3d 29 82 b5 be df 99 2f be 36 de 0b 3e
       0.1061853 -0.35450867 -0.17148541 0.13658985

pretraining_head.3.bias f4 [16]
000000 90 42 c3 3b 99 c6 8c bb d8 86 c1 3a b2 4d 06 bc
       0.0059588626 -0.0042961356 0.0014764918 -0.008197235
000010 7e 57 cc bb cb 9e 9c bb 6d f0 d3 3b 94 22 27 bb
       -0.006236016 -0.004779672 0.00646787 -0.0025502788
000020 46 eb c9 bb 61 cc 79 3b 03 a1 ea ba 72 eb e9 3b
       -0.00616208 0.0038116204 -0.0017900768 0.007138663
000030 14 f4 85 3b 61 22 4e bb 52 02 2f bb 85 e2 09 3b
       0.0040879343 -0.0031453597 -0.0026704264 0.0021039557
