trained_models/cylinder-bands_cls_corr.pt (torch, 19297 bytes, 12 tensors)

encoder.0.weight f4 [16, 146]
0.18299563 0.13550626 0.043458834 0.19966228 0.2716232 -0.30898374 -0.10912439 -0.1371038
0.14677393 0.06895502 0.027349725 0.08202121 -0.028340291 -0.11866212 0.13478446 0.2589627
0.19956696 -0.1654716 0.17095588 0.08642842 0.13869141 -0.03671325 -0.036785726 -0.10428656
0.038387388 -0.16780235 -0.2804936 0.20539859 -0.23311587 0.23442937 -0.1167971 -0.15456846
0.13169268 0.350435 0.023107158 0.15480666 -0.18256456 -0.33623075 0.072723135 0.020663833
-0.045690436 0.12579274 0.19037749 -0.15967403 0.01346905 -0.2696153 -0.09940446 -0.030101184
-0.27147081 -0.019476028 0.28881094 0.056806263 -0.012469478 -0.11178082 0.41458791 -0.19749545
-0.1938646 0.42858958 -0.3117014 -0.24115497 0.10529548 0.23677279 0.13410746 -0.10380244
0.20657654 -0.25010797 0.009837799 0.007685038 0.086617626 -0.18449536 -0.12244133 -0.057372324
0.100317694 -0.19407186 0.0225968 0.062281616 -0.06810563 -0.026302759 0.041983586 -0.039703753
-0.20179051 0.10109201 -0.16466494 0.07361798 -0.2601328 0.0027641996 -0.1408436 -0.06831446
-0.0795506 -0.17367375 0.111115105 -0.08503137 0.089176044 0.003109469 -0.27102128 -0.2991392
-0.1321847 -0.15630168 0.10502351 -0.22040275 0.07303305 -0.1571001 0.4552056 0.10304765
-0.03498588 -0.25757575 -0.17632084 0.15494654 0.1841351 -0.07219841 0.040140096 -0.048228174
0.06632465 -0.21927279 -0.17857875 0.093826704 -0.36700684 0.06096622 -0.09432638 0.111269645
-0.016666219 0.17533305 -0.12671702 -0.29034272 0.23082371 -0.13911855 -0.057982944 -0.13113745
-0.22874536 -0.19237556 -0.13100448 -0.18840407 0.0030554326 -0.08108083 -0.15599015 0.18061613
-0.11778533 -0.116029374 -0.19961263 0.23795855 -0.15583488 0.1514336 -0.12632999 -0.23544131
-0.059358105 0.15768804 -0.19547339 0.20368926 0.052934073 0.049720917 0.12597811 0.11338032
-0.18911967 0.054758616 0.47552723 0.03918 -0.08076016 0.014679639 -0.25766575 -0.074901976
-0.0040224385 0.24012731 -0.19684163 0.28707328 0.057812743 0.26338053 0.032233514 0.21893868
-0.1332208 -0.070367135 -0.17867963 0.042578924 -0.14303431 -0.019911397 -0.03187851 -0.10480881
-0.08398307 -0.040302645 0.20224507 0.009136747 -0.020603698 -0.18213649 0.007932486 0.25629148
-0.2100813 -0.05932184 -0.11861798 0.09981666 0.22134787 -0.08995761 -0.13438828 0.2479424
-0.038280062 0.19567947 -0.42638627 0.25966236 0.29422626 -0.13427877 -0.058738284 -0.25222862
-0.12406809 0.010179431 0.046549153 -0.023450544 0.32860276 -0.16259497 0.07553517 -0.22830543
0.12643705 0.11783533 -0.33836403 -0.22266223 -0.059388474 0.04598205 0.028469376 -0.053218152
-0.24423234 0.12444741 0.32556528 -0.33484858 0.08046129 -0.005145816 0.08511535 -0.056791477
0.059110533 0.115780346 -0.23397222 0.06363642 -0.07087554 0.082701966 -0.22447321 0.14665046
0.12741949 0.11523615 -0.029446283 -0.012625477 -0.40750104 -0.18957633 0.042230513 0.3353936
0.10949224 -0.05910139 0.14151588 -0.20637025 -0.16673248 -0.061213125 0.035879772 0.31222576
0.0018281689 -0.2532513 0.23157696 -0.29187354 0.26483986 -0.058720365 -0.05589187 0.10058929
00000000: 3563 3b3e 27c2 0a3e e401 323d 4574 4c3e
00000010: 3212 8b3e 1e33 9ebe 9c7c dfbd f064 0cbe
00000020: e84b 163e 4a38 8d3d 880c e03c bcfa a73d
00000030: e629 e8bc 2005 f3bd f004 0a3e c296 843e
00000040: 485b 4c3e 6371 29be 0f0f 2f3e 6201 b13d
00000050: 1f05 0e3e a260 16bd a1ac 16bd 3194 d5bd
00000060: 183c 1d3d 61d4 2bbe db9c 8fbe 0254 523e
00000070: edb5 6ebe 410e 703e 5133 efbd 3247 1ebe
00000080: 72da 063e 376c b33e 394b bd3c a385 1e3e
00000090: 34f2 3abe 7026 acbe deef 943d 3347 a93c
000000a0: e525 3bbd d0cf 003e 51f2 423e 9781 23be
000000b0: 4aad 5c3c 040b 8abe 9194 cbbd c296 f6bc
000000c0: 39fe 8abe 318c 9fbc 07df 933e afad 683d
000000d0: c84c 4cbc 58ed e4bd de44 d43e 3f3c 4abe
000000e0: 7184 46be 1870 db3e 5397 9fbe 54f1 76be
000000f0: 28a5 d73d 9174 723e 7753 093e 6096 d4bd
00000100: cd88 533e 270e 80be b82e 213c c5d2 fb3b
00000110: 9564 b13d 5aec 3cbe 85c2 fabd 3eff 6abd
00000120: 5d73 cd3d c6ba 46be ed1c b93c 021b 7f3d
00000130: f77a 8bbd e278 d7bc fbf6 2b3d 67a0 22bd
00000140: 2ca2 4ebe 5409 cf3d ed9d 28be 06c5 963d
00000150: 2030 85be 9327 353b 4e39 10be 74e8 8bbd
00000160: 6deb a2bd 88d7 31be 5190 e33d ed24 aebd
00000170: eea1 b63d 3cc8 4b3b 4dc3 8abe c628 99be
00000180: 6d5b 07be 8c0d 20be 9116 d73d 42b1 61be
00000190: 5a92 953d d9de 20be b510 e93e a50a d33d
000001a0: 5b4d 0fbd f8e0 83be 738d 34be 4eaa 1e3e
000001b0: e98d 3c3e c3dc 93bd f169 243d e88a 45bd
000001c0: 38d5 873d 0c89 60be 59dd 36be 3728 c03d
000001d0: 52e8 bbbe b7b7 793d 302e c1bd 57e1 e33d
000001e0: 9887 88bc 828a 333e 1bc2 01be cda7 94be
000001f0: 0d5d 6c3e 1875 0ebe 867f 6dbd e548 06be
00000200: 393c 6abe 19fe 44be 0a26 06be ffec 40be
00000210: a73d 483b b50d a6bd e2bb 1fbe 6ff3 383e
00000220: 6f39 f1bd cfa0 edbd 4167 4cbe 68ab 733e
00000230: 2e93 1fbe 6911 1b3e a65c 01be 8717 71be
00000240: 7c21 73bd f978 213e 2d2a 48be eb93 503e
00000250: 66d1 583d 29a8 4b3d 6800 013e f133 e83d
00000260: 96a8 41be 924a 603d 4e78 f33e 357b 203d
00000270: 9565 a5bd de82 703c c4ec 83be 3566 99bd
00000280: a9ce 83bb efe3 753e da90 49be 45fb 923e
00000290: 0ecd 6c3d d0d9 863e 4a07 043d 7631 603e
000002a0: 096b 08be a51c 90bd cbf7 36be 3d67 2e3d
000002b0: 9677 12be 3a1d a3bc 0a93 02bd 00a6 d6bd
000002c0: 51ff abbd 6314 25bd 5519 4f3e 4bb2 153c
000002d0: 16c9 a8bc fd81 3abe 42f7 013c a338 833e
000002e0: 8d1f 57be 75fb 72bd fced f2bd ad6c cc3d
000002f0: 04a9 623e b23b b8bd 159d 09be 9de4 7d3e
00000300: 8ecb 1cbd 3360 483e 4d4f dabe 77f2 843e
00000310: d3a4 963e 6080 09be 8e97 70bd 1c24 81be
00000320: 6917 febd a1c7 263c 53aa 3e3d 5b1b c0bc
00000330: 9f3e a83e 4c7f 26be 2fb2 9a3d e6c8 69be
00000340: b778 013e a653 f13d 0d3e adbe 9101 64be
00000350: 5441 73bd ad57 3c3d 9c38 e93c 47fb 59bd
00000360: 0b18 7abe 49de fe3d 7eb0 a63e 4671 abbe
00000370: e4c8 a43d 3c9e a8bb f550 ae3d 2e9e 68bd
00000380: e31d 723d 3f1e ed3d 6a96 6fbe d053 823d
00000390: 3227 91bd a65f a93d 4edc 65be 8a2b 163e
000003a0: 417a 023e ee00 ec3d 5539 f1bc 17db 4ebc
000003b0: faa3 d0be 4c20 42be e7f9 2c3d b6b8 ab3e
000003c0: 783d e03d 4d14 72bd 8ae9 103e b952 53be
000003d0: ebbb 2abe 9dba 7abd abf6 123d 0edc 9f3e
000003e0: 2b9f ef3a 28aa 81be 8322 6d3e 7370 95be
000003f0: 1799 873e c484 70bd e0ee 64bd c201 ce3d

encoder.0.bias f4 [16]
-0.08165935 0.054887652 -0.0714678 0.14104946 0.031082256 0.16853546 0.030857146 0.011712663
0.08431875 -0.0069981026 0.025560848 -0.072000705 0.036917333 -0.014980261 -0.015658671 0.19724627
00000000: 043d a7bd e0d1 603d b65d 92bd 456f 103e
00000010: 37a0 fe3c 8f94 2c3e 20c8 fc3c 78e6 3f3c
00000020: 4faf ac3d 5750 e5bb fc64 d13c 1b75 93bd
00000030: a136 173d c56f 75bc 9d46 80bc edfa 493e

encoder.3.weight f4 [16, 16]
-0.04771874 -0.25422955 -0.12692533 0.040909313 0.1753793 -0.14212008 -0.30897123 -0.022243086
-0.20626411 -0.17116714 -0.26343852 -0.33850655 0.23751916 -0.051653385 -0.14530084 -0.3627563
0.12916008 -0.023972962 0.24130501 -0.32810044 -0.58659965 -0.16323423 -0.037167646 0.35608098
0.048196886 -0.09132917 -0.380963 -0.29577857 -0.3478301 -0.05435849 0.03416585 -0.036057934
0.3468752 0.01009008 0.06240948 -0.0885091 -0.2453006 -0.06487257 -0.39986715 0.14819895
-0.43446973 0.24214044 0.16450264 -0.21654037 -0.16022442 -0.23794736 0.29220277 -0.4418308
-0.36748466 0.08428024 -0.15542813 -0.18295567 0.19374251 0.09905281 -0.32244247 -0.28711423
-0.16869688 -0.498331 -0.20545268 0.0082494505 0.26441124 0.45138693 0.10428047 -0.026849668
-0.17327109 0.097821064 -0.031113217 -0.2288191 -0.39287588 0.5232023 -0.047340557 -0.019825317
0.55022675 0.18170944 -0.061786737 0.07653387 0.2703342 -0.07627244 0.047935475 0.53390294
0.05169132 -0.42221165 -0.2401431 -0.32305402 -0.12788504 0.46635962 -0.10934796 -0.3396508
-0.026304599 0.2520796 0.06072615 -0.2276243 0.37205687 0.49612084 0.32952887 0.4579391
0.16142577 -0.11582653 -0.3986437 -0.45044622 -0.6452061 -0.06961807 0.22144765 -0.25188798
-0.32579485 -0.2919397 0.23018245 -0.11989867 0.18100013 -0.40553764 0.16241333 0.27907404
-0.17627247 0.22407058 0.31837386 0.35945874 0.07360362 0.32548246 0.296635 0.3449699
-0.10534356 0.45116833 -0.28613734 -0.2753082 0.14528522 0.30204427 -0.3734776 0.5613468
-0.45400703 -0.33171478 0.33351207 -0.26139244 0.15679863 -0.00047872053 -0.46593747 -0.48542356
-0.02620621 0.026431417 -0.17852266 -0.44642514 0.19329491 -0.27437526 0.009359923 -0.043923754
-0.31105772 -0.3574607 0.40293035 -0.09863902 -0.26607278 -0.25204432 0.051989537 0.27065432
-0.34377977 -0.4830325 0.1472353 0.11526137 -0.012227907 -0.42428187 0.16643827 -0.30769992
-0.24492624 0.3963065 -0.13903834 0.57401 0.25188997 0.22090323 0.43023074 0.2898596
0.3479823 -0.41730136 0.49121228 -0.24771596 0.022151835 0.043356568 0.39583054 -0.27957544
-0.15476997 -0.43786192 0.31023866 -0.55240786 0.14917915 0.15456894 -0.5540164 -0.3812214
-0.02549222 0.018082004 0.21849874 0.13714747 -0.48795274 0.18961748 0.080228806 0.004945122
0.4593665 0.32752922 -0.025460836 0.23960891 0.15673646 -0.29369953 -0.29518026 0.21216305
0.38031828 0.344182 -0.4001136 -0.3448169 0.48996204 0.22715613 0.3432 -0.1687522
-0.15911086 0.12953278 0.32119498 -0.016472502 -0.40067336 -0.17977649 0.2242465 0.17314158
-0.07547062 0.29178572 -0.30759606 0.28386936 0.22218615 -0.13736996 0.03869412 -0.14444871
-0.39935318 -0.36408025 -0.344768 0.14184827 0.042399447 0.32349586 -0.40827072 0.116140306
0.3677279 -0.30295366 -0.08383585 0.16969095 0.13947001 0.23645046 -0.2646065 -0.2448117
-0.066474184 0.18832919 0.12187852 -0.28115556 0.08713628 -0.07985326 -0.3589252 -0.38397497
-0.16193014 -0.1402768 0.14107913 -0.43534535 -0.044458937 -0.356562 -0.338768 -0.098182164
00000000: ba74 43bd 602a 82be b7f8 01be 8690 273d
00000010: a296 333e ed87 11be 7a31 9ebe 2237 b6bc
00000020: e636 53be 7046 2fbe 6ae1 86be bb50 adbe
00000030: 3938 733e 8092 53bd bec9 14be 32bb b9be
00000040: 8a42 043e f262 c4bc a918 773e c8fc a7be
00000050: 652b 16bf e026 27be 1a3d 18bd 3f50 b63e
00000060: 196a 453d ca0a bbbd 950d c3be 4a70 97be
00000070: c916 b2be 02a7 5ebd 7ef1 0b3d 7cb1 13bd
00000080: a099 b13e dd50 253c 15a1 7f3d 4244 b5bd
00000090: 1530 7bbe e9db 84bd 63bb ccbe 77c1 173e
000000a0: d172 debe aaf3 773e 6173 283e c2bc 5dbe
000000b0: df11 24be 79a8 73be 9a9b 953e a637 e2be
000000c0: f326 bcbe 1e9b ac3d 8d28 1fbe bb58 3bbe
000000d0: 7064 463e 33dc ca3d 2e17 a5be a300 93be
000000e0: e0be 2cbe 3e25 ffbe 3062 52be b428 073c
000000f0: e960 873e 301c e73e 0091 d53d d6f3 dbbc
00000100: fa6d 31be 6956 c83d 25e1 febc 8e4f 6abe
00000110: 0727 c9be 96f0 053f 2ce8 41bd b468 a2bc
00000120: a9db 0c3f 0a12 3a3e 1714 7dbd cabd 9c3d
00000130: 3f69 8a3e ba34 9cbd fd57 443d ddad 083f
00000140: 47ba 533d 202c d8be 13e8 75be 5667 a5be
00000150: 4cf4 02be b0c6 ee3e d3f1 dfbd b6e6 adbe
00000160: be7c d7bc 9410 813e fcbb 783d 5816 69be
00000170: 3d7e be3e 8d03 fe3e 02b8 a83e fe76 ea3e
00000180: cc4c 253e 7636 edbd 071b ccbe e3a0 e6be
00000190: 3a2c 25bf eb93 8ebd 2cc3 623e 76f7 80be
000001a0: 95ce a6be 1f79 95be f3b4 6b3e 6f8d f5bd
000001b0: 1958 393e a1a2 cfbe ae4f 263e cbe2 8e3e
000001c0: c580 34be c272 653e e601 a33e fa0a b83e
000001d0: 7fbd 963d a3a5 a63e 8be0 973e e59f b03e
000001e0: 5dbe d7bd 89ff e63e 9880 92be 32f5 8cbe
000001f0: a6c5 143e 8ca5 9a3e 7538 bfbe 6db4 0f3f
00000200: 9c73 e8be 85d6 a9be 18c2 aa3e 3bd5 85be
00000210: d28f 203e c8fc fab9 5b8f eebe 7089 f8be
00000220: 68ae d6bc b386 d83c a5ce 36be d691 e4be
00000230: 1aef 453e ea7a 8cbe 5d5a 193c 65e9 33bd
00000240: f542 9fbe 1705 b7be e34c ce3e 4103 cabd
00000250: b13a 88be f40b 81be fbf2 543d 3493 8a3e
00000260: e703 b0be 0950 f7be dac4 163e 270e ec3d
00000270: 8f57 48bc 793b d9be cb6e 2a3e d88a 9dbe
00000280: f2cd 7abe b0e8 ca3e 1160 0ebe 52f2 123f
00000290: b9f7 803e 7534 623e 3447 dc3e 7a68 943e
000002a0: bc2a b23e 86a8 d5be 2d80 fb3e 41a9 7dbe
000002b0: c477 b53c a896 313d 4daa ca3e 8324 8fbe
000002c0: 057c 1ebe 702f e0be 9ad7 9e3e 9a6a 0dbf
000002d0: 6bc2 183e 5247 1e3e 05d4 0dbf 742f c3be
000002e0: 0fd5 d0bc b620 943c 22be 5f3e 6370 0c3e
000002f0: f1d4 f9be 162b 423e 004f a43d b10a a23b
00000300: 1632 eb3e e9b1 a73e 3e93 d0bc 0a5c 753e
00000310: 867f 203e c95f 96be de21 97be 4541 593e
00000320: 14b9 c23e a038 b03e b1db ccbe d78b b0be
00000330: 4edc fa3e 9e9b 683e e9b7 af3e 60cd 2cbe
00000340: f5ed 22be 3ea4 043e ab73 a43e 57f1 86bc
00000350: 0f25 cdbe 5417 38be e0a0 653e 074c 313e
00000360: 5790 9abd f064 953e 3b7d 9dbe 5357 913e
00000370: c484 633e b6aa 0cbe ba7d 1e3d 5dea 13be
00000380: 0578 ccbe ba68 babe 6e85 b0be ac40 113e
00000390: 0bab 2d3d 40a1 a53e dc08 d1be f8da ed3d
000003a0: d546 bc3e be1c 9bbe 21b2 abbd 77c3 2d3e
000003b0: 3ad1 0e3e 1220 723e 817a 87be ebaf 7abe
000003c0: 9e23 88bd 5ed9 403e 729b f93d 9ff3 8fbe
000003d0: 8274 b23d 1b8a a3bd 0bc5 b7be 5e98 c4be
000003e0: 04d1 25be b9a4 0fbe 0c77 103e 96e5 debe
000003f0: 931a 36bd 4b8f b6be 0073 adbe bb13 c9bd

encoder.3.bias f4 [16]
-0.005428864 -0.11079624 -0.18246907 -0.007009892 0.19443843 0.10942077 -0.037803955 -0.006682855
-0.09783118 0.0019021095 0.11624998 -0.16071896 0.0123601975 0.06818871 -0.07896187 -0.10825201
00000000: 9de4 b1bb 24e9 e2bd 2cd9 3abe 3cb3 e5bb
00000010: de1a 473e ff17 e03d 52d8 1abd dafb dabb
00000020: b75b c8bd 3450 f93a 7814 ee3d 8393 24be
00000030: 6d82 4a3c 86a6 8b3d c3b6 a1bd 3bb3 ddbd

encoder.6.weight f4 [16, 16]
0.32725862 -0.21103323 0.1660406 0.33480987 0.12660542 0.28666517 0.23025545 -0.19025365
-0.32001397 -0.19631039 -0.30083218 -0.35353968 -0.4346571 -0.1577937 0.013341062 -0.18875735
0.39786676 -0.364272 -0.16225798 -0.24184228 -0.3123043 -0.052168723 -0.35316688 -0.36463717
-0.24153928 0.06036344 0.15893967 0.3441358 -0.27997229 0.43793565 -0.37666744 0.07841285
-0.015306273 0.3143401 0.25041816 -0.43016097 0.23452502 -0.47779632 -0.16578385 -0.18543008
-0.31306994 -0.20200297 -0.36209494 -0.41040474 0.28660226 -0.057021316 0.104055665 0.14777216
0.35706818 0.32104364 0.11944384 0.04100477 0.07732491 0.36586213 -0.24852559 0.37994656
-0.118959576 -0.41086957 -0.24679832 -0.2144795 -0.14772367 -0.19421874 0.10853521 -0.059295144
-0.005752508 -0.16304922 -0.28558326 -0.32742795 0.562302 -0.15412228 -0.10444386 0.47962776
-0.33111167 -0.061028637 0.25273898 -0.055557217 0.041879438 -0.012215242 0.12399108 0.16649711
0.33962837 -0.028340774 0.252931 0.08318854 0.4832666 0.2658443 0.2064353 0.085630596
-0.038730558 0.29416803 -0.033355508 0.18030876 0.28857145 0.33145547 -0.14878331 0.044738512
0.26903465 -0.32529783 0.22504947 0.21700035 0.4671669 0.16798653 0.14224306 0.2628636
-0.30922216 0.3463629 0.468963 0.109120056 0.23908451 -0.14241578 0.4749076 0.32812268
-0.19297019 0.19284682 -0.28179643 0.2347134 -0.33160067 0.43979356 -0.11331915 0.082419
-0.460676 -0.35910806 -0.41202205 -0.39201185 -0.07853883 -0.4557099 0.1524924 0.39405078
0.065834306 -0.33726758 0.16414453 0.19022425 0.1942831 0.1746401 0.2587666 0.21364334
-0.2723439 0.3819091 0.28357202 -0.22829564 0.1210023 -0.38299382 0.45677713 0.32079902
-0.313181 -0.0008810509 0.0296835 0.30341718 0.13169123 0.14447936 0.35250133 0.012993775
-0.05719004 0.42275462 0.26570064 0.20696893 -0.06817621 0.38971326 0.13363867 0.14382866
-0.41452318 0.2948474 -0.2426819 -0.1548144 -0.40986162 -0.29331335 -0.23532651 0.10278064
0.15225588 0.31714007 -0.31019315 0.3206697 -0.36150062 0.2141985 -0.09422669 -0.2113881
-0.0054716147 0.38319525 0.09332178 -0.0847211 -0.47092476 0.10234859 -0.22110175 -0.06534233
0.31752634 -0.23104459 -0.122901596 0.29924026 -0.045601033 -0.2486187 -0.3755654 0.3587692
0.25677603 -0.29257095 0.0865348 0.48876292 0.40296176 -0.14111532 0.1458347 0.058112975
-0.03828303 0.2270688 -0.29986164 -0.25337154 0.25390023 -0.2746126 0.04134653 0.280715
-0.2693577 -0.40415108 -0.021842428 0.024168182 -0.5375256 -0.73977613 0.26487815 -0.054612193
0.29144302 -0.30465698 0.48805326 -0.30587572 0.05571331 -0.09838503 0.16073743 0.009437554
0.16248684 0.124911 0.094236575 -0.2899866 0.12556556 0.22440068 -0.13203898 0.3685094
-0.10979558 -0.3702963 -0.24658117 -0.1170304 0.40411508 0.29412165 -0.39140356 0.20189881
0.20293118 0.39199165 0.0010307836 0.40470028 0.4444032 0.39830133 0.39207384 -0.34409416
0.063700475 0.27038288 -0.19458142 0.13493186 -0.25567633 -0.13828394 0.23587434 -0.17921372
00000000: 718e a73e 1819 58be 8c06 2a3e 336c ab3e
00000010: daa4 013e c7c5 923e 16c8 6b3e dad1 42be
00000020: dfd8 a3be 9705 49be ad06 9abe 2703 b5be
00000030: 608b debe ac94 21be 7894 5a3c 9b49 41be
00000040: 31b5 cb3e dc81 babe f526 26be 81a5 77be
00000050: 59e6 9fbe dfae 55bd 4ad2 b4be b9b1 babe
00000060: 1356 77be a83f 773d 15c1 223e 9132 b03e
00000070: 8758 8fbe 1a39 e03e 8eda c0be eb96 a03d
00000080: 29c7 7abc 30f1 a03e cf36 803e 0f3e dcbe
00000090: 5427 703e b8a1 f4be 3ec3 29be 62e1 3dbe
000000a0: b44a a0be ded9 4ebe 8264 b9be 9220 d2be
000000b0: 88bd 923e 2f8f 69bd 231b d53d 9651 173e
000000c0: a4d1 b63e d55f a43e f99e f43d 9ef4 273d
000000d0: 865c 9e3d 4852 bb3e 7e7d 7ebe 5b88 c23e
000000e0: 14a1 f3bd 7f5d d2be b3b8 7cbe 84a0 5bbe
000000f0: e044 17be 47e1 46be b547 de3d 77df 72bd
00000100: 897f bcbb 60f6 26be f837 92be a3a4 a7be
00000110: 06f3 0f3f 3bd2 1dbe aae6 d5bd c591 f53e
00000120: 7887 a9be 2af9 79bd 0167 813e f78f 63bd
00000130: c689 2b3d 7022 48bc 09ef fd3d 387e 2a3e
00000140: c5e3 ad3e e92a e8bc 2c80 813e c15e aa3d
00000150: b86e f73e be1c 883e c663 533e 185f af3d
00000160: efa3 1ebd 319d 963e c99f 08bd dca2 383e
00000170: a3bf 933e 88b4 a93e a75a 18be bb3f 373d
00000180: e9be 893e 708d a6be 5e73 663e 5735 5e3e
00000190: 8030 ef3e a904 2c3e 2aa8 113e 0f96 863e
000001a0: 5e52 9ebe 7a56 b13e eb1b f03e 567a df3d
000001b0: 92d2 743e 71d5 11be 1727 f33e b2ff a73e
000001c0: fa99 45be a379 453e 9f47 90be b658 703e
000001d0: 90c7 a9be 9f2c e13e df13 e8bd 4bcb a83d
000001e0: badd ebbe 03dd b7be 8ef4 d2be c7b5 c8be
000001f0: f7d8 a0bd cf52 e9be f826 1c3e 06c1 c93e
00000200: 23d4 863d 56ae acbe 8115 283e 25ca 423e
00000210: 26f2 463e dbd4 323e 0e7d 843e 52c5 5a3e
00000220: a970 8bbe 9789 c33e 5a30 913e 55c6 69be
00000230: 0ed0 f73d c417 c4be b1de e93e c53f a43e
00000240: 4359 a0be 53f6 66ba d02a f33c 7f59 9b3e
00000250: 11da 063e 66f2 133e 0e7b b43e d8e3 543c
00000260: 1a40 6abd 4b73 d83e ea09 883e aaef 533e
00000270: f89f 8bbd 7f88 c73e 93d8 083e d247 133e
00000280: 623c d4be 3df6 963e 9b81 78be ab87 1ebe
00000290: 62d9 d1be 2b2d 96be 6ff9 70be a87e d23d
000002a0: f7e8 1b3e 2f60 a23e a3d1 9ebe d22e a43e
000002b0: 9c16 b9be da56 5b3e ecf9 c0bd 1f76 58be
000002c0: 3b4b b3bb 2b32 c43e 7d1f bf3d 4282 adbd
000002d0: 0d1d f1be 239c d13d 7f68 62be 33d2 85bd
000002e0: d092 a23e f496 6cbe d5b3 fbbd 0536 993e
000002f0: 26c8 3abd e795 7ebe 1c4a c0be 99b0 b73e
00000300: 2678 833e dccb 95be 2839 b13d 223f fa3e
00000310: 0151 ce3e 8980 10be b155 153e df07 6e3d
00000320: abce 1cbd b984 683e 7787 99be eab9 81be
00000330: 36ff 813e 069a 8cbe fb5a 293d e0b9 8f3e
00000340: 41e9 89be e4ec cebe e4ee b2bc 5afc c53c
00000350: 479b 09bf f861 3dbf 1c9e 873e 09b1 5fbd
00000360: 0538 953e 00fc 9bbe 1ee2 f93e be9b 9cbe
00000370: a433 643d 177e c9bd 5a98 243e f89f 1a3c
00000380: f362 263e 57d1 ff3d 1bff c03d 2079 94be
00000390: 4294 003e 4bc9 653e 3a35 07be 44ad bc3e
000003a0: 81dc e0bd 7a97 bdbe c67f 7cbe a2ad efbd
000003b0: 2ce8 ce3e 1d97 963e 0c66 c8be 90be 4e3e
000003c0: 31cd 4f3e 21b3 c83e 5c1b 873a e034 cf3e
000003d0: d188 e33e 27ee cb3e e7bd c83e 1c2d b0be
000003e0: 6575 823d a06f 8a3e 5a40 47be 942b 0a3e
000003f0: 02e8 82be 4e9a 0dbe 0b89 713e cd83 37be

encoder.6.bias f4 [16]
-0.014416763 -0.0638926 -0.14195463 -0.028308658 0.007876701 0.17238055 0.24270076 -0.03656635
0.069869116 0.07579275 -0.019564882 0.018334491 0.20304662 0.080662794 -0.086217746 0.049803708
00000000: 4934 6cbc 20da 82bd 8e5c 11be 8fe7 e7bc
00000010: 470d 013c 8784 303e 8c86 783e 99c6 15bd
00000020: 8a17 8f3d 3b39 9b3d 8846 a0bc 3732 963c
00000030: 74eb 4f3e 8932 a53d ee92 b0bd f9fe 4b3d

encoder.9.weight f4 [16, 16]
-0.2722894 -0.24397397 0.17418477 -0.0071769194 0.12953009 -0.18845138 -0.23795678 0.036107514
0.21318394 0.32367918 -0.27216294 0.18795887 -0.45993522 0.10178648 -0.18537764 0.23525955
0.50712544 0.16448547 0.06361439 -0.13958696 0.111886345 -0.1776111 0.47687167 0.063824415
0.28524134 0.35209352 -0.14566113 0.23782913 0.07535829 -0.011091437 -0.0730757 -0.1751966
-0.24796012 0.1434232 0.3372622 0.18625583 -0.39079177 -0.6131072 -0.42719707 -0.38856688
-0.42757997 -0.030552195 -0.26852694 -0.09980329 0.012327923 0.12017492 -0.13369647 -0.43483096
-0.089712076 0.102147415 -0.20830788 0.31002393 -0.2603823 -0.4282519 -0.2459686 0.4549905
0.26178238 0.11824799 -0.4081622 -0.3666268 -0.06611725 0.32680216 -0.093342416 -0.07338773
0.05669286 0.056641005 -0.01588294 0.21454999 0.17890571 -0.17218758 -0.48681742 -0.28993604
-0.46052378 -0.16672626 0.14709285 0.32151166 -0.24664593 -0.69861573 0.2200797 -0.5073264
-0.095764816 0.07709028 -0.006848131 -0.1473591 0.52112675 0.19875793 0.14573777 0.37235367
0.35415158 0.19585577 0.10262945 -0.4463849 0.10117302 0.055237014 0.5451133 0.19155668
0.19203113 0.29741782 -0.14762989 0.32810903 0.16588445 0.5427888 -0.022644402 -0.12920022
0.13139844 0.22145261 -0.38978258 0.23246999 0.2305611 0.03475971 0.22336628 0.104683824
-0.059238 0.03514487 0.17619418 0.3951861 -0.3136926 0.30966166 0.24648647 -0.42543712
-0.16734344 -0.14708596 0.14805566 -0.3658144 -0.2912915 0.60203415 -0.16209455 0.2420235
-0.05439832 -0.03828038 0.028960157 -0.33701515 0.15334582 0.18640672 -0.36694157 -0.4272761
0.31759438 -0.31138757 -0.026108632 -0.3279514 -0.010886087 0.33915484 -0.22097743 -0.13528632
0.2233518 -0.100801535 -0.16007462 -0.51344484 -0.25024453 -0.29909778 -0.55900216 0.14711756
0.013098508 -0.5624047 0.036472972 -0.3687724 -0.16920765 -0.18175784 0.20482183 -0.28727224
0.13870852 -0.51250887 0.31095302 -0.32366577 0.26871565 0.21064682 -0.2150087 0.27650335
-0.3800984 0.1519828 0.25170606 0.4161403 0.47494736 0.18144439 -0.39467078 -0.1933466
-0.03964004 -0.20112422 0.3967342 0.15550685 0.3491468 0.024490615 0.22743632 -0.034438983
0.36382177 0.13523982 -0.15077807 0.06649008 0.30274764 -0.23417647 -0.2757307 0.02608028
0.16245008 0.10261608 0.24414344 -0.093731456 -0.4048997 -0.37206322 -0.10569504 -0.55424327
0.3465452 0.1264511 0.011575302 -0.027984403 -0.2550624 -0.08186756 0.11878688 -0.21318035
-0.0029247578 -0.051346924 0.41240752 -0.1633444 0.21078975 0.124071896 0.26127216 -0.28183988
0.2570977 0.10509765 0.28009343 0.016785607 -0.09514869 0.3323781 0.35530835 0.45089456
0.09956037 -0.118314594 -0.060502134 -0.39424592 -0.22250454 0.055486687 -0.026461385 -0.5173261
-0.36054108 -0.4026543 -0.37593126 0.33109203 -0.3563463 0.2297714 -0.22305515 0.17141949
0.44183868 -0.21885559 0.43271887 -0.28331628 -0.26315793 -0.2798343 0.023540212 -0.47661078
0.35147643 0.09849551 0.27875635 -0.20357947 -0.43943217 0.1695753 -0.49393594 -0.15875435
00000000: 8469 8bbe 50d4 79be 7e5d 323e 5d2c ebbb
00000010: 89a3 043e 66f9 40be f1aa 73be 79e5 133d
00000020: e44c 5a3e 47b9 a53e f158 8bbe 4a78 403e
00000030: a17c ebbe 6e75 d03d a3d3 3dbe e1e7 703e
00000040: f9d2 013f e16e 283e 4348 823d e2ef 0ebe
00000050: ab24 e53d afdf 35be 8628 f43e 60b6 823d
00000060: 270b 923e 9a45 b43e 3128 15be 7b89 733e
00000070: 7255 9a3d dcb8 35bc b6a8 95bd bd66 33be
00000080: 42e9 7dbe 88dd 123e a2ad ac3e d9b9 3e3e
00000090: dc15 c8be 98f4 1cbf 93b9 dabe 3df2 c6be
000000a0: c3eb dabe 9948 fabc 5d7c 89be ab65 ccbd
000000b0: 0ffb 493c 451e f63d bae7 08be 2aa2 debe
000000c0: f7ba b7bd aa32 d13d a94e 55be 75bb 9e3e
000000d0: d450 85be d543 dbbe 31df 7bbe 84f4 e83e
000000e0: 5708 863e 012c f23d a3fa d0be 82b6 bbbe
000000f0: 7b68 87bd 9d52 a73e 4f2a bfbd 4e4c 96bd
00000100: c636 683d 6600 683d f01c 82bc feb2 5b3e
00000110: 0f33 373e f151 30be 2240 f9be 7f72 94be
00000120: c6c9 ebbe 4aba 2abe 829f 163e 2d9d a43e
00000130: c090 7cbe 7bd8 32bf 935c 613e 25e0 01bf
00000140: 5820 c4bd 82e1 9d3d 4966 e0bb 4ee5 16be
00000150: 9068 053f 3387 4b3e 483c 153e 24a5 be3e
00000160: 5b53 b53e 6a8e 483e 642f d23d 908c e4be
00000170: cd33 cf3d 3540 623d 8c8c 0b3f 6f27 443e
00000180: cfa3 443e 2647 983e 4a2c 17be e8fd a73e
00000190: 9ddd 293e 35f4 0a3f c180 b9bc 104d 04be
000001a0: 508d 063e 79c4 623e 9591 c7be 9d0c 6e3e
000001b0: 3618 6c3e 3360 0e3d 21ba 643e 7964 d63d
000001c0: 8ca3 72bd 11f4 0f3d 3f6c 343e d555 ca3e
000001d0: 519c a0be f98b 9e3e f366 7c3e e5d2 d9be
000001e0: 145c 2bbe b49d 16be e79b 173e 064c bbbe
000001f0: 2924 95be e91e 1a3f 1dfc 25be 02d5 773e
00000200: c6d0 5ebd e3cb 1cbd da3d ed3c 408d acbe
00000210: b006 1d3e 67e1 3e3e c4df bbbe efc3 dabe
00000220: bb9b a23e 316e 9fbe c5e1 d5bc 3fe9 a7be
00000230: 8f5b 32bc b4a5 ad3e e847 62be 7f88 0abe
00000240: 56b6 643e 0971 cebd 9aea 23be 1f71 03bf
00000250: 0d20 80be 5823 99be c41a 0fbf fca5 163e
00000260: 209b 563c c1f9 0fbf af64 153d bccf bcbe
00000270: c544 2dbe ba1e 3abe d0bc 513e 5915 93be
00000280: 9b09 0e3e c833 03bf 3c35 9f3e 85b7 a5be
00000290: 1995 893e cdb3 573e 3e2b 5cbe d991 8d3e
000002a0: 429c c2be 61a1 1b3e 9edf 803e 5710 d53e
000002b0: 4d2c f33e 8fcc 393e 4a12 cabe a7fc 45be
000002c0: 985d 22bd 82f3 4dbe bf20 cb3e 303d 1f3e
000002d0: 5fc3 b23e 8ba0 c83c 11e5 683e e40f 0dbd
000002e0: d946 ba3e 4f7c 0a3e 9165 1abe f32b 883d
000002f0: bd01 9b3e f5cb 6fbe 932c 8dbe 50a6 d53c
00000300: 5059 263e 6128 d23d bd00 7a3e 47f6 bfbd
00000310: 034f cfbe 127f bebe a476 d8bd e3e2 0dbf
00000320: 5f6e b13e 667c 013e 56a6 3d3c 8c3f e5bc
00000330: 8a97 82be 2eaa a7bd 8946 f33d f34b 5abe
00000340: 4bad 3fbb 2751 52bd 1427 d33e c143 27be
00000350: 45d9 573e 6819 fe3d 77c5 853e 514d 90be
00000360: 4fa2 833e 703d d73d 6868 8f3e f881 893c
00000370: 51dd c2bd 762d aa3e faea b53e a7db e63e
00000380: 4fe6 cb3d ec4e f2bd 16d1 77bd 9ada c9be
00000390: 3bd8 63be 0246 633d 8cc5 d8bc 7c6f 04bf
000003a0: d798 b8be b428 cebe 107a c0be e584 a93e
000003b0: 0673 b6be 3249 6b3e 9268 64be 9788 2f3e
000003c0: ae38 e23e ae1b 60be 548d dd3e d50e 91be
000003d0: a3bc 86be 7146 8fbe 67d7 c03c 5406 f4be
000003e0: b8f4 b33e 04b8 c93d 27b9 8e3e 2377 50be
000003f0: 41fd e0be 26a5 2d3e 2ce5 fcbe 8090 22be

encoder.9.bias f4 [16]
0.041383944 0.1934592 -0.15261701 -0.10999731 -0.29523984 -0.044622798 0.13160045 0.18422158
0.0958513 -0.13870746 -0.063025124 0.179016 -0.01837825 0.12734933 -0.046852797 -0.0699728
00000000: 3682 293d 2b1a 463e a247 1cbe 4546 e1bd
00000010: ad29 97be 65c6 36bd 45c2 063e 95a4 3c3e
00000020: b04d c43d 5409 0ebe 5113 81bd f84f 373e
00000030: fc8d 96bc dd67 023e b8e8 3fbd e64d 8fbd

pretraining_head.0.weight f4 [16, 16]
-0.090328954 0.019009037 0.23439083 0.20151527 0.14293122 -0.14851739 0.41301435 -0.07246823
-0.07815743 0.13415837 0.41801223 -0.051156968 -0.2208374 -0.17383964 0.019860605 -0.00017276945
0.01418966 -0.34838757 0.009819686 -0.4952088 0.26623887 0.38464892 0.19105673 -0.36797675
-0.2654251 -0.16357927 -0.048343465 0.29546702 -0.18441002 -0.24582112 0.11474775 0.23968008
0.32254478 -0.111472316 0.4374137 0.35132477 0.0901739 -0.40871707 0.09613342 0.23210436
-0.35053137 0.20113134 -0.31601045 0.2954741 -0.42422637 0.39127928 0.07131879 0.36788258
0.02827055 0.2747425 0.4235771 -0.26001707 0.36881894 -0.24968982 0.10400423 -0.084195085
0.048219606 0.21084644 0.113836326 0.13356847 0.088420264 0.30060935 0.03241815 -0.29831314
-0.21669059 -0.2473857 -0.6370995 -0.4539678 0.21205917 0.12665842 0.3978474 -0.2273236
-0.3609804 -0.39719892 -0.31704283 0.15298595 0.02667539 0.104090095 -0.4000656 -0.33204105
0.43581167 -0.15237655 0.11376749 0.28779116 0.065410316 0.3517881 0.014744102 -0.31011483
-0.1445849 -0.33799788 0.46142238 -0.39022303 -0.015353035 -0.4459938 -0.21356216 -0.04723156
0.13071051 -0.25949234 -0.058429036 -0.124674216 0.24887885 0.12971124 0.15428968 0.4517336
-0.10495335 -0.09110373 0.09990554 0.11218264 0.47743988 -0.40338576 0.29543173 0.24356776
0.0414331 0.045007885 -0.18922454 -0.06621034 -0.22783723 0.15225458 0.07861164 -0.11933915
0.111315854 0.12274066 0.3001854 0.07202472 -0.14453563 0.16571796 -0.36164635 -0.5358086
0.4305312 0.41002956 -0.35731506 -0.2601883 -0.30282938 0.1825223 -0.23957033 -0.05816542
0.15199338 -0.3260902 0.0032984447 0.3576441 0.024421763 -0.014944656 -0.13983494 0.38838205
-0.22995128 0.059704404 -0.33224925 -0.11277424 -0.42116696 0.40677106 0.2956176 0.5441729
-0.37635365 -0.366869 -0.07899224 -0.16115071 -0.023251088 0.4749804 -0.3416514 0.26722145
0.2340952 0.5278338 -0.40936896 -0.3298571 -0.43101338 -0.2647985 0.102515705 0.15372686
0.15910184 -0.38317904 -0.22220367 0.27511922 0.14891182 -0.019301724 -0.41460586 -0.42987803
0.09709021 -0.22043031 0.045989614 -0.051122304 0.10595857 0.27456123 -0.45568115 -0.035645124
0.3538556 0.2546068 -0.15362811 0.35371915 0.026367083 -0.067735575 0.4254896 0.3329014
0.50196254 -0.17318389 -0.21677054 0.32509607 0.33135924 -0.14774838 -0.40185577 -0.39596397
-0.20490812 0.1835661 -0.36110595 0.10537582 -0.1944591 0.101454824 -0.27915597 0.36606964
0.1856021 0.35355368 -0.042610046 -0.2706275 -0.0016689253 0.07014747 -0.30500188 0.114054166
-0.27467987 0.29252115 -0.24990793 -0.25049576 -0.008163134 -0.3782112 0.17538118 -0.22508222
0.012363492 0.05259739 0.03543496 -0.28357676 -0.21088943 -0.48958173 -0.15309468 0.17618509
0.18302742 0.112732865 0.18448405 -0.087361604 0.17454638 0.18376775 0.23961939 0.060241524
0.27936286 0.42405763 -0.12616794 -0.02240873 -0.5632426 0.45741656 0.4789068 0.48771408
0.23293082 -0.5277941 0.24691223 0.34109503 -0.31279546 0.6225453 -0.09767672 -0.03617412
00000000: 63fe b8bd d7b8 9b3c 2604 703e 055a 4e3e
00000010: 905c 123e f114 18be 9e76 d33e 396a 94bd
00000020: 0111 a0bd d060 093e b305 d63e f889 51bd
00000030: 3323 62be 0503 32be b5b2 a23c 7229 35b9
00000040: bf7b 683c db5f b2be c0e2 203c 028c fdbe
00000050: 7650 883e b4f0 c43e 60a4 433e 7367 bcbe
00000060: cce5 87be 5381 27be cc03 46bd 7447 973e
00000070: fbd5 3cbe 88b8 7bbe de00 eb3d b26e 753e
00000080: 9724 a53e 994b e4bd b0f4 df3e d7e0 b33e
00000090: 18ad b83d 5d43 d1be 99e1 c43d c4ac 6d3e
000000a0: d978 b3be 60f5 4d3e 1fcc a1be 6248 973e
000000b0: 3334 d9be c255 c83e 960f 923d 1b5b bc3e
000000c0: a497 e73c 0dab 8c3e 19df d83e f520 85be
000000d0: d6d5 bc3e b0ae 7fbe 2b00 d53d 796e acbd
000000e0: ec81 453d 21e8 573e 0523 e93d 2cc6 083e
000000f0: af15 b53d 78e9 993e e5c8 043d 80bc 98be
00000100: 23e4 5dbe ad52 7dbe f418 23bf 786e e8be
00000110: 0a26 593e bfb2 013e a8b2 cb3e 85c7 68be
00000120: 6cd2 b8be a85d cbbe 7053 a2be 59a8 1c3e
00000130: 5986 da3c 302d d53d 66d5 ccbe 4901 aabe
00000140: b522 df3e 9908 1cbe eefe e83d 5d59 933e
00000150: d8f5 853d 921d b43e 3f91 713c 5fc7 9ebe
00000160: 100e 14be 0f0e adbe 8e3f ec3e 50cb c7be
00000170: 4c8b 7bbc 4d59 e4be 0ab0 5abe e175 41bd
00000180: fad8 053e 2edc 84be 4953 6fbd 3255 ffbd
00000190: 19da 7e3e 06d3 043e 1dfe 1d3e a049 e73e
000001a0: c8f1 d6bd 9894 babd 479b cc3d 03c0 e53d
000001b0: 0073 f43e 9488 cebe d442 973e d469 793e
000001c0: c1b5 293d 305a 383d 14c4 41be 4999 87bd
000001d0: 2a4e 69be a0e8 1b3e 24ff a03d 1668 f4bd
000001e0: 91f9 e33d 755f fb3d e7b1 993e b281 933d
000001f0: 2601 14be f8b1 293e b629 b9be c12a 09bf
00000200: 966e dc3e 65ef d13e 00f2 b6be 6737 85be
00000210: 740c 9bbe 20e7 3a3e ed51 75be dd3e 6ebd
00000220: 27a4 1b3e 4bf5 a6be b82a 583b 211d b73e
00000230: 2610 c83c 6eda 74bc e430 0fbe 03da c63e
00000240: 5978 6bbe 9b8c 743d 931c aabe 2ef6 e6bd
00000250: 32a3 d7be 4c44 d03e 315b 973e ea4e 0b3f
00000260: 6db1 c0be 41d6 bbbe afc6 a1bd b104 25be
00000270: 1179 bebc a230 f33e efec aebe 40d1 883e
00000280: a7b6 6f3e 1e20 073f cf98 d1be 08e3 a8be
00000290: c9ad dcbe ab93 87be c1f3 d13d 936a 1d3e
000002a0: 98eb 223e 0b30 c4be 5c89 63be 6ddc 8c3e
000002b0: 577c 183e a61e 9ebc 3847 d4be f918 dcbe
000002c0: 3bd7 c63d 7cb8 61be 9b5f 3c3d 9f65 51bd
000002d0: cf00 d93d 4a93 8c3e 0a4f e9be 9f00 12bd
000002e0: 902c b53e d35b 823e b050 1dbe ad1a b53e
000002f0: c8ff d73c f3b8 8abd c6d9 d93e 0d72 aa3e
00000300: 9e80 003f 1e57 31be 19f9 5dbe fe72 a63e
00000310: eba7 a93e 5a4b 17be 0ac0 cdbe cabb cabe
00000320: 6fd3 51be c0f8 3b3e e1e2 b8be 47cf d73d
00000330: 4920 47be 8cc7 cf3d 88ed 8ebe 7b6d bb3e
00000340: 7a0e 3e3e fd04 b53e df87 2ebd b08f 8abe
00000350: d7bf daba 7aa9 8f3d 3529 9cbe 3b95 e93d
00000360: d7a2 8cbe 55c5 953e dde7 7fbe fb40 80be
00000370: aabe 05bc e6a4 c1be 2097 333e f47b 66be
00000380: 3e90 4a3c 5c70 573d 4024 113d f930 91be
00000390: 66f3 57be 75aa fabe dac4 1cbe dd69 343e
000003a0: 8a6b 3b3e 7de0 e63d 63e9 3c3e a4ea b2bd
000003b0: 49bc 323e 9d2d 3c3e c95e 753e d1bf 763d
000003c0: a608 8f3e 151e d93e 2b32 01be 8392 b7bc
000003d0: ab30 10bf 8132 ea3e 4633 f53e a9b5 f93e
000003e0: 6b85 6e3e 841d 07bf 8fd6 7c3e 02a4 ae3e
000003f0: ba26 a0be 215f 1f3f bb0a c8bd 502b 14bd

pretraining_head.0.bias f4 [16]
0.012866331 0.095271595 -0.0028826906 -0.0781524 0.0063174274 -0.1579548 -0.00210423 0.097372696
-0.032183927 0.14652474 0.31194237 -0.026167922 -0.01834054 -0.035548314 0.011709632 0.20284925
00000000: 4ecd 523c c11d c33d 86eb 3cbb 5e0e a0bd
00000010: 6c02 cf3b e7be 21be 1fe7 09bb 566b c73d
00000020: 4bd3 03bd 950a 163e e9b6 9f3e 1c5e d6bc
00000030: e63e 96bc 1c9b 11bd c2d9 3f3c b7b7 4f3e

pretraining_head.3.weight f4 [16, 16]
0.36975673 -0.22521253 -0.10327443 0.19165358 0.08114351 -0.3735667 -0.1562401 -0.36268523
-0.05672959 -0.409075 -0.0048093605 0.08035062 -0.032740496 -0.013212642 -0.4072391 -0.10734626
-0.026797108 -0.5961359 -0.24997212 0.023189433 -0.5386208 0.04484161 -0.1893835 -0.14710496
-0.06360137 -0.50615454 -0.66457474 -0.31960186 -0.29459625 -0.12881334 -0.061737068 -0.61343116
-0.38777903 0.081046246 -0.40087318 -0.2584637 0.03570168 0.06635931 0.19715483 0.1677819
-0.15574694 0.13836005 -0.22115844 -0.02296109 0.23413806 0.0042782854 0.32833448 -0.10487257
0.1509331 -0.34189513 0.22669268 0.02150413 0.2921709 -0.074014254 -0.15074307 0.38849524
-0.051609 0.5547646 -0.018635154 -0.14043741 -0.11240691 0.22485234 -0.23590569 0.6050293
0.17522688 -0.19167107 0.08108452 0.32181528 0.2454114 -0.23936073 -0.1850462 -0.03611925
0.3317032 0.14269947 0.23792382 0.22376165 -0.30932695 -0.12018993 -0.16014856 0.49288824
0.058728356 0.3032979 -0.25112507 0.19812845 0.013158061 0.1495441 -0.14273193 -0.29834723
0.07738029 -0.2020645 -0.2777296 0.1367301 0.31359383 0.001941985 0.041262526 -0.049998417
0.29595748 -0.23288722 -0.2651837 -0.14720297 -0.21882835 0.022305548 -0.106073245 -0.44569468
-0.2093285 -0.499751 -0.3791099 -0.32948002 -0.34890738 -0.42442432 0.23094574 -0.4427991
-0.35986406 -0.24435338 0.2033782 -0.10062188 0.3317232 -0.42622697 0.12295188 -0.12229897
0.2889291 0.28979948 0.065386474 -0.36483407 -0.10453197 -0.16552259 -0.31068832 -0.26253286
-0.27937207 0.2398161 0.2782543 0.18234614 -0.4095757 0.282987 -0.3792536 -0.24911273
0.20172267 0.49338078 0.41196072 -0.08217257 0.18706729 0.25225332 -0.20990932 0.51257163
-0.131471 -0.22387826 0.27257255 -0.22871736 -0.6580872 0.047867786 -0.45502868 -0.1004252
0.016645208 -0.10743791 -0.42791185 -0.2775802 0.19390765 0.27608 0.119157456 -0.59483385
-0.36860874 -0.054433674 0.29707995 0.05158341 0.17544104 0.081268094 -0.22004728 -0.07849399
-0.12839594 -0.35125434 -0.09364913 -0.10736654 -0.30588987 0.007715138 -0.37610367 -0.18228263
0.27434117 -0.3573772 0.35098267 0.1741444 0.15186453 0.3708868 -0.2715757 -0.35536665
0.37318978 0.24656415 -0.3403046 0.3895267 0.14291985 0.07640353 -0.12615998 0.062089697
0.070630044 0.5114546 -0.2973401 0.22000442 0.42430633 -0.052125238 -0.06389811 0.45667475
-0.079326145 0.14667025 -0.0241851 0.28200403 -0.07284043 0.011206775 -0.24774405 -0.3572146
0.19632499 -0.0666158 0.3744239 0.37223774 0.08999223 0.15373108 -0.31939366 -0.23417103
0.5046451 -0.06213875 -0.27708575 -0.14399824 -0.19964837 -0.16068114 0.2941421 -0.080678545
0.3229408 0.21068189 -0.14745551 -0.13002338 0.42371878 -0.16334066 -0.1877734 0.23414446
-0.27872175 0.22122261 -0.036600344 0.1952582 0.51856214 0.08752351 -0.3508883 0.38890556
-0.17359874 0.01961835 0.14078982 -0.26345268 0.04932188 -0.31781623 0.18524058 -0.26237947
-0.4586663 0.2930999 0.2970732 0.23350562 0.4718016 0.3557013 -0.12833744 0.19477218
00000000: c150 bd3e 1d9e 66be 8b81 d3bd d640 443e
00000010: 922e a63d 2244 bfbe 68fd 1fbe e1b1 b9be
00000020: 495d 68bd 4772 d1be d797 9dbb de8e a43d
00000030: e61a 06bd d679 58bc a581 d0be 5bd8 dbbd
00000040: 9c85 dbbc 5d9c 18bf b1f8 7fbe c4f7 bd3c
00000050: 0ee3 09bf d6ab 373d c0ed 41be afa2 16be
00000060: 6f41 82bd 5893 01bf 9221 2abf dba2 a3be
00000070: 52d5 96be a5e7 03be 02e0 7cbd d309 1dbf
00000080: f98a c6be 93fb a53d 403f cdbe 5b55 84be
00000090: ed3b 123d 64e7 873d f5e2 493e 05cf 2b3e
000000a0: 207c 1fbe 42ae 0d3e 5c77 62be e518 bcbc
000000b0: e3c1 6f3e dc30 8c3b 751b a83e 6ec7 d6bd
000000c0: 358e 1a3e e10c afbe 2022 683e 6e29 b03c
000000d0: 6d97 953e c994 97bd 645c 1abe d9e8 c63e
000000e0: f563 53bd 0e05 0e3f c0a8 98bc d3ce 0fbe
000000f0: 9835 e6bd b13f 663e 4391 71be 33e3 1a3f
00000100: ad6e 333e 6c45 44be a40f a63d f9c4 a43e
00000110: 204d 7b3e fb1a 75be c07c 3dbe c7f1 13bd
00000120: 00d5 a93e cf1f 123e 4da2 733e c621 653e
00000130: 1a60 9ebe 2326 f6bd fcfd 23be d95b fc3e
00000140: 258d 703d dd49 9b3e 7793 80be 2fe2 4a3e
00000150: e894 573c 1722 193e 5228 12be f8c0 98be
00000160: 8f79 9e3d ffe9 4ebe 9332 8ebe fa02 0c3e
00000170: 5f8f a03e 348a fe3a e502 293d 24cb 4cbd
00000180: bd87 973e fd79 6ebe 28c6 87be 60bc 16be
00000190: 8a14 60be 20ba b63c ee3c d9bd 1832 e4be
000001a0: 365a 56be 5ddf ffbe b11a c2be 9bb1 a8be
000001b0: fda3 b2be 254e d9be 0a7d 6c3e 90b6 e2be
000001c0: 1a40 b8be c637 7abe 6042 503e d812 cebd
000001d0: a0d7 a93e 6c3a dabe 32ce fb3d e277 fabd
000001e0: 84ee 933e 9960 943e 58e9 853d 88cb babe
000001f0: dc14 d6bd c17e 29be 8a12 9fbe b56a 86be
00000200: db09 8fbe 5a92 753e 5977 8e3e f2b8 3a3e
00000210: e8b3 d1be ace3 903e 872d c2be 6817 7fbe
00000220: 6390 4e3e 689c fc3e 84ec d23e 184a a8bd
00000230: 918e 3f3e 5927 813e 78f2 56be e537 033f
00000240: 55a0 06be 5840 65be a18e 8b3e e234 6abe
00000250: 6778 28bf 0311 443d 85f9 e8be baab cdbd
00000260: 885b 883c 6808 dcbd 4317 dbbe fe1e 8ebe
00000270: ba8f 463e 5c5a 8d3e d308 f43d 0847 18bf
00000280: 49ba bcbe d8f5 5ebd dd1a 983e 2049 533d
00000290: d1a6 333e e36f a63d 1354 61be 75c1 a0bd
000002a0: 3a7a 03be 9cd7 b3be 1dcb bfbd fde2 dbbd
000002b0: 999d 9cbe 45cf fc3b a990 c0be 4ca8 3abe
000002c0: 7276 8c3e 25fa b6be 00b4 b33e e952 323e
000002d0: 6082 1b3e e0e4 bd3e f80b 8bbe 9ef2 b5be
000002e0: bb12 bf3e 507b 7c3e 683c aebe 0b70 c73e
000002f0: 9559 123e 7479 9c3d 1530 01be c451 7e3d
00000300: 7ca6 903d b0ee 023f f63c 98be d748 613e
00000310: ae3e d93e 4681 55bd 03dd 82bd 46d1 e93e
00000320: bf75 a2bd ba30 163e d51f c6bc d562 903e
00000330: 5d2d 95bd 9f9c 373c 9eb0 7dbe d5e4 b6be
00000340: 6b09 493e dd6d 88bd 7db4 bf3e f295 be3e
00000350: d94d b83d ae6b 1d3e 9187 a3be 88ca 6fbe
00000360: 6c30 013f 3485 7ebd 2fde 8dbe 4674 13be
00000370: 9f70 4cbe 9989 24be cb99 963e cb3a a5bd
00000380: 7f58 a53e febc 573e 94fe 16be d924 05be
00000390: abf1 d83e c642 27be ac47 40be 91c3 6f3e
000003a0: 9eb4 8ebe 2e88 623e 3eea 15bd c4f1 473e
000003b0: 7dc0 043f 873f b33d a2a7 b3be a11e c73e
000003c0: dec3 31be a9b6 a03c 352b 103e 45e3 86be
000003d0: bd05 4a3d cfb8 a2be b5af 3d3e 9a56 86be
000003e0: 4fd6 eabe 3111 963e fa19 983e 191c 6f3e
000003f0: fb8f f13e 7b1e b63e e46a 03be 5c72 473e

pretraining_head.3.bias f4 [16]
-0.04382105 -0.22379209 0.11583075 -0.03539829 0.07909395 -0.16373195 -0.06805097 0.11067978
0.1135859 -0.15449096 -0.15409873 -0.039335843 -0.06614951 -0.11671769 -0.05457463 0.16428567
00000000: b47d 33bd c129 65be ac38 ed3d ccfd 10bd
00000010: 02fc a13d 59a9 27be 4f5e 8bbd 15ac e23d
00000020: b99f e83d e132 1ebe 0fcc 1dbe 9f1e 21bd
00000030: 6579 87bd af09 efbd a689 5fbd 813a 283e
